assignment_3/AE_model_params.pth (torch, 54063 bytes, 16 tensors)

encoder.encoder.0.weight f4 [16, 1, 3, 3]
0.09696536 -1.4270472e-23 -0.060788862 0.10273018 3.2229873e-06 -4.4384113e-19 -0.09827423 0.003125903
0.054880552 -0.01673865 -0.0048160525 0.04571347 -0.090971485 0.004431935 3.1869572e-12 0.019770348
0.0010567392 0.004750742 0.102404915 0.0012531154 -0.00045858155 -2.310143e-05 -0.023920372 -0.055006105
-0.0022018435 0.022065649 -0.012467149 0.055151265 4.260575e-08 0.0056648576 -0.07066168 -0.004572315
-3.4253708e-11 3.0724637e-05 1.1649257e-15 0.07377043 5.9261325e-14 -2.6710564e-25 -0.0042907572 1.9732721e-10
-0.006353429 0.013615981 -1.0269654e-13 0.0038127592 0.04900922 -0.025549088 -0.10254573 -1.4259622e-06
-6.4120775e-09 0.09816255 9.178713e-05 -1.6338586e-23 -0.002323842 0.041012675 3.655955e-05 -1.1314361e-07
0.08135679 0.04310398 -0.019551098 -0.05941479 8.011397e-18 0.011294818 -0.011993387 0.023831435
8.1951525e-24 -0.0037050196 -1.5290213e-19 0.10343454 0.069701985 -0.084615886 -0.035844713 -0.0043504634
0.07317454 9.408927e-05 0.0036593091 0.112669714 -0.043333076 0.10500714 0.063868605 -0.07624073
0.03721244 -2.803275e-07 -0.00073769334 0.00074923754 -4.676741e-10 0.03815734 0.008645824 0.02575092
0.0031548976 -0.024419915 1.9132828e-17 0.06416132 -0.0028668996 -0.07273485 -0.094052754 -0.04740249
0.111255564 2.69414e-07 -0.097198345 -0.00016672458 0.049730673 -8.76038e-25 1.4367607e-05 -0.0015602787
-0.10142089 0.0005988749 -0.049269352 -0.10754321 -0.05796566 0.005015229 -0.046382796 -8.8839945e-24
0.10452912 -0.020196682 0.00038499152 -0.10343536 0.010445959 0.021247769 8.792315e-07 3.823728e-12
0.00025844242 0.110789865 0.022489507 0.009666949 2.636552e-05 -0.09387813 -3.0311625e-07 0.08294186
-0.00555898 -1.2160452e-19 -0.05417968 1.7636402e-20 8.331791e-16 0.0010138334 0.00060998084 0.057383176
0.011367411 0.000307235 0.057645515 -2.3707962e-23 8.010674e-18 0.010387359 -0.011115765 0.0024459718
00000000: c695 c63d fa03 8a99 befd 78bd 3364 d23d
00000010: 804a 5836 b0ff 02a1 0044 c9bd f3db 4c3b
00000020: 6eca 603d 7e1f 89bc facf 9dbb 0c3e 3b3d
00000030: 424f babd c439 913b 1e43 602c 6df5 a13c
00000040: 4982 8a3a 1dac 9b3b abb9 d13d 933f a43a
00000050: c66d f0b9 f1c9 c1b7 a8f4 c3bc 154e 61bd
00000060: ce4c 10bb 05c3 b43c 0343 4cbc 4be6 613d
00000070: 84fd 3633 45a0 b93b 12b7 90bd 5cd3 95bb
00000080: 3fa6 16ae 54de 0038 2ce2 a726 f414 973d
00000090: d471 8529 9454 a596 7b99 8cbb acf6 582f
000000a0: 6d30 d0bb 9015 5f3c 8640 e7a9 7cdf 793b
000000b0: e4bd 483d 524c d1bc 7f03 d2bd b063 bfb5
000000c0: 3b51 dcb1 7209 c93d d77d c038 6104 9e99
000000d0: 994b 18bb e8fc 273d 8557 1938 5bf9 f2b3
000000e0: 649e a63d cd8d 303d a029 a0bc ec5c 73bd
000000f0: c1c8 1323 e60d 393c e97f 44bc 243a c33c
00000100: 6e84 1e19 eacf 72bb d583 34a0 7dd5 d33d
00000110: eabf 8e3d 184b adbd e8d1 12bd 558e 8ebb
00000120: 89dc 953d cb51 c538 05d1 6f3b 61bf e63d
00000130: 067e 31bd fc0d d73d 8bcd 823d 1a24 9cbd
00000140: 126c 183d eb7f 96b4 c361 41ba 7b68 443a
00000150: a48d 00b0 df4a 1c3d 37a7 0d3c 98f3 d23c
00000160: 66c2 4e3b 460c c8bc 1d78 b023 0367 833d
00000170: 98e2 3bbb 02f6 94bd bb9e c0bd 1d29 42bd
00000180: f5d9 e33d faa3 9034 ed0f c7bd cad2 2eb9
00000190: 64b2 4b3d 718f 8797 670c 7137 4482 ccba
000001a0: c1b5 cfbd d0fd 1c3a a9ce 49bd 9d3f dcbd
000001b0: 666d 6dbd ca56 a43b e3fb 3dbd 69d7 2b99
000001c0: 5d13 d63d 8373 a5bc b0d8 c939 ebd5 d3bd
000001d0: 8725 2b3c cd0f ae3c 5404 6c35 1489 862c
000001e0: 8e7f 8739 cce5 e23d ea3b b83c 1f62 1e3c
000001f0: 862b dd37 2d43 c0bd fbbb a2b4 6cdd a93d
00000200: 1b28 b6bb b690 0fa0 83eb 5dbd 3492 a61e
00000210: c425 7026 9be2 843a 1fe7 1f3a 9f0a 6b3d
00000220: 613e 3a3c 6214 a139 b41d 6c3d 124a e599
00000230: 57c5 1323 be2f 2a3c e61e 36bc 994c 203b

encoder.encoder.0.bias f4 [16]
0.02022166 -6.301957e-21 0.090272084 -0.0075618923 -0.108027704 0.043077763 0.031798508 -0.070926204
-0.026721032 -0.03341028 -0.0049054953 0.04972302 0.0002626604 -0.008453971 -0.012181858 0.07741974
00000000: e5a7 a53c ca14 ee9d 92e0 b83d c0c9 f7bb
00000010: a13d ddbd 4f72 303d 273f 023d c241 91bd
00000020: 11e6 dabc 38d9 08bd 47be a0bb 5eaa 4b3d
00000030: afb5 8939 8682 0abc 6a96 47bc 3e8e 9e3d

encoder.encoder.3.weight f4 [16, 16, 3, 3]
-9.161412e-22 8.549879e-09 9.711085e-25 -5.2795308e-08 2.2416207e-05 1.5792357e-22 8.638212e-27 -8.2118177e-17
3.179821e-24 1.5646515e-23 -3.6154846e-25 -1.5102045e-20 9.4041397e-26 -3.4968825e-23 1.0987511e-06 5.3669436e-07
5.875398e-21 7.5844687e-17 1.807368e-11 -1.8494794e-06 -5.2219525e-06 1.7916042e-05 2.0276717e-12 1.1364304e-15
-2.2302395e-21 -3.2906892e-06 7.8042546e-24 -1.0922192e-05 -1.8939005e-05 2.4908096e-19 -3.3801317e-14 -4.311101e-24
1.3687326e-09 8.629626e-15 1.5081205e-23 8.830058e-07 -5.000443e-14 1.5190773e-09 -2.4741833e-23 2.2701061e-21
6.652343e-06 -3.9791843e-08 1.0932048e-24 -9.3092415e-23 -4.8293036e-10 -4.0509323e-07 -9.712356e-23 2.5962973e-10
1.0393453e-05 2.487148e-20 2.6424726e-05 9.0476846e-08 -2.433067e-19 4.283838e-24 1.1369612e-18 -8.811014e-06
8.301981e-24 -2.9681297e-07 7.5177157e-25 -1.9286612e-24 -2.7766842e-07 -8.182944e-06 -2.3414611e-14 -6.218188e-24
3.8672583e-14 1.5771552e-21 -1.4280323e-07 -2.8507094e-09 -4.2916602e-20 -4.6076475e-06 -5.9414197e-06 9.314014e-25
-7.244578e-25 3.2263927e-06 1.5028942e-08 -1.0696079e-05 -6.6338895e-16 2.1701743e-07 -8.930489e-10 9.046237e-22
3.1423125e-25 7.543872e-16 4.403525e-20 -1.6741977e-05 -2.4549195e-23 2.8096752e-05 -6.5045147e-15 3.0117248e-22
8.329444e-23 -8.474245e-06 -5.3770912e-21 -4.5385818e-08 -9.0907315e-25 -2.1127291e-19 -6.467892e-08 1.6960392e-07
-2.2403347e-21 -2.851409e-14 -2.1095013e-05 -2.0345205e-06 2.0848844e-05 -1.1749702e-24 -1.6432178e-23 1.5332343e-11
-1.984407e-06 -1.125902e-25 1.0573672e-06 -6.7537007e-06 7.682179e-24 6.3143436e-18 1.6428169e-19 5.454357e-27
-5.908187e-17 2.0472384e-05 -1.3499248e-08 6.907119e-16 9.104878e-19 5.762267e-06 -2.2104737e-18 6.0378916e-06
-3.9379962e-22 8.7271844e-14 -1.3489181e-25 -5.4254946e-07 4.2015448e-23 1.7961464e-14 6.1668193e-22 3.9674686e-24
-4.163706e-11 -6.33153e-06 2.0020711e-07 6.751108e-06 1.0639003e-06 7.994963e-07 -8.155304e-09 1.01965e-13
2.376482e-14 3.1771021e-06 -1.6931696e-24 3.1992726e-20 -1.4541027e-13 1.4212748e-15 -9.859631e-25 -4.477944e-24
-2.8095099e-07 -6.611319e-07 -1.7808748e-12 2.1336993e-05 -4.727227e-18 -7.794754e-18 6.184258e-14 4.3520426e-08
3.078594e-24 -2.09512e-06 9.080361e-06 2.889081e-24 7.1923483e-07 5.1094155e-19 5.0652e-10 -2.40979e-05
9.133638e-22 3.659617e-24 1.9456712e-21 -9.1060285e-25 -3.3049054e-07 -4.1383596e-06 1.3592939e-15 1.9565423e-05
1.1624714e-24 -1.1413218e-14 3.776316e-23 -3.512312e-24 -8.457115e-23 -1.4038838e-20 -5.1234297e-22 2.737146e-22
1.0731931e-22 5.9480024e-25 -4.8318324e-18 -7.145149e-24 1.356863e-20 4.4409466e-19 -6.061615e-25 1.5843323e-14
2.4304746e-22 3.5981533e-23 2.5124751e-05 -1.7642014e-06 5.6493543e-10 -1.7267666e-06 -5.632853e-18 -5.2860997e-08
5.9218907e-15 -3.451714e-14 -1.343175e-06 -5.386205e-24 -8.635536e-23 2.5666935e-24 9.246384e-16 9.968968e-22
2.7829237e-06 8.1016815e-17 -2.59907e-11 -4.3219277e-09 -1.5221148e-24 -4.534669e-10 -1.5226331e-10 7.0171664e-23
8.9440365e-12 -6.353014e-24 -6.2520184e-15 -2.0310518e-24 -9.4171384e-07 -1.0522731e-23 3.840232e-24 5.5133242e-14
3.6350494e-25 1.3388569e-08 1.0910094e-23 3.563671e-12 1.4778915e-07 -2.127575e-23 2.4451284e-24 4.256719e-22
2.2641233e-09 1.0638021e-17 -8.430513e-08 -1.155713e-06 -4.9581054e-08 4.5494403e-11 4.1721215e-22 -2.0327298e-06
-1.3758354e-05 1.6531229e-05 1.4253235e-16 -3.363107e-07 8.4570866e-17 -1.4824802e-24 -1.2776908e-08 -5.3596223e-06
-1.7120912e-05 7.781141e-07 -3.203071e-07 1.1847848e-24 2.6842635e-08 1.0768293e-21 -1.1482056e-07 -7.115877e-06
-1.0395595e-12 7.8657315e-08 4.290836e-06 3.327969e-08 -1.0305848e-08 9.182254e-24 1.3188856e-08 -1.2143628e-23
00000000: 7f71 8a9c c4e2 1232 9245 9617 0ec1 62b3
00000010: 700a bc37 faea 3e1b f018 2b14 045a bda4
00000020: d806 7618 e552 9719 a4c9 df96 81a2 8e9e
00000030: d1d5 e815 4f19 299a cd78 9335 5b11 1035
00000040: 5df7 dd1d cde2 ae24 4ffa 9e2d a13b f8b5
00000050: 3b38 afb6 684a 9637 49af 0e2c e2c6 a326
00000060: 1b83 289d 9cd5 5cb6 ccf4 1619 753e 37b7
00000070: 34df 9eb7 0d08 9320 443a 18a9 14c7 a698
00000080: ff1d bc30 2075 1b28 41db 9119 b207 6d35
00000090: 2f33 61a9 c8c7 d030 d049 ef99 3d86 2b1d
000000a0: 3137 df36 98e7 2ab3 4e2a a917 6a15 e19a
000000b0: 34bf 04b0 977b d9b4 92d4 ea9a a3bb 8e2f
000000c0: 8a5f 2e37 8ce7 ea1e abaa dd37 2c4c c233
000000d0: 789f 8fa0 14b9 a518 2ec9 a721 04d3 13b7
000000e0: 6b95 2019 aa59 9fb4 7ba9 6817 1239 1598
000000f0: 7512 95b4 7a49 09b7 6be6 d2a8 f48d f098
00000100: 742a 2e29 3d55 ee1c 7455 19b4 36e6 43b1
00000110: fdaa 4a9f 649b 9ab6 685c c7b6 9c20 9017
00000120: 7635 6097 0185 5836 fe18 8132 4f73 33b7
00000130: 7735 3fa6 4c05 6934 bb7a 75b0 efb3 881c
00000140: ee7f c216 f36f 5926 5af3 4f1f 1f71 8cb7
00000150: dd6c ed99 51b1 eb37 8f59 eaa7 2f0c b61b
00000160: c364 c91a 9b2c 0eb7 0924 cb9d 3cee 42b3
00000170: 19ac 8c97 526d 79a0 9de5 8ab3 5f1c 3634
00000180: 6046 299d 826a 00a9 32f5 b0b7 cc88 08b6
00000190: 8de4 ae37 5dd1 b597 1aec 9e99 5edd 862d
000001a0: da2b 05b6 4261 0b96 dcea 8d35 d99d e2b6
000001b0: 4f98 1419 4af5 e822 18f3 4120 c011 d813
000001c0: c83b 88a4 1cbc ab37 52ea 67b2 8b15 4726
000001d0: 425d 8621 7f59 c136 ab1a 23a2 1899 ca36
000001e0: 8a09 ee9b cb84 c429 ecfc 2696 b7a3 11b5
000001f0: 9b2c 4b1a 51c8 a128 7461 3a1c e87b 9918
00000200: 291f 37ae 6e73 d4b6 83f8 5634 9387 e236
00000210: 56cb 8e35 f89c 5635 681b 0cb2 d29a e529
00000220: f20d d628 3336 5536 ae00 0398 d514 171f
00000230: a8b7 23aa c9d3 cc26 0692 9897 693b ad98
00000240: 9cd5 96b4 a378 31b5 c7a2 faab d8fc b237
00000250: 6667 aea2 afc9 0fa3 d241 8b29 37eb 3a33
00000260: d631 6e18 e399 0cb6 db57 1837 2588 5f18
00000270: 7111 4135 a7cd 1621 2d3b 0b30 d925 cab7
00000280: 0d06 8a1c 1793 8d18 c102 131d b2e8 8c97
00000290: 466e b1b4 3ddc 8ab6 18e5 c326 6d20 a437
000002a0: 3de2 b317 2e9a 4da8 879c 361a 41e0 8798
000002b0: 027b cc9a d497 849e 9ed8 1a9c 4873 a51b
000002c0: b8bd 011b ee14 3817 5e43 b2a2 1035 0a99
000002d0: ef26 801e d812 0321 1099 3b97 37b4 8e28
000002e0: c6e9 921b fbfe 2d1a fec2 d237 80c9 ecb5
000002f0: cc49 1b30 40c3 e7b5 cbd0 cfa2 4809 63b3
00000300: cd5b d527 8e73 1ba9 2447 b4b5 645e d098
00000310: 61cb d09a 9a96 4618 2341 8526 94a5 961c
00000320: 44c2 3a36 e3cf ba24 da9d e4ad 1480 94b1
00000330: 2e89 eb97 cb4b f9af 506a 27af 28aa a91a
00000340: 5c58 1d2d 34c5 f598 b140 e1a7 2025 1d98
00000350: 15ca 7cb5 0a8a 4b99 d18f 9418 4d4c 7829
00000360: a8ff e016 8d03 6632 2b08 5319 64c5 7a2c
00000370: f9af 1e34 35c4 cd99 c22e 3d18 c5a6 001c
00000380: e196 1b31 a23c 4423 3c0b b5b3 ff1d 9bb5
00000390: f2f2 54b3 2516 482e 7430 fc1b 086a 08b6
000003a0: aed3 66b7 8bac 8a37 2054 2425 318e b4b4
000003b0: d401 c324 1767 e597 7081 5bb2 ced6 b3b6
000003c0: e19e 8fb7 98df 5035 acf6 abb4 2956 b717
000003d0: 9493 e632 d1b9 a21c 4593 f6b3 ebc4 eeb6
000003e0: 144e 92ab 51ea a833 00fa 8f36 68ef 0e33
000003f0: 990d 31b2 529c 3119 3495 6232 55e4 6a99

encoder.encoder.3.bias f4 [16]
-8.481272e-25 -1.0219002e-07 1.7691755e-23 1.0105869e-05 3.6435217e-12 -6.150425e-25 -5.821201e-06 -1.2999286e-09
1.1858022e-24 -1.7193338e-22 -5.6316167e-11 1.0341473e-13 -3.5100708e-17 -1.6457243e-07 -5.5332535e-20 2.3230001e-07
00000000: c83d 8397 8f73 dbb3 aa1a ab19 608c 2937
00000010: ed31 802c b058 3e97 bc53 c3b6 2ca9 b2b0
00000020: 777e b717 ceda 4f9b 5eae 77ae 88de e829
00000030: 9adf 21a4 53b5 30b4 77a6 829f 246e 7934

encoder.encoder.6.weight f4 [16, 16, 3, 3]
4.843928e-08 -7.612076e-06 -1.3130317e-05 2.1201372e-21 -1.8096286e-07 1.0498841e-22 5.9743116e-10 2.2598015e-22
-2.264329e-16 8.719294e-14 -6.726429e-07 1.1011354e-06 1.1479549e-24 -1.6010659e-20 -8.094133e-17 1.0324098e-16
-5.991021e-10 6.7062466e-25 -2.6676363e-24 -6.676451e-21 1.9674692e-10 6.017957e-14 6.3133355e-24 -3.994482e-07
8.010796e-18 2.008095e-23 1.7144373e-22 -1.3772926e-06 -1.1454589e-07 5.325154e-19 -2.2444425e-10 -1.3703303e-15
6.3718813e-21 5.344636e-10 1.8461248e-24 2.4437728e-17 5.430003e-25 -3.6832097e-07 -1.191831e-18 9.317018e-22
4.5747606e-09 -9.20668e-08 2.8817833e-25 3.5390272e-21 3.0791755e-10 5.741059e-06 -3.2448534e-06 -3.341924e-24
-9.1585125e-06 2.01833e-22 1.4993138e-20 -1.072495e-05 -2.2289116e-05 -4.2353893e-21 1.2637143e-10 -3.6619885e-17
-3.501946e-24 -2.0563307e-06 -5.1676907e-22 1.0942213e-25 -2.0476138e-23 -1.4098657e-06 4.6376695e-24 6.61771e-20
-4.95681e-24 3.0262942e-07 -3.3048352e-22 1.2300775e-22 8.943711e-18 1.0488396e-15 1.533671e-05 3.2749107e-08
-3.918734e-07 1.2175352e-24 4.4872345e-24 -8.367671e-24 7.076499e-26 2.665879e-07 8.7685597e-16 -5.563008e-24
1.5458285e-05 -3.6658608e-07 -1.2046626e-12 -1.9948866e-23 5.3692593e-06 2.2552054e-22 -1.3156378e-16 1.3902179e-05
-1.525109e-25 -9.6737506e-20 3.351646e-23 3.0860633e-23 -5.1033128e-24 -4.2077374e-08 2.498385e-07 7.639572e-09
4.0264426e-23 4.8081973e-22 -5.7429258e-08 -7.3774427e-09 -3.4493426e-06 -2.4035342e-07 3.5954527e-06 6.4886954e-08
1.0295281e-09 -1.5623573e-07 -3.2027692e-06 4.647254e-06 1.5655981e-12 -4.8895114e-24 2.724084e-07 -9.728873e-08
1.3453254e-05 3.9505476e-24 1.9422547e-19 -1.2775664e-18 3.2995297e-06 -3.1896227e-06 3.3208117e-11 -6.10862e-07
2.4905937e-18 -3.2706955e-11 2.7208347e-05 -6.170106e-14 2.2703196e-07 7.187348e-06 -2.4708363e-19 -6.294589e-17
-1.7390953e-07 1.43723e-08 5.0701212e-17 5.2509673e-14 -1.7249714e-24 -7.0559675e-10 1.4125079e-08 -1.3206217e-06
-9.6813157e-23 -3.184858e-23 -4.452397e-24 -3.421298e-22 4.2027116e-22 -6.3673298e-21 -3.7942814e-14 7.8080454e-20
-3.4056586e-09 -2.1058155e-07 -3.7490163e-23 -7.714735e-07 4.719201e-14 2.7938154e-14 -2.5425015e-11 -1.06958275e-17
1.2237158e-05 2.1094602e-05 -4.0387427e-09 3.8491494e-06 -1.8381661e-20 1.2745435e-18 4.853922e-06 3.106371e-24
-1.4166238e-12 -1.1121129e-07 3.493597e-21 -4.0067775e-08 -1.9954341e-10 -7.556689e-08 1.728947e-21 2.3042514e-06
4.3862606e-06 2.3261686e-23 -1.8155164e-08 -2.257073e-05 4.3752152e-10 -3.002111e-11 -2.3079669e-07 -1.08172884e-07
-3.553803e-25 1.877684e-05 -2.1357205e-06 7.575252e-17 3.744808e-24 1.0883723e-05 2.6673582e-05 6.8935975e-17
-4.3970677e-24 -2.6306981e-08 5.708207e-17 -2.48795e-06 4.749407e-06 -4.7810977e-07 5.7875017e-25 3.5247502e-22
1.4620637e-22 -4.570343e-08 9.649155e-25 4.8556833e-20 8.360653e-14 6.4924197e-22 -4.3184638e-08 -3.923182e-09
-6.1000995e-14 -1.6510148e-19 5.5647116e-25 3.5942357e-08 -7.750424e-17 1.1451106e-05 -1.1594529e-08 8.9342643e-07
-2.1593636e-05 1.5793893e-24 2.4845233e-23 5.505348e-18 -2.9852544e-08 1.5462688e-21 -2.848793e-22 -2.348334e-25
5.952347e-23 -4.453435e-14 -3.707627e-25 2.0996873e-19 -8.030194e-24 5.509231e-22 -5.921052e-14 3.8853354e-06
-8.615703e-18 -9.47525e-10 7.5209427e-25 -5.614884e-23 1.2628847e-11 -1.3644793e-20 2.1116687e-22 -1.9820327e-24
2.6842377e-24 1.6856486e-05 9.635784e-06 2.233103e-10 1.9008989e-05 -1.0846161e-08 3.9369992e-21 -1.3717963e-22
3.7934992e-11 -1.0656211e-06 1.3677499e-15 -5.2865306e-16 -2.7819125e-09 8.3777525e-24 1.00632775e-17 1.35501256e-20
4.424218e-24 1.8392096e-20 2.4807472e-25 -3.346543e-09 6.3020064e-21 5.4515857e-22 4.7076174e-24 -6.044038e-14
00000000: 8d0b 5033 3c6b ffb6 484a 5cb7 6b31 201d
00000010: b14e 42b4 aed8 fd1a 7b38 2430 bc98 881b
00000020: 9987 82a5 4f57 c429 ab8f 34b5 b9ca 9335
00000030: 2ea3 b117 6637 979e 54a3 baa4 b80e ee24
00000040: 10ae 24b0 5c8c 4f17 fb65 4e98 ac3a fc9d
00000050: 5653 582f 2983 8729 3f3c f418 be73 d6b4
00000060: eac5 1323 0636 c219 4443 4f1b 6adb b8b5
00000070: 45fc f5b3 ba2b 1d21 71c7 76af 447c c5a6
00000080: 0eb9 f01d 88e9 1230 45d6 0e18 f465 e123
00000090: ea0c 2817 a6bd c5b4 1ae2 afa1 78cb 8c1c
000000a0: 0530 9d31 42b6 c5b3 ae5f b216 5fb3 851d
000000b0: 8b47 a92f 52a3 c036 28c2 59b6 d048 8198
000000c0: 83a7 19b7 4a00 741b 2f9b 8d1e 4fef 33b7
000000d0: 83f9 bab7 2c02 a09d 65f2 0a2f 21e1 28a4
000000e0: 9879 8798 7eff 09b6 122f 1c9c 4275 0716
000000f0: 7608 c699 9e3a bdb5 4169 b318 9a41 9c1f
00000100: dec1 bf98 1279 a234 d9c3 c79b 0eb5 141b
00000110: 7bfb 2423 5a27 9726 55a7 8037 06a8 0c33
00000120: ac62 d2b4 8a67 bc17 6b97 ad18 b3da 2199
00000130: a434 af15 901f 8f34 8dbc 7c26 5d35 d798
00000140: 6aac 8137 35cf c4b4 8b8a a9ab 00ef c099
00000150: 9629 b436 9d51 881b c6ae 17a5 673d 6937
00000160: a2cc 3c96 3c6a e49f 5e13 221a 9d3b 151a
00000170: c36c c598 90b8 34b3 8b21 8634 313f 0332
00000180: f2b4 421a a051 111c 23a8 76b3 ac7c fdb1
00000190: 417b 67b6 ec09 81b4 6849 7136 fb57 8b33
000001a0: 4d7f 8d30 c0c1 27b4 28ef 56b6 9cef 9b36
000001b0: 9e56 dc2b 6027 bd98 873f 9234 0ced d0b3
000001c0: 49b5 6137 54d4 9818 0c4d 6520 1889 bca1
000001d0: 7d6d 5d36 4d0d 56b6 040d 122e 1efa 23b5
000001e0: fcc5 3722 c2d8 0fae 7b3d e437 3df0 8aa9
000001f0: 12c6 7334 d92a f136 39da 91a0 b224 91a4
00000200: e3bb 3ab4 0bea 7632 6dd1 6924 887b 6c29
00000210: 9476 0598 f5f3 41b0 c1aa 7232 3740 b1b5
00000220: 7114 ea9a a202 1a9a 673e ac98 06ce ce9b
00000230: d009 fe1b 098d f09d 16e1 2aa9 bd5c b81f
00000240: fb08 6ab1 371c 62b4 934a 359a 4117 4fb5
00000250: af88 5429 ffa4 fb28 0ba4 dfad 9e4d 45a3
00000260: 324e 4d37 50f4 b037 28c5 8ab1 f127 8136
00000270: 219c ad9e e416 bc21 dfde a236 0458 7018
00000280: 405f c7ab 0ed3 eeb3 fffb 831d fc16 2cb3
00000290: 7a66 5baf 5647 a2b3 b3a2 021d bda2 1a36
000002a0: b12d 9336 25f9 e019 a1f3 9bb2 4656 bdb7
000002b0: ae87 f02f c408 04ae e9d0 77b4 ac4c e8b3
000002c0: 42f8 db96 f582 9d37 6653 0fb6 65ac ae24
000002d0: c8de 9018 3c99 3637 15c1 df37 9ef4 9e24
000002e0: 731a aa98 aaf9 e1b2 4f9f 8324 a8f6 26b6
000002f0: 185d 9f36 7457 00b5 501d 3317 de0e d51b
00000300: aec0 301b 744b 44b3 3e50 9517 9c4d 651f
00000310: e243 bc29 aa38 441c 037a 39b3 accc 86b1
00000320: ae5c 89a9 dcea 42a0 3038 2c17 0a5f 1a33
00000330: 6eb6 b2a4 201e 4037 4731 47b2 ccd3 6f35
00000340: fb23 b5b7 0e66 f417 d149 f019 8b1c cb22
00000350: 3837 00b3 60aa e91c f032 ac9b d65a 9196
00000360: 3eeb 8f1a 9c90 48a9 b27d e596 28e3 7720
00000370: 9853 1b99 9c81 261c 8a54 85a9 c75e 8236
00000380: 82ee 1ea3 123a 82b0 0cc3 6817 73c2 879a
00000390: 452b 5e2d 16df 809e fb48 7f1b 345a 1998
000003a0: ceae 4f18 0767 8d37 61a9 2137 4388 752f
000003b0: 7e75 9f37 ec55 3ab2 52bc 941d 0ad7 259b
000003c0: 01d7 262e 7606 8fb5 111d c526 b65f 18a6
000003d0: ec2b 3fb1 9f0c 2219 7ca2 3923 63f4 7f1e
000003e0: 5527 ab18 5cb5 ad1e 028d 9916 02f9 65b1
000003f0: 4415 ee1d 9ac3 241c fc1d b618 8219 88a9

encoder.encoder.6.bias f4 [16]
5.3479286e-22 2.6085376e-05 6.924421e-24 1.0295898e-05 -1.138561e-10 -3.7227342e-25 2.102255e-21 5.6565938e-24
-1.8901813e-24 -2.3130145e-23 -1.0589727e-22 -3.1422822e-21 -6.684266e-15 5.306909e-21 1.0397518e-23 -7.1446e-18
00000000: 98a1 211c ebd1 da37 12f0 0519 8cbc 2c37
00000010: 495f faae 146d e696 87d7 1e1d 31d4 da18
00000020: e63e 1298 77b3 df99 9e05 009b 946c 6d9d
00000030: 79d3 f0a7 467d c81d 041e 4919 6bcb 03a3

encoder.encoder.9.weight f4 [16, 16, 3, 3]
6.8880327e-19 -7.2572914e-07 -2.6454916e-07 -2.3808025e-06 9.625046e-19 3.160718e-10 6.093973e-18 4.2646803e-10
-1.3401918e-06 4.481193e-22 1.1405397e-23 1.2920958e-06 2.152862e-05 6.353639e-07 1.2592921e-09 -3.2234574e-08
-9.742853e-07 -5.312764e-06 1.6324253e-06 -2.5362684e-21 -8.7860474e-07 -1.0982356e-05 -7.1730675e-13 5.49839e-22
9.97798e-06 5.82805e-09 7.624882e-07 4.3364132e-23 -2.442449e-10 -2.2466741e-23 -3.9350175e-06 6.193936e-10
4.4317458e-06 -1.22711976e-23 2.2974638e-05 6.704975e-06 2.3607755e-10 2.6693713e-05 3.786566e-24 5.7603647e-06
-2.6261626e-08 -1.4673782e-06 -8.77955e-19 -1.6524836e-25 -1.3942703e-15 2.026944e-09 -1.0662643e-15 5.696587e-25
1.5483008e-07 -2.4812232e-06 1.5292761e-14 -2.6866631e-09 6.2832552e-09 -1.0832974e-23 5.346263e-13 -4.8362016e-11
1.9482595e-22 -9.026619e-19 -6.0982686e-14 -6.665527e-24 -8.619771e-18 -9.68769e-12 9.291812e-07 -1.5213981e-09
8.568921e-13 -1.12794864e-10 -3.8247424e-07 7.025696e-19 -1.2768692e-18 3.8353364e-06 2.8278705e-24 -4.3763464e-08
1.9241976e-05 -1.4865857e-25 1.2230832e-24 -5.259785e-08 4.2469614e-13 -8.779006e-23 5.633714e-07 1.8320262e-20
-2.6245197e-12 3.8057702e-22 3.2839646e-24 -3.0760673e-06 2.3501044e-23 1.4765732e-22 1.758682e-24 -2.6145006e-23
3.7031427e-06 -6.284314e-06 2.3289323e-23 -8.136871e-16 1.5997108e-07 -1.6502183e-23 -2.3436344e-24 6.3281296e-22
-4.479029e-24 1.8059214e-11 -2.976386e-22 8.3412505e-07 -5.907631e-17 -2.5228488e-21 6.8947196e-07 -9.01554e-24
-1.8402714e-10 1.9871922e-23 2.1636981e-06 -2.7428388e-09 6.3636754e-24 -5.445671e-24 -4.3111923e-16 8.172804e-17
-3.1772343e-12 -5.3443073e-06 4.3891566e-24 -1.7137642e-22 1.062022e-05 -9.114117e-06 -3.1394838e-24 -3.207992e-23
-6.4781986e-17 9.376547e-25 4.9984585e-08 -1.3810954e-21 -8.114846e-22 1.2353605e-09 -1.5681812e-23 -6.976532e-26
-2.8302018e-05 -8.2928955e-24 3.9123442e-08 1.0397467e-06 4.9493184e-07 -9.077602e-25 -1.436738e-05 1.5383175e-07
1.051565e-06 -1.2244273e-18 2.10452e-13 -1.4348042e-22 1.3148424e-23 3.358425e-23 -2.2964802e-07 4.1751045e-07
8.887019e-25 -4.8405402e-25 -8.176525e-23 -2.3710724e-21 -3.8143867e-06 -2.8943262e-23 -1.23352065e-05 4.3831538e-08
-2.1320005e-08 2.4807964e-24 1.4832756e-24 -1.181611e-19 1.3599476e-06 -5.7477384e-24 -7.734088e-08 -3.355372e-10
-1.1633467e-23 -1.5568412e-05 2.4084902e-21 9.464934e-16 -5.319364e-09 3.0866283e-06 -2.3706774e-23 -1.2430058e-06
-4.6151716e-26 2.2137852e-05 3.969058e-24 -4.1974595e-19 -3.0852314e-06 3.9018128e-06 -4.60296e-10 -1.1978327e-18
-2.744751e-12 -5.3232716e-06 9.223426e-06 8.1307473e-17 -7.682052e-07 -2.4838614e-11 -1.486842e-09 2.0877796e-05
1.3583204e-07 -5.02509e-06 5.84123e-06 6.1611477e-06 -7.5222737e-22 3.9756123e-06 5.8985603e-12 8.5272695e-06
8.67599e-06 1.9208313e-24 -5.999952e-25 1.3080438e-25 5.841426e-14 -4.4245788e-18 1.0304553e-06 1.7482377e-07
-8.4148086e-13 -2.9045983e-11 6.433265e-24 -1.4120743e-18 1.1190821e-06 -5.70649e-08 5.543475e-06 1.6455745e-07
-1.6514473e-14 1.5950466e-26 -1.2575486e-21 4.0380687e-06 -2.119093e-24 -1.0562175e-21 -7.313735e-24 7.347311e-24
-3.2296578e-23 -2.8838612e-25 3.983809e-08 4.359349e-24 -1.3775985e-05 -3.7769073e-25 4.5966337e-17 -3.5918538e-22
8.677312e-25 7.744937e-23 1.5169872e-21 -2.753462e-09 -1.4821303e-07 6.872386e-24 8.0262293e-22 1.0452855e-22
2.651724e-23 1.6274792e-24 -1.1185626e-21 1.8369664e-19 3.7231843e-17 6.868171e-08 -6.3007277e-25 -5.179406e-06
-9.566358e-12 6.209198e-07 -2.1121311e-06 6.07277e-24 2.2958715e-10 2.6060416e-05 2.867507e-20 3.0824743e-17
2.7633211e-08 1.4230004e-24 -2.4821075e-24 9.013111e-07 1.2988156e-07 4.5192433e-14 -3.4760966e-24 -4.2018223e-25
00000000: 814c 4b21 bacf 42b5 5c07 8eb4 e0c5 1fb6
00000010: 650a 8e21 27c3 ad2f f3d3 e022 0a74 ea2f
00000020: a4e0 b3b5 8d6f 071c ca9c 5c19 136c ad35
00000030: 5c98 b437 e08d 2a35 6713 ad30 4a72 0ab3
00000040: 30c4 82b5 4c44 b2b6 b519 db35 91a2 3f9d
00000050: 42d9 6bb5 dc40 38b7 66e7 49ab bb2d 261c
00000060: 1967 2737 1240 c831 caad 4c35 32b2 511a
00000070: 6a46 86af f548 d999 8b09 84b6 f341 2a30
00000080: 68b4 9436 075c 6d99 a9b9 c037 4cfb e036
00000090: f6c8 812f 50ec df37 557c 9218 2849 c136
000000a0: ed95 e1b2 bbf2 c4b5 3490 81a1 4c91 4c96
000000b0: 7fef c8a6 604a 0b31 36aa 99a6 034d 3017
000000c0: 5e3f 2634 1783 26b6 b5be 8928 47a0 38b1
000000d0: 19e4 d731 4a8a 5199 e37b 162b cab2 54ae
000000e0: b687 6b1b 9a35 85a1 2052 89a9 17ee 0099
000000f0: b801 1fa3 7a6d 2aad d96c 7935 7019 d1b0
00000100: 9531 712b dd09 f8ae dc56 cdb4 a85c 4f21
00000110: c16e bca1 4ab1 8036 bfcb 5a18 70f6 3bb3
00000120: d469 a137 c807 3896 5143 bd17 f3e7 61b3
00000130: 2a15 ef2a 6a43 d49a 963a 1735 ad07 ad1e
00000140: 25af 38ac 710b e61b 9f15 7e18 6f6e 4eb6
00000150: c449 e319 ba81 321b 4912 0818 e6db fc99
00000160: 8283 7836 d9dd d2b6 923d e119 8387 6aa6
00000170: 84c4 2b34 6d99 9f99 7654 3598 8841 3f1c
00000180: 2846 ad98 bcd9 9e2d 58e9 b39b a3e8 5f35
00000190: 8038 88a4 fe9e 3e9d 2714 3935 cb62 2e99
000001a0: 0957 4aaf 7f30 c019 0d34 1136 887c 3cb1
000001b0: ca2e f618 50ab d298 f885 f8a5 b873 bc24
000001c0: f793 5fac 4053 b3b6 1acc a918 6f2e 4f9b
000001d0: 7f2d 3237 d6e8 18b7 e2e7 7298 0421 1b9a
000001e0: 8960 95a4 5418 9117 a2ae 5633 8ab4 d09c
000001f0: 9441 759c 62c9 a930 49aa 9799 06bb ac95
00000200: 1f6a edb7 6e68 2099 ae08 2833 6d8d 8b35
00000210: 75db 0435 1678 8c97 6d0b 71b7 f32c 2534
00000220: 8023 8d35 8eb1 b4a1 a9f2 6c2a 0a75 2d9b
00000230: d853 7e19 4a67 221a 2b95 76b4 3326 e034
00000240: 1c85 8917 b6ce 1597 3db2 c59a 3627 339d
00000250: aafa 7fb6 06f6 0b9a 4ff3 4eb7 4941 3c33
00000260: 3023 b7b2 3cf1 3f18 9a86 e517 0080 0ba0
00000270: 7287 b635 d85a de98 9916 a6b3 aa76 b8af
00000280: 2306 6199 e998 82b7 fafa 351d 7167 8826
00000290: 9fc5 b6b1 df23 4f36 2147 e599 5bd5 a6b5
000002a0: 4088 6495 adb4 b937 a68b 9918 37c6 f7a0
000002b0: df0b 4fb6 51ec 8236 e70c fdaf d7c4 b0a1
000002c0: 0a25 41ac 8e9e b2b6 50be 1a37 767b bb24
000002d0: a936 4eb5 967b daad 9a59 ccb0 ba22 af37
000002e0: 3ad9 1134 329d a8b6 c9ff c336 dbbb ce36
000002f0: c658 639c 4066 8536 8289 cf2c 5810 0f37
00000300: 188f 1137 fc9d 1418 84b0 3997 90ed 2116
00000310: 8789 8329 f73c a3a2 2d4e 8a35 31b7 3b34
00000320: 16db 6cab bd7d ffad f8df f818 a962 d0a1
00000330: 5e33 9635 8517 75b3 1602 ba36 35b1 3034
00000340: c8bf 94a8 3cf7 9d14 0e09 be9c bf7e 8736
00000350: f6f4 2398 6f9c 9f9c dd77 0d99 1f1e 0e19
00000360: 3a2d 1c9a 9b80 b296 711a 2b33 e7a4 a818
00000370: 681f 67b7 7cc7 e996 79fb 5324 3f1d d99b
00000380: 6046 8617 d742 bb1a 9a3d e51c 6a37 3db1
00000390: 7d24 1fb4 68ee 0419 f193 721c 0abc fc1a
000003a0: c13a 001a 18d7 fb17 4b08 a99c e7de 5820
000003b0: 9ab3 2b24 2b7e 9333 82ff 4297 c2ca adb6
000003c0: 0c4b 28ad 49ad 2635 23be 0db6 cded ea18
000003d0: 0a6f 7c2f 519c da37 086a 071f 6f27 0e24
000003e0: 135e ed32 da32 dc17 340b 4098 a1f1 7135
000003f0: 9275 0b34 5487 4b29 9879 8698 440a 0297

encoder.encoder.9.bias f4 [16]
1.3435103e-06 -1.6954507e-21 5.8805736e-21 2.7697096e-25 -5.8722966e-12 1.5602937e-23 5.20165e-14 -4.4178484e-14
1.9619638e-22 2.3837787e-07 1.4057294e-15 1.3771811e-24 6.9786136e-26 3.6149628e-10 1.6471521e-08 2.483381e-18
00000000: aa52 b435 c91a 009d 6b29 de1d cd6f ab16
00000010: f29c ceac 00e7 9619 f142 6a29 53f6 46a9
00000020: d72f 6d1b cff4 7f34 4396 ca26 c41b d517
00000030: 38c8 ac15 14bc c62f 427d 8d32 be3d 3722

encoder.encoder.12.weight f4 [1, 16, 2, 2]
-1.5758178e-13 0.000118028045 4.4145248e-24 2.2829441e-08 1.3400043e-22 0.00015363646 -0.00019427796 -4.876046e-25
5.048045e-07 0.00015316361 -5.402776e-14 -7.899298e-22 -4.465301e-25 3.110177e-27 5.3830434e-05 -3.155217e-05
0.0006874674 -5.1918376e-24 -3.2007972e-25 -0.0014756592 -1.1193859e-23 0.00030004836 -4.2788197e-05 -8.106461e-15
-0.00020558322 5.5929224e-05 -1.562108e-25 4.2869196e-22 -8.4263355e-08 5.71037e-09 -2.8332654e-05 -1.6564209e-25
-4.25246e-24 6.364589e-05 -3.4638357e-05 -0.001058065 1.6187121e-05 0.0016479056 0.0017064326 0.00023319549
-8.445486e-06 -2.4945756e-19 2.182334e-21 -7.297913e-18 8.289659e-06 2.46362e-17 -1.2538005e-05 -2.670104e-14
4.2622116e-07 -6.356857e-07 3.813972e-09 2.3141958e-05 2.103821e-20 -0.0014541558 1.9823889e-11 0.00087457534
5.1835015e-23 3.1128296e-24 -9.308714e-25 -8.592314e-10 -4.3224354e-06 -3.6537017e-06 -1.5149116e-08 0.0002210876
00000000: db6b 31aa d385 f738 56c7 aa18 791a c432
00000010: 20ff 211b 7919 2139 18b7 4bb9 04e8 1697
00000020: e781 0735 8b9a 2039 c451 73a9 dcbd 6e9c
00000030: c231 0a97 e269 7613 fdc7 6138 e256 04b8
00000040: 2837 343a 78d9 c898 a81e c696 e86a c1ba
00000050: 4e85 5899 cf4f 9d39 7a77 33b8 7408 12a8
00000060: d391 57b9 8c95 6a38 2e61 4196 6f90 011c
00000070: 45f4 b4b3 f234 c431 e9ab edb7 130e 4d96
00000080: 5382 a498 a179 8538 a748 11b8 c5ae 8aba
00000090: 94c9 8737 89fe d73a 60aa df3a f085 7439
000000a0: 16b1 0db7 f640 93a0 7be4 241d 6b9f 06a3
000000b0: d013 0b37 953a e323 525a 52b7 6880 f0a8
000000c0: 64d3 e434 fda3 2ab5 0d0c 8331 fa20 c237
000000d0: 45b3 c61e 5f99 beba 6e5f ae2d c243 653a
000000e0: a4a8 7a1a f1d7 7018 9e0b 9097 092f 6cb0
000000f0: 7009 91b6 1e32 75b6 4221 82b2 c0d3 6739

decoder.decoder.0.weight f4 [1, 16, 1, 2]
-4.3946482e-23 -1.3871912e-15 -0.0005257671 -1.8052355e-21 -1.2701473e-18 -1.1386986e-23 0.0060290038 0.0009785214
3.422239e-06 -0.011403863 0.010828922 -1.3334415e-05 -4.5320834e-05 -1.8320532e-23 0.0028761723 0.0069498178
0.0035976232 0.0029641786 1.8878598e-06 -0.00026096 -2.2769174e-12 -1.2319822e-10 -0.0007270983 -0.0010180748
0.0004930076 0.011671416 0.011642468 -1.5708821e-06 0.0054168277 6.151499e-25 0.0023170987 -0.0077190464
00000000: 1c83 549a 52ea c7a6 a2d3 09ba 5566 089d
00000010: cf70 bba1 a041 5c99 f38e c53b bb41 803a
00000020: 9ea9 6536 45d7 3abc ca6b 313c e0b6 5fb7
00000030: e016 3eb8 712f b199 2a7e 3c3b 4cbb e33b
00000040: 1ac6 6b3b aa42 423b 5e62 fd35 75d1 88b9
00000050: 4c39 20ac 3775 07af be9a 3eba ec70 85ba
00000060: 2e3d 013a 7839 3f3c 0dc0 3e3c 19d7 d2b5
00000070: a57f b13b 3261 3e17 77da 173b 0ef0 fcbb

decoder.decoder.0.bias f4 [16]
0.0124214925 -0.011185697 0.00042848111 -5.9066356e-06 9.092014e-06 -2.5279585e-06 3.3330813e-25 -7.4539806e-17
-0.0018553517 2.7373705e-08 0.0061114132 5.6628893e-24 -6.892344e-07 0.0024643366 0.0025618095 -0.011967618
00000000: 8483 4b3c 3744 37bc c3a5 e039 9d31 c6b6
00000010: e789 1837 ffa5 29b6 c84e ce16 89e0 aba4
00000020: 462f f3ba 6a23 eb32 4042 c83b 8a12 db18
00000030: d403 39b5 b580 213b 08e4 273b d413 44bc

decoder.decoder.3.weight f4 [16, 16, 3, 3]
1.449338e-21 1.13526485e-05 1.9932513e-05 -1.2483938e-22 5.0460558e-14 1.6728562e-08 -1.649845e-23 4.6699716e-17
-2.1540902e-24 1.2500022e-09 -8.351855e-24 -1.72734e-22 -2.1470184e-21 2.0278574e-05 -1.73553e-25 2.6960834e-07
-1.2681823e-23 9.659958e-08 5.0996153e-08 4.7197482e-14 -1.4963026e-24 -7.870396e-17 -3.270987e-09 -1.6053047e-08
-1.4760774e-12 2.954319e-23 6.158838e-20 1.251463e-08 -5.9843807e-25 1.3026235e-09 -1.4146688e-06 4.692642e-22
-1.1546992e-18 -9.20671e-16 -3.168696e-24 3.159358e-25 2.1786632e-19 -4.596883e-09 7.4649824e-22 -2.7498484e-06
2.3749197e-13 5.42761e-22 -2.494883e-24 -3.2791676e-23 -1.03673343e-22 -6.552374e-24 -3.838443e-24 -7.62463e-24
5.9075327e-09 7.353873e-06 -5.247167e-24 -9.498071e-25 -1.8389443e-20 2.9748048e-14 7.8782365e-25 4.2155572e-09
1.0613378e-05 2.7344651e-05 -3.5393437e-09 2.3752531e-11 -2.7958255e-05 1.7373336e-24 -5.4045777e-06 -6.6167345e-25
8.39996e-06 2.0131671e-24 4.2037683e-22 -3.002181e-23 1.2964554e-15 8.600075e-18 5.4393576e-07 -1.0720009e-06
-5.2468683e-16 4.2452317e-24 3.3866252e-25 -1.8250247e-20 -8.5948113e-07 1.5331037e-23 -1.4001335e-15 2.887616e-06
5.306096e-10 8.676863e-25 -1.5826e-22 -7.276494e-24 6.3003137e-07 1.6329962e-22 -3.432326e-07 -1.0636566e-24
-4.304885e-08 -2.2948194e-08 -2.6864644e-05 2.4474073e-14 -9.516085e-15 -9.700436e-10 -2.9478282e-24 1.4596793e-08
1.8311789e-25 1.7382973e-08 -5.2823145e-11 -4.5340108e-12 8.0352835e-24 9.032319e-19 2.1193206e-10 4.358464e-07
3.2269465e-14 1.4725572e-22 -2.6159262e-07 1.2008215e-20 4.6083073e-24 -7.988356e-21 1.0641355e-07 -2.7497072e-07
-5.786567e-08 -2.8009657e-11 -4.4821117e-21 -7.92005e-25 1.9164603e-21 3.3827366e-26 -4.2552104e-24 4.4618428e-08
7.012865e-25 -2.275788e-05 -5.063083e-11 -5.5913554e-25 2.7563224e-06 -1.2572997e-18 1.6900773e-24 2.54002e-22
8.480367e-06 5.3729426e-10 1.3218618e-12 -2.1744906e-06 -1.2936744e-07 1.2841082e-21 3.8267013e-15 2.4135198e-09
-5.442666e-22 1.3816436e-12 -9.687268e-08 -3.2324172e-06 2.607347e-05 -3.3158746e-17 9.393145e-24 -1.3111548e-07
-4.6005693e-18 7.501987e-07 -5.6398445e-16 1.6555451e-23 1.0535446e-22 -1.8047777e-08 1.6848291e-20 7.190091e-06
5.541989e-22 -6.6781514e-21 -3.4013905e-21 2.5120728e-19 -8.589057e-08 -1.0194439e-06 7.3235633e-25 -5.466903e-09
-2.7460796e-08 -6.324813e-07 -1.3411548e-07 -1.091545e-05 5.9958125e-18 1.2899658e-07 3.6268736e-24 3.6962966e-20
-3.0143504e-14 5.4021493e-06 -1.1153533e-06 -1.1278724e-05 4.78487e-06 -1.9675042e-22 -4.1200815e-06 -1.3645126e-23
2.0380173e-18 1.0175494e-08 -1.7735838e-05 6.0864353e-19 1.6932363e-06 6.168895e-23 -1.3177539e-15 4.7424328e-14
1.8900225e-15 -5.954102e-07 -2.6029463e-21 -4.370289e-14 -3.338225e-09 -3.9723493e-24 -2.303179e-05 6.325207e-07
2.1209654e-21 -1.1627877e-20 -6.058082e-06 8.604761e-18 -2.367135e-05 5.8958283e-18 5.005694e-09 -3.1121182e-08
7.078881e-18 -2.0339467e-22 1.8292523e-05 -2.1776934e-10 9.961591e-07 3.222491e-07 4.5375277e-09 -5.5623927e-06
6.0755634e-14 -3.3355906e-17 3.0792585e-10 3.9155406e-14 2.172873e-10 2.0677098e-23 5.8697197e-16 -1.969136e-19
9.309123e-24 -7.3297497e-22 4.8783048e-24 1.3773217e-24 -2.3483239e-05 7.9618525e-07 -1.2290116e-10 3.6778034e-25
-2.7679627e-19 7.7727667e-26 -1.5333886e-05 -5.4628787e-24 6.2933627e-06 1.9510747e-23 -5.0761928e-18 1.6460148e-20
-1.837135e-20 9.454657e-22 3.1048895e-24 2.2034946e-08 1.43533325e-05 -8.447594e-09 -2.3323296e-06 -5.438894e-12
-3.8754518e-26 2.2143286e-10 1.0641477e-15 7.306186e-12 -9.616567e-19 2.205224e-10 3.5760987e-18 -1.160463e-20
-3.436679e-06 -1.594793e-12 -8.4357754e-07 -8.6647583e-07 8.413764e-17 -1.2304989e-08 -5.4349914e-07 -2.5793375e-07
00000000: 8c04 db1c 4177 3e37 bf34 a737 ebeb 169b
00000010: 1041 6329 7fb2 8f32 2f90 9f99 4b5d 5724
00000020: 27aa 2698 8bcc ab30 628c 2199 95d2 509b
00000030: 6039 229d e81b aa37 24d9 5696 b0be 9034
00000040: 594d 7599 2e72 cf33 dd06 5b33 fe8e 5429
00000050: a78a e797 9e7a b5a4 d0c7 60b1 06e5 89b2
00000060: 4bbd cfab b3dc 0e1a e46b 911f edff 5632
00000070: 2635 3997 fd07 b330 a6df bdb5 8fd3 0d1c
00000080: 4d67 aaa1 c4ae 84a6 7e2a 7598 078e c316
00000090: 079b 8020 9cf2 9db1 819d 611c 098a 38b6
000000a0: 33b2 852a 190a 241c 4008 4198 2192 1e9a
000000b0: b1aa fa9a 927b fd98 197e 9498 577b 1399
000000c0: 35fb ca31 4ac1 f636 6dfd ca98 bcf9 9297
000000d0: f2ae ad9e 2af9 0529 d2d1 7317 6fd8 9031
000000e0: 1d10 3237 3162 e537 cb38 73b1 f2ed d02d
000000f0: e587 eab7 706b 0618 f858 b5b6 2cc7 4c97
00000100: 8eed 0c37 e2c2 1b18 2a1a fe1b 332d 119a
00000110: c3d6 ba26 b5a4 1e23 fb02 1235 ace1 8fb5
00000120: 0e3b 17a6 bd3a a418 389f d116 645e ac9e
00000130: 18b7 66b5 cf45 9419 cfc7 c9a6 ddc8 4136
00000140: 55da 1130 9844 8617 1953 3f9b 74bf 0c99
00000150: 6d1f 2935 c96a 451b 8845 b8b4 c797 a497
00000160: b6e4 38b3 9d1f c5b2 625b e1b7 5f71 dc28
00000170: 326d 2ba8 6052 85b0 c113 6498 60c5 7a32
00000180: 60b0 6216 9051 9532 9351 68ae bd86 9fac
00000190: cc6c 1b19 234b 8521 9205 692f 46fe e934
000001a0: 2954 1129 7005 321b 0471 8cb4 2ad4 621e
000001b0: 7746 b218 52e5 169e 7885 e433 b09f 93b4
000001c0: fa87 78b3 2460 f6ad 5354 a99d 1a1d 7597
000001d0: bccd 101d 4881 2715 909d a498 7ba2 3f33
000001e0: a409 5917 2de8 beb7 3fad 5eae 480b 2d97
000001f0: 42f9 3836 718b b9a1 6ec3 0218 e888 991b
00000200: e646 0e37 b9b0 1330 1709 ba2b 77ed 11b6
00000210: 40e8 0ab4 880c c21c 17df 8927 17db 2531
00000220: 977e 249c f572 c22b 5208 d0b3 81ec 58b6
00000230: 5ab8 da37 f0ea 18a4 9ab0 3519 c0c8 0cb4
00000240: 26bb a9a2 4361 4935 b58e 22a6 501d a019
00000250: 41bb fe1a 7b07 9bb2 ab20 9f1e 6942 f136
00000260: 107f 271c 1e4b fc9d 3b80 809d 5f49 9420
00000270: d772 b8b3 d3d3 88b5 3fa7 6217 63d7 bbb1
00000280: eee2 ebb2 c9c7 29b5 6201 10b4 8021 37b7
00000290: d934 dd22 4f82 0a34 d14e 8c18 7c8d 2e1f
000002a0: 18c1 07a9 1c44 b536 3fb3 95b5 c039 3db7
000002b0: b88d a036 4edb 6d9b 3b3f 8ab6 b2f7 8399
000002c0: 0f61 1622 4cd0 2e32 6cc7 94b7 cea3 3321
000002d0: 2843 e335 9c27 951a 8ae8 bda6 8794 5529
000002e0: c330 0827 47d4 1fb5 4eac 449d 00d2 44a9
000002f0: ad66 65b1 3eac 9998 6434 c1b7 7eca 2935
00000300: 7041 201d f7a4 5b9e 8746 cbb6 d6ba 1e23
00000310: d691 c6b7 8684 d922 8dfe ab31 1aaa 05b3
00000320: 1295 0223 9ae3 759b e572 9937 9f70 6faf
00000330: c4b3 8535 9401 ad34 84e8 9b31 97a4 bab6
00000340: 3dcf 8829 b4d3 19a4 b648 a92f 1c57 3029
00000350: f0e8 6e2f 04fa c719 e32e 2926 7c79 68a0
00000360: 8b10 3419 3187 5d9c 64b8 bc18 5521 d517
00000370: dffd c4b7 6fb9 5535 9a21 07af 1fa5 e316
00000380: 4564 a3a0 c371 c015 45a1 80b7 bb55 d398
00000390: 932b d336 45b2 bc19 4947 bba2 3276 9b1e
000003a0: 3383 ad9e efdf 8e1c ac3a 7018 5c47 bd32
000003b0: 18cf 7037 e920 11b2 1e85 1cb6 345d bfac
000003c0: 30e7 3f95 cf77 732f 1f5c 9926 2388 002d
000003d0: 5dea 8da1 8a77 722f 4cef 8322 8c34 5b9e
000003e0: b2a1 66b6 7972 e0ab 3572 62b5 c497 68b5
000003f0: 1902 c224 ea65 53b2 fae4 11b5 257a 8ab4

decoder.decoder.3.bias f4 [16]
3.1675393e-17 -2.4574682e-21 -1.0380851e-15 -1.6632635e-25 -2.0469733e-22 2.7635913e-05 3.5584634e-12 5.3196385e-09
6.1301665e-11 -9.67461e-25 3.429628e-25 4.3165682e-10 -1.6904536e-05 6.013276e-14 1.058117e-24 -1.7356684e-12
00000000: b413 1224 59ae 399d 959a 95a6 ede6 4d96
00000010: c176 779b acd3 e737 9467 7a2c 09c8 b631
00000020: c5cd 862e 14b5 9597 a048 d416 4c4e ed2f
00000030: 37ce 8db7 2d68 8729 55bc a317 0b46 f4ab

decoder.decoder.6.weight f4 [16, 16, 3, 3]
-2.147184e-19 -1.9082455e-17 4.0564514e-06 -1.1395275e-12 1.9212592e-05 1.9671374e-16 3.6222437e-21 -3.3541605e-09
-3.8603145e-24 -1.08402055e-07 9.031938e-12 1.1297377e-15 3.343372e-25 8.889856e-07 -6.1679852e-09 2.6517241e-25
-2.0942531e-07 -1.268402e-18 1.8342913e-24 1.3853749e-24 6.687007e-11 -8.610571e-07 9.568912e-08 3.418817e-23
4.1918042e-07 -9.487154e-24 -1.3766251e-07 4.4434705e-09 -1.8244024e-20 -5.3051764e-24 2.0578067e-07 3.6605836e-06
-4.155522e-07 -2.4873386e-19 -2.3532133e-19 2.2494924e-06 4.9555324e-14 1.1165675e-10 1.6730598e-22 1.607447e-06
8.5517874e-23 3.3907988e-06 -2.386612e-24 5.2305306e-18 5.573093e-24 1.1057648e-06 2.8855298e-22 2.809529e-22
-1.9166678e-06 -4.1069903e-10 -5.73355e-16 -5.103777e-15 4.523501e-09 7.8361927e-25 3.7075617e-06 3.4933375e-06
-3.055065e-06 -2.7291344e-05 3.290798e-07 -1.2018015e-11 -9.569494e-06 3.2526284e-18 6.017983e-17 8.2915654e-11
-1.2574634e-18 -1.6479627e-08 9.550614e-24 1.8219681e-24 -6.2430088e-21 2.4112604e-05 -8.885696e-26 6.187518e-20
2.1296813e-24 1.33882074e-20 -1.1281253e-24 2.5187373e-05 -1.0833052e-15 9.238111e-24 -2.3896553e-07 -2.5369377e-07
6.749918e-11 7.1273485e-06 -2.3261524e-22 -3.1095285e-06 -1.2249805e-08 -4.153012e-06 -3.2898107e-24 3.0487448e-07
-4.2932998e-06 5.1471414e-09 -2.8628067e-05 6.7154137e-06 -5.536646e-27 1.6371041e-24 5.1467586e-09 -1.2579645e-08
3.2237822e-24 -6.158728e-24 1.8449726e-14 -4.3742406e-25 6.372198e-21 8.4666345e-18 1.1600241e-15 -3.6984215e-20
-2.9611988e-22 2.6431736e-25 1.653476e-20 -1.0648408e-06 -4.0117932e-08 1.1547528e-09 -3.2819926e-07 -7.823603e-06
-2.4866972e-21 -4.2671337e-22 -1.5412152e-05 -2.1545177e-09 1.3644308e-15 -6.744396e-17 -8.3462186e-24 1.9930923e-23
-5.263264e-22 -9.120628e-25 6.5109056e-08 1.740474e-05 1.04641975e-26 2.4274752e-21 5.871835e-18 -1.3597098e-23
-6.6526447e-09 -8.530671e-18 -1.4075962e-06 2.136819e-05 2.0069648e-17 -5.5327826e-10 6.168123e-25 1.8964052e-24
-2.756615e-22 4.9235823e-16 1.7946155e-06 8.333633e-23 -3.306088e-22 -3.4437064e-06 2.884714e-14 8.781299e-23
-4.427135e-09 5.3612625e-09 -1.797636e-09 -5.16371e-24 2.9479308e-22 -4.0074805e-25 -2.4096667e-05 -4.5262146e-07
2.4910623e-21 -1.8574963e-09 2.193828e-25 -5.592787e-23 -1.126631e-15 -6.066452e-20 -7.2744465e-06 7.7682496e-25
-4.4609415e-06 9.92139e-10 4.3966218e-17 -7.676066e-24 -2.8747736e-24 -3.5294195e-23 -2.129825e-07 8.2116215e-22
-2.9879683e-22 1.8369213e-17 2.7688474e-09 1.0542492e-23 1.6887128e-05 -1.6510998e-22 2.3401578e-25 -2.508724e-24
-1.4312509e-05 -2.1162003e-17 -5.7611594e-19 -4.851193e-11 -8.6029314e-23 -7.262025e-24 -3.3085114e-22 -7.1042453e-19
7.748393e-06 2.0212162e-06 4.7951005e-07 6.719345e-24 2.1151277e-06 -2.7065898e-05 -7.3882465e-16 9.051813e-25
-2.0165176e-19 4.579148e-21 1.6090484e-06 -6.8098023e-12 -8.478306e-23 2.035795e-06 -2.1392315e-19 1.6440948e-11
-4.9447557e-09 1.7283146e-22 1.110437e-06 -4.0566695e-18 7.4518493e-25 1.5347897e-24 -3.943377e-06 -3.6313622e-13
1.197961e-11 -1.3688529e-24 7.5665574e-10 -1.3696799e-15 -7.1839586e-22 1.4414669e-23 1.033463e-25 1.5685824e-05
7.453473e-09 -1.2928068e-15 -2.657865e-23 -3.4769906e-10 1.4465787e-06 4.4899813e-24 -3.556297e-25 -1.7222187e-11
3.9958634e-17 3.643072e-09 -8.040598e-09 1.6736772e-22 8.0477155e-26 2.1234188e-26 -9.147868e-06 5.9166968e-18
6.0840116e-06 8.408251e-07 -3.8401393e-09 2.068487e-05 -1.943403e-11 -2.6273251e-24 1.7872735e-05 -5.235152e-24
1.3972854e-11 1.4357707e-06 1.6308656e-20 -1.4663534e-06 9.778722e-12 3.305747e-23 -4.782399e-20 2.9764886e-24
-2.4258694e-07 3.224927e-11 1.5038134e-05 -2.3148445e-24 8.265045e-06 -6.2112144e-23 8.987207e-17 -1.4201476e-23
00000000: a87e 7da0 2c01 b0a3 a71c 8836 ce5f a0ab
00000010: ba2a a137 a6cb 6225 31d8 881d 047f 66b1
00000020: b456 9598 a9ca e8b3 3ce4 1e2d f7cf a226
00000030: d8f1 ce16 a0a2 6e35 2cee d3b1 3f22 a416
00000040: 64de 60b4 df2e bba1 e2eb 0d18 5b60 d617
00000050: 810c 932e 6523 67b5 a67d cd33 e852 251a
00000060: b80b e134 1c82 3799 62d0 13b4 2ead 9831
00000070: 584f ac9e ec3b cd98 8ff4 5c34 59a8 7536
00000080: 0f19 dfb4 99d3 92a0 c1e8 8aa0 fcf5 1636
00000090: 662d 5f29 2a89 f52e b142 4a1b 75bf d735
000000a0: 00c5 ce1a 7b8d 6336 b9a7 3898 f7f8 c022
000000b0: 3d99 d718 ca69 9435 696b ae1b 5bd3 a91b
000000c0: 1aa0 00b6 c0c8 e1af 2242 25a6 09e2 b7a7
000000d0: 236d 9b31 b784 7217 6dcf 7836 156f 6a36
000000e0: 9e05 4db6 b7ef e4b7 62ac b034 546c 53ad
000000f0: aa8c 20b7 6a00 7022 e7c3 8a24 5d55 b62e
00000100: a091 b9a1 158f 8db2 5abc 3819 ccf7 0c18
00000110: adda eb9d 6c45 ca37 caff db95 4019 921f
00000120: afc6 2418 66e5 7c1e a691 ae97 7949 d337
00000130: e81e 9ca6 e9b0 3219 2c4b 80b4 6833 88b4
00000140: a96e 942e 7527 ef36 779b 8c9b 4bad 50b6
00000150: 3673 52b2 1a5a 8bb6 6a89 7e98 a1ad a334
00000160: 2a0f 90b6 bcda b031 4e26 f0b7 f754 e136
00000170: 4354 db93 6054 fd17 5ed7 b031 dd1d 58b2
00000180: 966d 7918 1641 ee98 2c2e a628 4e60 0797
00000190: 1ebc f01d 8d2e 1c23 562d a726 2ca7 2e9f
000001a0: 55fe b29b c29a a316 992a 9c1e a7eb 8eb5
000001b0: 224e 2cb3 41b5 9e30 5d33 b0b4 1e42 03b7
000001c0: b8e3 3b9d 59f7 009c 5849 81b7 ad0e 14b1
000001d0: 9da2 c426 e383 9ba4 7970 2199 93c2 c019
000001e0: 8812 1f9c 8822 8d97 15d2 8b33 6500 9237
000001f0: c943 4f14 336a 371d eaa1 d822 c980 8399
00000200: 4895 e4b1 f45c 1da3 a3ec bcb5 d73f b337
00000210: 1e1c b923 7f15 18b0 e8e4 3e17 2dba 1218
00000220: 8da0 a69b a0e9 0d26 85de f035 b17e c91a
00000230: 3cd7 c79b 6d1a 67b6 7dea 0129 9c51 d41a
00000240: 7e1d 98b1 2a36 b831 b210 f7b0 e8c2 c798
00000250: 0531 b21b 100d f896 3323 cab7 d2ff f2b4
00000260: 2738 3c1d d74a ffb0 98ca 8716 ad39 879a
00000270: 595d a2a6 743d 8f9f 0517 f4b6 6a6a 7017
00000280: 32af 95b6 ca5b 8830 26c2 4a24 0a7a 1499
00000290: c26c 5e98 19ac 2a9a 2fb0 64b4 582e 781c
000002a0: 929c b49b 146d a923 1446 3e31 e4eb 4b19
000002b0: d5a8 8d37 109b 479b 48d9 9016 661a 4298
000002c0: c21f 70b7 5e2f c3a3 170a 2aa1 945b 55ae
000002d0: 9101 d09a ce77 0c99 bcfc c79b 29ae 51a1
000002e0: 18ff 0137 3ba4 0736 aeb7 0035 96f8 0119
000002f0: 9ef1 0d36 930b e3b7 a3f3 54a6 ed11 8c17
00000300: 8111 6ea0 cdfe ac1d 7bf6 d735 3f99 efac
00000310: 2cfe cc9a b19e 0836 4e8e 7ca0 b99d 902d
00000320: 88e6 a9b1 bff0 501b 530a 9535 29aa 95a2
00000330: a29f 6617 497f ed17 5a51 84b6 726d ccaa
00000340: 5ebf 522d dad1 d397 eafc 4f30 4564 c5a6
00000350: 301f 599c fe68 8b19 80df ff15 0d95 8337
00000360: b90c 0032 2750 baa6 c686 009a 4b26 bfaf
00000370: 1128 c235 9fb2 ad18 c61f dc96 eb7c 97ad
00000380: d446 3824 9a59 7a31 ed22 0ab2 cd55 4a1b
00000390: 7540 c715 104b d214 cb79 19b7 9f49 da22
000003a0: 4325 cc36 10b5 6135 39f2 83b1 6c84 ad37
000003b0: 8cf1 aaad 8947 4b98 68ed 9537 6f86 ca98
000003c0: 24d0 752d b5b4 c035 e907 9a1e 85cf c4b5
000003d0: 7307 2c2d 2adb 1f1a a8d7 619f 6e4b 6618
000003e0: e53c 82b4 73d5 0d2e 4b4c 7c37 381a 3398
000003f0: 19aa 0a37 8e2d 969a 1b3b cf24 2759 8999

decoder.decoder.6.bias f4 [16]
6.706632e-07 -1.7319081e-22 1.2727823e-05 1.4076128e-23 -7.1462914e-08 4.2070396e-06 -2.9102853e-08 -6.118679e-14
6.5091027e-10 -1.4564907e-06 9.341908e-10 -1.6185853e-06 1.357538e-06 -3.4460623e-24 1.9081704e-06 -1.9096857e-08
00000000: a007 3435 f65f 519b 9589 5537 ce22 8819
00000010: 2777 99b3 322a 8d36 dafd f9b2 c8c7 89a9
00000020: bdeb 3230 a47c c3b5 eb64 8030 2b3e d9b5
00000030: a734 b635 2650 8598 1e0e 0036 6f0a a4b2

decoder.decoder.9.weight f4 [16, 1, 3, 3]
0.0001799221 0.07009795 0.03931715 -0.0015323983 -0.023097577 -0.011079604 -0.10436945 0.00813624
0.0073385374 -0.02881917 0.085878596 0.022698592 -0.07780252 0.0064423727 -0.06962661 3.851366e-08
-0.0030910813 -0.04227185 -2.2652424e-25 -0.07849949 -0.014985851 -2.519619e-21 -0.012599756 -0.003773283
0.0001531633 -1.0250237e-06 -0.00032111062 -4.606156e-09 -0.020603217 -7.7101106e-08 0.11181958 -3.2982368e-07
-0.00021258344 -0.0627202 -0.077290274 0.010824422 3.606608e-11 -0.013160792 0.11201812 0.009775189
-0.0046094856 -6.042451e-05 -0.0008607172 -0.0083388025 -0.012629571 0.0004150655 -0.037091848 -0.059035342
0.088105895 0.0057423194 -9.253285e-22 -0.036187395 -0.01267777 -0.025267454 -0.09140718 -0.06923572
0.092079274 -0.024950229 -0.035945866 -0.0060321344 1.3395238e-15 0.013245896 0.00030140535 0.07199634
5.9540085e-25 2.5679337e-11 8.838746e-24 6.507509e-06 -0.039206635 -9.611723e-20 -0.07548395 -0.027138237
0.0034291092 -0.03782035 0.07717109 -0.05187114 -0.044997744 0.04653339 0.0786341 -0.09654056
7.00445e-20 -0.028666414 -0.05989368 -0.0011269354 0.09707085 -0.017830513 -1.0176281e-18 0.03114781
1.2310741e-26 0.00042253122 0.007595748 1.4464106e-20 0.044416636 0.0025745605 0.006551879 -1.898337e-06
1.8400241e-09 4.112505e-05 -0.059993763 -3.5085894e-05 -0.0021214797 -0.090384014 -0.044107217 0.024936117
0.008368452 4.5028905e-08 0.0748655 0.020547409 -0.07216891 2.911244e-06 -2.461259e-21 -0.03739926
0.014707557 0.042601794 -0.0054635657 -0.077516906 -0.08435512 0.041273456 0.0001577768 -0.00020822651
0.0009067948 -0.00064387365 1.2088238e-06 -1.009569e-05 -0.03726566 -0.055330228 3.523085e-23 -6.308916e-12
-0.0060475357 8.08555e-05 0.0017512819 -6.1420515e-11 -0.002309443 -3.555919e-06 0.016556995 0.036719523
0.06023881 0.05512681 0.054629467 -0.0038338169 4.177382e-17 0.055364083 -0.018980535 -0.000108604756
00000000: 79a9 3c39 848f 8f3d 050b 213d c1da c8ba
00000010: 2137 bdbc 3a87 35bc a6bf d5bd dd4d 053c
00000020: 1d78 f03b 2e16 ecbc 1ee1 af3d 66f2 b93c
00000030: ed56 9fbd 8a1a d33b 6598 8ebd 386a 2533
00000040: bd93 4abb 3f25 2dbd 3336 8c96 57c4 a0bd
00000050: 3787 75bc 8560 3e9d 356f 4ebc 2f49 77bb
00000060: 769a 2039 8c93 89b5 bd5a a8b9 2d44 9eb1
00000070: 14c8 a8bc c892 a5b3 aa01 e53d 9f12 b1b4
00000080: efe8 5eb9 7373 80bd 5d4a 9ebd eb58 313c
00000090: cc9e 1e2e 5da0 57bc c269 e53d 1d28 203c
000000a0: 2b0b 97bb 5370 7db8 c1a1 61ba 799f 08bc
000000b0: 43ec 4ebc 269d d939 9fed 17bd 0bcf 71bd
000000c0: dd70 b43d 112a bc3b ead4 8b9c 3c39 14bd
000000d0: 6cb6 4fbc b1fd cebc b033 bbbd 75cb 8dbd
000000e0: 0f94 bc3d 6c64 ccbc f93b 13bd 36a9 c5bb
000000f0: b50b c126 5105 593c f105 9e39 d172 933d
00000100: 8444 3817 bae0 e12d 5af7 2a19 145b da36
00000110: 2397 20bd 4df3 e29f 5497 9abd 0251 debc
00000120: e8ba 603b 83e9 1abd e00b 9e3d d576 54bd
00000130: 8e4f 38bd cc99 3e3d ea0a a13d 0fb7 c5bd
00000140: 4d63 a51f d4d5 eabc 1353 75bd adb5 93ba
00000150: 15cd c63d 4c11 92bc e72c 96a1 b129 ff3c
00000160: dfd6 7314 2e87 dd39 c1e5 f83b 109c 881e
00000170: 38ee 353d f5b9 283b 25b1 d63b 5dca feb5
00000180: 18e4 fc30 b07d 2c38 05bc 75bd 3129 13b8
00000190: 8608 0bbb 411b b9bd c5a9 34bd d446 cc3c
000001a0: d51b 093c ce65 4133 1553 993d 0a53 a83c
000001b0: 4bcd 93bd cb5e 4336 acf7 399d f72f 19bd
000001c0: f7f7 703c 387f 2e3d b607 b3bb 2fc1 9ebd
000001d0: 61c2 acbd 5b0e 293d e370 2539 6157 5ab9
000001e0: f8b5 6d3a a1c9 28ba df3e a235 a960 29b7
000001f0: e0a3 18bd f3a1 62bd ae5d 2a1a aaf9 ddac
00000200: 682a c6bb f790 a938 458b e53a ad10 87ae
00000210: 065a 17bb 39a2 6eb6 89a2 873c 3667 163d
00000220: f8bc 763d a6cc 613d 26c3 5f3d c640 7bbb
00000230: d2a5 4024 73c5 623d 117d 9bbc bcc2 e3b8
