assignment_3/AE_model_params.pth (torch, 92557 bytes, 56 tensors)

encoder.encoder.0.weight f4 [16, 1, 3, 3]
000000 8e 92 22 3d fe 3d a5 be b0 19 e6 3d 04 9e bf 3d
       0.039690547 -0.3227386 0.11235368 0.09356311
000010 9c 69 70 3e d0 89 9a be 11 e0 69 3e cc 56 5f 3b
       0.23477787 -0.30183268 0.22839381 0.0034078835
000020 c5 04 ad bd 72 2b 0b 3e 21 fd 61 be 3b e1 84 be
       -0.08448175 0.13590792 -0.22069217 -0.25953087
000030 66 cc 33 be 44 d9 2b be 83 b4 83 3e e0 a8 2b be
       -0.1755844 -0.16782099 0.25723657 -0.1676364
000040 e8 3d c7 bd 66 ec 52 be a6 05 5b be d1 a2 12 3e
       -0.097286046 -0.20597991 -0.21388873 0.14319922
000050 3e 98 7c 3e 1c 89 50 3e ce b3 61 3d 6c 42 27 3e
       0.24667451 0.20364803 0.055103116 0.16333932
000060 46 25 8b bb ac a5 84 3e 63 5e 31 3c bd 69 ae bc
       -0.0042463867 0.25907648 0.010825726 -0.021290654
000070 1a 6e 1d 3e 3f e1 71 3e 6c d3 91 3e 82 10 8c 3d
       0.15374032 0.23621081 0.28481615 0.06839086
000080 a1 78 49 be f0 ae 1f bd c1 d4 e9 3d 01 f1 83 be
       -0.19674923 -0.038985193 0.11417533 -0.2576981
000090 93 dd 14 be 8d a6 96 be 89 e7 14 bb 6d dc c8 bd
       -0.14537649 -0.29423943 -0.0022721014 -0.09807668
0000a0 ec 2a 0a be b3 cc 5a 3e 92 db 67 be 60 03 0b bd
       -0.13492936 0.21367149 -0.22642353 -0.033938766
0000b0 b6 27 47 3e e4 5f 73 3e 09 ab fc 3d c9 cc 10 be
       0.19448742 0.23767048 0.1233731 -0.1414062
0000c0 c6 7e bb 3d bb cf 21 be 74 38 51 be 52 f3 8a be
       0.091550395 -0.15801899 -0.20431691 -0.27138764
0000d0 47 7f d1 3d 82 b1 83 be 46 5c 81 be d1 90 17 be
       0.10229354 -0.25721365 -0.25265712 -0.14801337
0000e0 34 21 d3 bd c4 e0 30 bd f7 8c 9f 3b d2 ee 9c 3d
       -0.10309067 -0.043183103 0.0048690992 0.07662739
0000f0 b7 36 4f 3e 76 6c 1b 3e 85 b7 e0 3d d4 ff 73 be
       0.20235716 0.15178093 0.109725036 -0.2382806
000100 d2 13 97 3e be 74 a1 bd 8d 82 9c 3e 20 1c 5a be
       0.2950731 -0.07883595 0.30568352 -0.21299791
000110 78 37 c3 3e 9f df 71 be 0e 95 53 be ec d1 8a be
       0.38128257 -0.23620461 -0.20662329 -0.27113283
000120 a2 4d ed 3d ba f7 d4 bd d6 2b 45 3c 9e a0 97 3e
       0.11587073 -0.103988126 0.012034377 0.2961473
000130 a2 ae 67 be ce 90 a9 3e ba 81 5b be 00 b7 52 be
       -0.22625211 0.3311829 -0.21436206 -0.20577621
000140 d5 3d 86 3e 61 4a 94 be b7 2a 00 be e3 97 c8 3d
       0.2621905 -0.28962997 -0.12516294 0.09794595
000150 a3 c0 a5 be e1 85 6f 3e 8c 7d 37 3e 7c 5a 5d 3e
       -0.32373533 0.23390914 0.17918986 0.21616548
000160 83 75 36 bd 59 26 a8 3d 1b 0a 89 3e 1d 87 94 3e
       -0.04454566 0.08210439 0.26765522 0.29009333
000170 3d ad 85 3e b2 4c 68 bd fe 6c e8 bd f2 58 83 be
       0.26108733 -0.056713767 -0.113489136 -0.25653797
000180 a2 bb 89 be 76 34 63 bd f2 eb 0f be 93 8a 55 be
       -0.26900965 -0.055469953 -0.1405485 -0.20853643
000190 3f 1e 1a ba 6c e1 4c be 7e 40 b6 3d 4a 15 90 be
       -0.0005879141 -0.20007867 0.0889902 -0.28141242
0001a0 87 30 63 3d 9e a1 46 3d c6 a3 bc 3e 98 4c 85 be
       0.0554662 0.048493974 0.368437 -0.26035
0001b0 9c 3f 59 3e ea e3 95 be 4d fb 2d 3e e5 cc fb bd
       0.21215671 -0.29275447 0.16990395 -0.1229494
0001c0 1a 3e 58 be d2 f3 24 be cd 5b d2 bd 73 29 21 be
       -0.2111744 -0.16108635 -0.10271416 -0.15738468
0001d0 02 06 7e bc 21 f0 92 3d 5b 76 20 be 6f 91 93 3e
       -0.015504362 0.07174707 -0.15670149 0.28821895
0001e0 42 7c 3e be b3 30 51 3e 39 ba 8e 3e e7 ea ac 3e
       -0.18602088 0.20428734 0.27876452 0.33772966
0001f0 35 9b c6 bd c9 89 94 3e 9b 24 af bc e0 35 10 3e
       -0.09697572 0.29011372 -0.02137976 0.14083052
000200 28 99 53 be 6e e4 fc bd 61 fa 97 be fe 86 b2 be
       -0.20663893 -0.12348257 -0.2968321 -0.34868616
000210 ed 6b bc 3d d1 fb 9d ba 96 34 80 bd fd 36 cf 3d
       0.09200273 -0.0012053197 -0.0626003 0.1011791
000220 9d 14 80 bd f7 00 8b 3e 3e fb 73 be 5a 49 61 3d
       -0.06253932 0.27149174 -0.2382631 0.055001594
000230 e5 fb 14 be 20 93 b3 bd 1f b6 65 3c 92 35 85 be
       -0.14549215 -0.08768296 0.014020472 -0.26017433

encoder.encoder.0.bias f4 [16]
000000 55 0c 4d bc a5 e1 b0 3b db 80 f3 bc 10 e5 63 bc
       -0.012515147 0.0053979927 -0.029724529 -0.013909593
000010 55 ca f5 bb 44 d3 9b bc 89 ad e9 bb 7a 56 b1 bc
       -0.0075009265 -0.019021638 -0.0071312827 -0.02164768
000020 71 40 6d bb 55 29 d6 bb f3 91 5f bc 2a 7f 04 bc
       -0.003620174 -0.006535689 -0.013645637 -0.008086959
000030 0d 1e bc bb 25 9f c8 3a 65 a5 a1 bc dd 65 0f bc
       -0.005740887 0.0015306218 -0.019732187 -0.008752313

encoder.encoder.1.weight f4 [16]
000000 34 49 80 3f 71 5c 7b 3f 49 76 6b 3f 38 ec 6c 3f
       1.002234 0.9818793 0.91977364 0.9254794
000010 ab 53 83 3f 8d eb 7e 3f 6f 92 84 3f c2 d3 83 3f
       1.0259908 0.9957817 1.0357188 1.0298998
000020 de 56 6e 3f ef 54 74 3f d5 70 84 3f 82 1f 7b 3f
       0.931013 0.954421 1.0346934 0.9809495
000030 49 6c 74 3f 25 cc 72 3f 5f 2b 73 3f 6b 26 80 3f
       0.9547773 0.9484275 0.94988054 1.0011724

encoder.encoder.1.bias f4 [16]
000000 c4 ee 9c 3b fc 4a b2 3c 3a 8b b8 bc 9c ea c5 3c
       0.0047892053 0.021764271 -0.022527326 0.024159722
000010 e5 33 35 3d d3 a4 8c bc 1b 56 3f 3c bf f8 24 bc
       0.044238944 -0.017168438 0.011678244 -0.010069071
000020 ce b2 b6 3d 59 61 05 3d c4 7e f4 bb 67 bc 35 bc
       0.08920823 0.03256354 -0.0074614007 -0.011092282
000030 de 92 c5 3a c6 9b b7 bb 6e 50 6f 3c d2 a9 26 3c
       0.0015073677 -0.0056032864 0.014606578 0.010172324

encoder.encoder.1.running_mean f4 [16]
000000 45 83 45 3c 1a 69 19 3f e7 5c 2f bf e3 48 87 be
       0.012055223 0.59926 -0.6850113 -0.26422796
000010 fb f3 dd 3e 1c b9 d0 3e 86 98 66 3b f1 52 59 3e
       0.43350205 0.40766227 0.0035186126 0.21223046
000020 f4 a0 5a be 7d 30 19 3c 31 d6 a0 3d 8c c3 82 3e
       -0.21350461 0.009349939 0.07853354 0.25539815
000030 3d 3a f7 3e 23 28 51 bf 20 3f 1b 3f 27 3a 66 3e
       0.4828662 -0.8170187 0.60643196 0.22483121

encoder.encoder.1.running_var f4 [16]
000000 0f c6 d9 3c fe b0 4a 3e 02 37 8a 3e 39 b0 b2 3d
       0.0265837 0.1979408 0.26995093 0.08725018
000010 2b ed 29 3e 35 55 1a 3e 49 b3 63 3d f7 c7 74 3d
       0.16594379 0.15071566 0.0555909 0.059761014
000020 e6 94 3b 3d 27 32 8b 3d 33 f3 d3 3d c2 12 68 3d
       0.045796297 0.06796675 0.10349121 0.056658514
000030 80 b5 16 3e ed 21 c3 3e f5 89 6b 3e 21 77 43 3d
       0.14717674 0.3811182 0.23001845 0.047721032

encoder.encoder.4.weight f4 [16, 16, 3, 3]
000000 75 f9 7f bd ad 71 13 3c fe 71 12 bd a0 76 ef bd
       -0.06249376 0.00899927 -0.035753243 -0.11692548
000010 0a b8 57 bd f7 ef 98 bc 9c e4 da 3c 1b 6e 0e bd
       -0.052665748 -0.018669112 0.026720338 -0.034772974
000020 25 91 cb 3d b3 78 8c bc 6a ce 8e 3d 93 e4 13 bb
       0.099397935 -0.017147398 0.06972964 -0.002256666
000030 71 93 a8 3d 8a d1 a4 3c 44 90 7b 3d e7 24 a7 3c
       0.08231247 0.020119447 0.06141688 0.020403339
000040 5f 07 b6 bc 7d 19 d1 3c 7a da e6 3b fe 66 85 3b
       -0.022220312 0.02552485 0.0070450874 0.0040711155
000050 3a 2e 16 bd bb c6 fb 3c 80 6f e7 3c 59 84 16 3d
       -0.03666518 0.03073441 0.02825141 0.03674731
000060 b7 ac 88 3d 22 8a 6d bc 13 e6 63 3d de a6 85 bd
       0.06673568 -0.014498265 0.055639338 -0.06525968
000070 94 78 10 bd 0e b4 3c bd fc a2 9f bd 2e 3f 94 3d
       -0.035271242 -0.04607015 -0.07794759 0.07238613
000080 04 52 6a 3a 40 5b fc bc ea ab 26 bd 9e c4 3d 3d
       0.0008938613 -0.03080523 -0.040691294 0.046330087
000090 42 d7 8c 3d 6d f5 69 3d 37 33 bc 3d cd 8b ab 3d
       0.06876995 0.057118822 0.09189456 0.08376274
0000a0 20 21 8a bc 0d 6d 26 3c 83 cb 37 3d 92 28 75 bd
       -0.016861498 0.010157836 0.04487182 -0.059853144
0000b0 88 c7 07 3e 71 b7 aa 3d 44 ac ef bb 3c e2 5e bd
       0.13259709 0.0833577 -0.007314237 -0.054414973
0000c0 5f 32 41 3d 6a 58 8e bd e4 b4 a5 3b 83 30 2b bd
       0.04716718 -0.069504574 0.0050569642 -0.04179431
0000d0 40 33 97 bc d4 b4 c5 3d da d9 bc 3d 85 6d b2 bc
       -0.018457055 0.09653631 0.092212394 -0.021780739
0000e0 e2 c0 1b 3d bb 34 c4 bc d9 11 a2 bd b8 24 44 bd
       0.038025744 -0.023950925 -0.079135604 -0.04788658
0000f0 de 74 b0 3c 01 67 14 bc 9f 1c 11 3e c5 74 41 3d
       0.021540102 -0.009057761 0.14171074 0.0472305
000100 55 78 3d bd eb 56 70 3d f4 b1 a8 3d 4d e1 b9 bd
       -0.046257336 0.05867664 0.08237067 -0.09076176
000110 50 31 be 3c 1a 57 81 bc 4a 62 2c 3d 4e 9a bf bd
       0.023216873 -0.015788604 0.042085923 -0.09355603
000120 fd cd 54 bd f2 5e d2 bd aa bf 64 3d a9 82 4a bd
       -0.05195426 -0.10272016 0.055846848 -0.049441013
000130 db f0 c5 bd 24 89 ba 3d a5 4c 43 bc 8a ca 02 bb
       -0.0966508 0.09108189 -0.011920129 -0.0019957148
000140 c4 8e b6 3d ce 12 e7 ba 44 f3 3c bc a5 3b 75 3d
       0.08913949 -0.0017629506 -0.011532608 0.059871335
000150 d7 be 5a 3d 5f 6d 28 3d 7d 2c 38 3d 49 be 74 3d
       0.053404655 0.04111993 0.044964302 0.059751783
000160 05 65 d8 3c 35 7e a8 3d b2 ab b8 bb 2d da 21 bd
       0.026415357 0.08227197 -0.005635702 -0.03951471
000170 06 b2 11 bd 97 47 7a 3d c6 76 2d 3d b8 33 a8 3d
       -0.035570167 0.06110343 0.0423496 0.082129896
000180 67 6a 27 bd 80 dc 07 3d b7 38 60 bd 14 f4 ab 3d
       -0.040872958 0.03316927 -0.054741587 0.083961636
000190 b6 71 00 3d 88 4d 01 3c d2 5d 58 3d 87 f1 30 bb
       0.031358443 0.00789202 0.05282385 -0.002699943
0001a0 d9 22 6c bd 16 39 14 3c b0 23 96 3d 7b 2b 84 3b
       -0.05765042 0.0090468135 0.073310256 0.0040335036
0001b0 35 0d 74 3d 06 52 ce 3c cc ed 54 3c 11 fc 59 3d
       0.059582908 0.025185596 0.012996148 0.053218905
0001c0 73 b0 8c 3c 2f 68 bf bc 9e e8 63 3d c5 aa 0e bd
       0.017173981 -0.023365108 0.055641763 -0.034830827
0001d0 58 cd cc 3d 02 04 9e 3c 33 e6 c4 3c 06 94 93 bd
       0.10000104 0.01928902 0.024035549 -0.072059676
0001e0 b2 10 26 bd b9 42 a3 bd ba 6b dc 3c 32 79 88 3d
       -0.040543266 -0.07971711 0.026906837 0.06663741
0001f0 2f f8 93 3b 21 b1 f6 bc ed 28 db bb e2 7c 23 bd
       0.00451567 -0.030113759 -0.0066882283 -0.03991402
000200 ed 65 0e bd e8 8a b6 3d 7a ed 25 bd fe ac 5d 3d
       -0.034765173 0.08913213 -0.04050968 0.054120056
000210 a6 a7 dd 3d 0e b6 3b 3b 09 94 92 3d 8f 57 72 bc
       0.10822992 0.0028642449 0.07157142 -0.014791383
000220 ab 0b f1 bc e4 94 42 3c 3b 14 2a 3d a2 7b e9 bc
       -0.029424509 0.011876319 0.0415232 -0.028501336
000230 aa 3c 1b bd c0 7c 55 3d 60 6d 02 3d d0 2f 00 3c
       -0.03789965 0.052120924 0.03184259 0.007823899
000240 57 48 8d bd 48 5e e6 3c 6d 03 ce 3c 56 78 cb 3c
       -0.06898563 0.028121129 0.025148118 0.024837654
000250 bb 21 9d 3c b4 7e a1 bb 94 69 97 bc bb 4c 0d bd
       0.019181123 -0.0049284343 -0.01848296 -0.034497004
000260 8a 88 1c bc f9 2a 12 bd 72 c7 ec bd 1f ec 7c bc
       -0.009554038 -0.035685513 -0.11561479 -0.015437155
000270 8b c8 fb bd 19 5e 85 bc 6f 05 a7 3c f0 c2 97 bd
       -0.1229411 -0.01628022 0.020388333 -0.07410228
000280 e1 81 c5 bd d1 48 6f bd 0c 17 7a bd e9 8c 48 3d
       -0.09643913 -0.058419053 -0.061057135 0.048962507
000290 fe 7b 8c 3d 76 a1 a8 bd 67 96 e3 3d 42 30 a8 3d
       0.06859587 -0.08233921 0.11112671 0.082123294
0002a0 7f 05 2d 3d 20 ae 08 3e 70 8d c6 3c 41 e1 cb bc
       0.04224157 0.13347673 0.024237365 -0.024887683
0002b0 53 ee 98 bc dd 2e de bb 58 b5 1a bd f8 ba e9 3c
       -0.01866833 -0.006780489 -0.0377706 0.028531536
0002c0 a0 b0 3f bd 79 61 a4 3d bc 4a a2 3d 54 01 7c 3d
       -0.046799302 0.08026404 0.07924411 0.061524704
0002d0 8d ee f2 bc e3 7b af bd cb 06 05 3d 11 f8 76 bd
       -0.029654766 -0.085685514 0.03247718 -0.06029517
0002e0 cf 9d e2 3c 8a 02 4b bd ce 1b b1 bc 4f ea 8c 3c
       0.02766314 -0.04956297 -0.021619704 0.01720157
0002f0 d9 b1 c0 bd 86 d3 52 3a 7f 09 c6 3d ba 6a 56 3c
       -0.09408922 0.00080423837 0.0966978 0.013086969
000300 5a b9 3c 3c 04 27 69 3d 7d 93 f8 3b b0 fa 59 3d
       0.011518801 0.056921974 0.0075859413 0.05321759
000310 83 7e 05 3e a3 a0 28 3c 2e 39 2b 3d 4d a8 bc bd
       0.13036542 0.010292205 0.041802578 -0.09211788
000320 7e dc 2e bd d7 41 d7 3d e8 2d 48 bd 36 3b 20 bb
       -0.042690746 0.10510605 -0.048871905 -0.0024449355
000330 52 62 de 3d 72 7f 76 bc 83 f3 e4 3c 93 cf 36 3d
       0.10858597 -0.015045034 0.027948147 0.044631552
000340 ea d3 61 bd dc 1b b9 bc 10 75 8a bd 71 03 c5 bc
       -0.055133738 -0.022596292 -0.06760609 -0.024049493
000350 73 d5 a4 bd ff 50 e5 bb ab 10 10 bd ae 10 bd 3d
       -0.08048525 -0.006998181 -0.035172146 0.09231697
000360 e7 08 17 3d 11 3b 57 3d 26 92 9d bd 59 8a ce 3b
       0.036873724 0.052546564 -0.07693891 0.0063031134
000370 c4 1f bc bc 57 ca a5 3c c6 54 44 bd c5 9e a7 3b
       -0.022964366 0.020238085 -0.04793241 0.0051153623
000380 74 3c fc 3c a3 82 c8 3d 42 a1 82 3d 41 f8 76 bb
       0.030790545 0.09790542 0.06378414 -0.0037684592
000390 b0 9e c2 3d 02 84 8c 3d 57 bc 3d 3d d9 b2 80 3d
       0.095029235 0.06861116 0.046322193 0.062841125
0003a0 3c 37 d0 3d 82 01 79 bc a1 fa c8 3d c7 df 4f 3c
       0.10166785 -0.015198113 0.09813429 0.01268763
0003b0 07 b6 98 3c 99 5d b2 bd a5 55 dd bb a3 ad 09 3c
       0.018641485 -0.087092586 -0.0067545944 0.008403215
0003c0 50 eb 9c 3b 58 00 0b bd 24 d5 b8 3c 48 fc 95 bd
       0.0047887936 -0.033935875 0.02256257 -0.073235095
0003d0 c7 82 f0 bd c7 fa c7 bc 5d 4b 74 3d 9d 25 3a be
       -0.11743694 -0.024411572 0.059642185 -0.18178411
0003e0 13 99 ab bd 2d c9 2b bd 64 02 fc 3c 3a 3b 3c bb
       -0.08378806 -0.041939903 0.030762859 -0.0028721825
0003f0 07 7b a8 bd 7b 4a af bd 89 62 51 3c 2f e5 8a bd
       -0.082265906 -0.08559128 0.01277984 -0.067819946

encoder.encoder.4.bias f4 [16]
000000 cf 90 24 3c eb 38 c3 bb 70 55 27 bc 9c 87 b1 39
       0.010044291 -0.005957713 -0.010213241 0.00033861108
000010 0d a1 05 bc 0c 5b 0d 3a 3d 08 db 3b 09 7b cc bb
       -0.008156073 0.000539229 0.0066843317 -0.006240253
000020 e1 00 c8 bb 41 6e cd bb 48 15 e4 bb 2d 5d 05 3b
       -0.0061036204 -0.006269247 -0.0069605447 0.0020349727
000030 4c d1 2a bb fe 21 2a bc 1c 0d d2 bb 52 98 97 3b
       -0.0026064692 -0.010384081 -0.006410254 0.0046263123

encoder.encoder.5.weight f4 [16]
000000 c6 85 5b 3f 3f c1 7c 3f 7f c4 72 3f be 98 7f 3f
       0.85751 0.9873237 0.9483108 0.9984244
000010 42 3b 87 3f 85 cf 7f 3f 1d ba 81 3f e9 c2 7f 3f
       1.0564959 0.99926025 1.0134922 0.99906784
000020 3c 50 73 3f 34 b7 6e 3f 76 3f 73 3f 59 f8 7b 3f
       0.950443 0.93248296 0.9501871 0.98425823
000030 5b 76 72 3f 0d 8b 7a 3f fa ec 84 3f 79 b2 7f 3f
       0.94711846 0.97868425 1.038482 0.998817

encoder.encoder.5.bias f4 [16]
000000 ff 83 42 3d b4 88 35 3b 90 92 9a 3b ee 78 c0 bc
       0.047489163 0.002769989 0.0047171786 -0.023495164
000010 9f e1 ae bc 93 3c c7 b8 2b 0f 97 3d af e7 38 bd
       -0.021347819 -9.500342e-05 0.0737594 -0.045142826
000020 7b ee 24 3d 0e 72 7a 3d 7f 9a 20 bd 2d bc 54 bc
       0.040266495 0.061143927 -0.03920984 -0.012984318
000030 3f 75 de 3c 0c f5 c6 b8 89 8a f8 bc 90 27 1d 39
       0.027155517 -9.487019e-05 -0.030339496 0.00014987425

encoder.encoder.5.running_mean f4 [16]
000000 5b 9b 02 3f 11 09 c7 bd 92 ff 1c bf 49 44 35 bf
       0.51018304 -0.09718526 -0.6132747 -0.7080732
000010 cd 07 86 3d 78 cf 30 bf b1 38 8d be c1 e3 4e bf
       0.06544457 -0.6906657 -0.27582315 -0.80816275
000020 02 a8 86 be 8f 4c 12 bf 33 37 87 3d fa d7 8f bf
       -0.26300055 -0.5714807 0.06602325 -1.1237786
000030 e9 26 65 be cd 14 12 bf c5 fc 1a 3e c3 3d 38 bf
       -0.22378124 -0.5706299 0.15135486 -0.7196924

encoder.encoder.5.running_var f4 [16]
000000 48 66 f6 3e a6 54 44 3f c7 7f e8 3e 16 97 c1 3e
       0.4812491 0.76691663 0.45409986 0.37810582
000010 63 3f a6 3e 8d 60 9f 3e 33 47 f0 3e ff fe 42 3e
       0.32470235 0.3112835 0.4692932 0.19042586
000020 26 b1 72 3e 8a fe 94 3e fa 79 9c 3e 1a 5c bf 3e
       0.2370039 0.29100448 0.3056181 0.37374955
000030 d4 34 cc 3e bb 5f 51 3e 29 3a 4b 3e 5a 31 bb 3e
       0.39884055 0.20446675 0.19846405 0.3656109

encoder.encoder.8.weight f4 [16, 16, 3, 3]
000000 d4 4d 83 3d 44 28 97 3c 52 00 57 3d 5e 3c b3 3c
       0.06411329 0.018451817 0.05249054 0.021879371
000010 19 d8 9d 3c bf 47 3d bd d9 ef 68 3d 3d ce fd 3c
       0.019268082 -0.046211 0.05686936 0.030982131
000020 dd fc 84 bd e2 60 c7 bb d5 aa 91 3b 5d 8e 02 bd
       -0.06493542 -0.0060845474 0.0044454136 -0.03187405
000030 a2 1b 20 3d b8 63 86 3d 99 90 2d bc 06 3f 9f 3d
       0.039088853 0.065619886 -0.010593557 0.07775693
000040 ab 43 81 3c 61 34 03 3e ac 17 d3 bc 80 7e 9b bc
       0.015779337 0.1281295 -0.025768124 -0.018981218
000050 88 ca ed 3c c5 71 e5 bc cd cf 95 bd 95 8e 2d 3d
       0.029027238 -0.028008351 -0.073150255 0.042372305
000060 54 ed 38 3d 87 83 d0 3c a8 27 2c 3d c5 bf a6 bc
       0.04514821 0.025453342 0.042030007 -0.020355115
000070 81 84 41 bd 56 5a d6 3c 6b 9f dd bd c1 24 74 bd
       -0.047245506 0.026166122 -0.10821422 -0.059605364
000080 e0 34 bc 3d 71 fe a9 3d a4 28 da 3c 94 2d a2 bd
       0.091897726 0.08300484 0.026630707 -0.079188496
000090 8e 44 fd 3c 00 8f 05 3c d1 b8 81 bd 2a 02 09 bd
       0.030916478 0.00815177 -0.06334079 -0.03344933
0000a0 6c c7 86 3c 5d c6 07 bd 63 39 3a bd 47 94 cd bd
       0.016452514 -0.03314816 -0.045464884 -0.10038047
0000b0 f2 2b 5a 3c 85 b9 89 3d be a3 c4 3d 5d 63 ca 3d
       0.013316141 0.06724838 0.09601544 0.09882233
0000c0 4c 70 37 bd cf c8 d5 3d 13 8e 4b 3c f0 7f 03 3d
       -0.04478483 0.10438692 0.01242401 0.032104433
0000d0 aa 65 a3 3d 7c a8 d2 bb 0b 5e be 3d 29 55 ff 3c
       0.07978375 -0.0064287763 0.09295281 0.031168537
0000e0 62 ac 00 3e ad e5 1b bd 62 a4 81 bd c2 a9 1e 3d
       0.12565759 -0.038060833 -0.06330182 0.038736112
0000f0 f2 aa 83 3c 98 7a 57 bd 51 3a a0 bd ed 81 c2 bc
       0.016072724 -0.05260715 -0.07823623 -0.023743594
000100 18 c5 53 3d e4 85 50 bd b1 d8 67 bd 5a 32 86 bc
       0.051701635 -0.050908938 -0.056603137 -0.016381431
000110 21 ce 48 3d c4 74 05 3d 4a 09 24 3d da b1 a4 3d
       0.049024705 0.03258206 0.04004792 0.08041735
000120 fa 7b b8 bc 90 0c 9a 3a 29 d1 26 bd 69 25 2d bc
       -0.022520054 0.0011753011 -0.040726814 -0.010568001
000130 06 71 8d bd 9e 85 93 bd 04 8b e8 bc 2b 5d 93 bc
       -0.06906323 -0.0720322 -0.0283866 -0.017988762
000140 23 e8 08 3d 64 d9 ba bc 80 4a ea bb 0c f8 9a bc
       0.033424508 -0.022808738 -0.0071499944 -0.018917106
000150 e7 03 30 bb 78 c0 38 3d 7f b9 ac bd 79 d7 11 3c
       -0.0026857795 0.045105428 -0.08433818 0.00890147
000160 d7 48 2c 3c 43 86 de 3b 26 b3 6d bd e8 c1 4e 3d
       0.010515413 0.0067909076 -0.058032177 0.050477892
000170 88 68 a1 bc e7 0e 7c 3b 9a d9 a4 3d 5c 74 57 bc
       -0.019703165 0.003846103 0.08049317 -0.013150301
000180 fe 51 2e bd b4 07 1f 3d e3 99 a6 3d 5a ba a9 3d
       -0.042558663 0.038825706 0.0813482 0.08287497
000190 6a 77 e1 3a 84 6d e2 3d 27 a2 54 3d 09 fa 1c 3d
       0.0017201726 0.11056045 0.051912453 0.03832439
0001a0 e7 41 a8 bd c9 62 1a bd e0 cf a3 bd 64 60 7e ba
       -0.08215695 -0.037691865 -0.079986334 -0.00097036944
0001b0 99 b7 5d bd e0 a3 5f bd b6 d6 ad bc 52 52 85 bd
       -0.05413017 -0.054599643 -0.021220546 -0.06509842
0001c0 30 15 83 b8 66 fb 7e 3d ab f1 ca 3c bf 14 a8 3d
       -6.250513e-05 0.06225147 0.02477344 0.08207082
0001d0 5d ce 70 3d bb 99 80 3c 09 cc 29 bd af d6 86 3c
       0.058790553 0.015698304 -0.04145435 0.016459791
0001e0 ca 70 5d 3d 2e c0 10 3d c5 1d c2 3c 68 cb 6f 3d
       0.054062642 0.035339527 0.023695836 0.058543593
0001f0 9f 4f 11 bc 6f 96 3f 3d 9b 95 7f 3c 77 09 9f 3a
       -0.008869081 0.046774324 0.015599634 0.0012133558
000200 ec b2 b7 3d 7d 4b 3a 3d 78 d4 f1 ba cc 53 b2 3d
       0.089696735 0.045482147 -0.0018450161 0.08707389
000210 8e 0d bb bd 34 3a fa bc 98 eb 0c 3d 39 da 03 3e
       -0.09133445 -0.030545332 0.034404367 0.12876214
000220 e3 e7 bc 3c 87 58 58 3d 02 08 28 3d ad ee 58 3d
       0.023059791 0.0528188 0.04102326 0.052961994
000230 f3 7a ce bc 65 48 8c 3d b1 14 96 3d 74 e9 18 3d
       -0.025205111 0.06849746 0.07328165 0.037332013
000240 b1 16 e6 3c 89 d5 12 bd 2f e7 c6 bc 77 bb c1 bb
       0.028086992 -0.035848174 -0.024280159 -0.00591224
000250 fc 02 cd bd 55 e5 33 bd 6a fb 98 bd 35 6f 59 3d
       -0.10010335 -0.04391988 -0.074698284 0.05308457
000260 02 2b 18 bd 13 15 7a 3d ea c5 1c 3d 76 f8 ce 3c
       -0.03715039 0.061055254 0.038274683 0.02526496
000270 d2 3f 7c 3c a0 54 ae bc 80 30 a6 bd 38 d0 63 3d
       0.015396075 -0.021280587 -0.081147194 0.055618495
000280 c2 ec 55 bd 05 31 dc 3b f0 b9 52 3b b2 98 ca bd
       -0.052227743 0.006719711 0.0032154284 -0.098924056
000290 89 3f 70 bb 9e 50 a1 3c d1 7f 87 3d 91 17 10 bd
       -0.0036658964 0.019691762 0.06616176 -0.035178725
0002a0 3b e8 be bb e5 76 71 3d 86 19 94 3d f7 0c c3 3d
       -0.005826024 0.058951277 0.07231431 0.09523957
0002b0 b0 33 2e bc 0c 97 e5 bd 54 e9 69 3d 08 32 82 3c
       -0.01063244 -0.112104505 0.057107285 0.015892997
0002c0 1b 1c 6b 3d 17 4b 46 3d dd c3 12 bb b1 9a 2d 3b
       0.05739985 0.048411455 -0.0022394576 0.0026489908
0002d0 c7 13 72 bb 3b 93 3c bb 68 5b 2f 3d aa e7 a3 3d
       -0.0036938058 -0.002877428 0.04281178 0.08003171
0002e0 1c f0 05 3e 4e 8c 01 3e 2f 26 84 3d ff b5 cf bc
       0.13079876 0.12651178 0.064525954 -0.025355337
0002f0 05 da db bd 4a da d6 bc 27 7e 85 3c 3b 37 fe bc
       -0.10734943 -0.026227135 0.016295506 -0.031032195
000300 d2 a7 8e bc 85 65 37 3d 35 a4 37 bd 65 aa b8 3a
       -0.017414007 0.04477455 -0.044834334 0.0014088867
000310 4b b6 ee 3c 24 5d 8d 3c fe 72 69 bd 98 ac f8 bc
       0.029139658 0.017256327 -0.05699443 -0.030355737
000320 fe fe 97 bc 75 c2 06 bd ac b4 df bc 9d 26 db bc
       -0.018554207 -0.032900292 -0.02730783 -0.02675181
000330 54 25 6b 3d 36 b4 71 3c 4a a0 4c 3d 41 bb 6b 3d
       0.057408646 0.014752438 0.04995755 0.057551626
000340 f5 90 6a 3d 6d ae 8c bc 85 0b 9c bd e6 df 8e 3c
       0.057267148 -0.017173016 -0.07619385 0.017440747
000350 b4 4e 21 bd 88 86 a7 bb 43 4c 8c bc 7f 62 b8 3d
       -0.039381698 -0.005112473 -0.017126208 0.09003162
000360 4d ad 16 bc dd ba 07 bd 80 88 ae b9 8f ea bd 3d
       -0.009196592 -0.03313719 -0.00033289567 0.09273254
000370 56 1e dc 3c 03 00 2c 3c 9b 3d 26 bd 92 ef a6 3d
       0.026869934 0.01049805 -0.040586095 0.08151163
000380 d7 ac a6 3c 93 40 0f 3d d8 a6 6a 3c 53 5f 59 3d
       0.020346088 0.034973692 0.014322005 0.053069424
000390 d5 0b 07 3d 5d 2c a4 bd 9a 35 ca 3b bd 00 cd bd
       0.03297027 -0.08016274 0.0061709406 -0.100099064
0003a0 c6 c8 74 bb 1a 0b ad 3c ec ae a0 bb 58 60 53 bd
       -0.0037351116 0.021123458 -0.004903665 -0.051605552
0003b0 a8 1f 3f 3d cf 4c 50 bd 2a ab da bc bf 1b 67 3d
       0.04666105 -0.0508545 -0.026692946 0.056422945
0003c0 21 df 82 bd af 05 de bc 62 2c 96 3d 66 3b d4 3c
       -0.06390215 -0.02710232 0.07332684 0.02590723
0003d0 66 40 4f bc 01 c0 06 3d 03 d8 ee bb b6 e7 91 bc
       -0.012649631 0.032897953 -0.007288934 -0.017810684
0003e0 a2 af 42 bd 30 35 85 3d 7b f1 b3 bc 6b 76 9a 3d
       -0.047530778 0.06504285 -0.021965733 0.07542118
0003f0 76 f1 5e 3c 76 ef 2b bd 7c 5d a4 bd 01 78 75 3d
       0.013607373 -0.041976415 -0.08025643 0.059928898

encoder.encoder.8.bias f4 [16]
000000 3d c2 ca 3a 05 eb d5 bb a6 5b d1 3a f9 bb 23 3b
       0.0015469264 -0.0065282607 0.0015972748 0.0024983867
000010 a9 9f c5 ba 26 68 e0 b8 78 e1 09 3c 41 3e dc 3b
       -0.001507749 -0.000107005515 0.008415572 0.0067212884
000020 a1 5f 35 3b 8b a3 1b b9 03 f6 b8 ba e6 ea 69 3c
       0.0027675407 -0.00014842876 -0.0014111403 0.014277196
000030 42 8e c2 ba 0f 82 7d ba fc 7b 9b bb 42 aa 7a 3c
       -0.0014843422 -0.00096705643 -0.0047450047 0.015299382

encoder.encoder.9.weight f4 [16]
000000 d4 90 57 3f c9 56 6b 3f 19 e9 80 3f a0 e7 84 3f
       0.84205365 0.919293 1.0071136 1.0383186
000010 29 a7 6b 3f 74 e2 80 3f ba 41 82 3f 25 f0 69 3f
       0.9205194 1.0069108 1.0176308 0.91382056
000020 5d b6 88 3f 72 c0 71 3f 9d 25 6b 3f 5b 23 7f 3f
       1.0680653 0.94434273 0.9185427 0.99663323
000030 8b 8e 81 3f 36 70 85 3f db 23 84 3f 3c 3e 82 3f
       1.0121626 1.0424869 1.0323442 1.0175242

encoder.encoder.9.bias f4 [16]
000000 38 6b 6d 3c 9f 81 1f 3d ea fd 61 3a 91 92 5c 3d
       0.014490895 0.038941976 0.0008620905 0.053850714
000010 c4 e2 95 b9 77 9a 3a bb f6 6b 5d bd 75 09 94 3c
       -0.00028588448 -0.0028473416 -0.054058038 0.018070916
000020 fb 0a 7f bc ce 27 50 3d ae 26 3e ba 26 ae ce bc
       -0.015566583 0.05081921 -0.00072536885 -0.025229525
000030 33 d5 e1 bc 51 ca 05 be ee 30 39 bc dd a0 6e 3b
       -0.027567482 -0.13065459 -0.01130317 0.00364118

encoder.encoder.9.running_mean f4 [16]
000000 49 7d 51 3f a8 36 07 3f 8e 39 81 bf 78 a1 c6 3e
       0.81831795 0.52817774 -1.0095689 0.38795066
000010 86 55 35 3f ae 7e 9d bf d3 a5 f0 be ca c6 8a 3e
       0.70833623 -1.2304285 -0.47001514 0.2710479
000020 92 17 2f bf 52 86 63 3e d3 21 00 bf 42 73 e2 be
       -0.6839534 0.22219208 -0.5005161 -0.4422856
000030 6d 64 dd 3e 47 7f fb be ac c7 94 be a5 66 fb be
       0.4324068 -0.49120542 -0.29058588 -0.4910175

encoder.encoder.9.running_var f4 [16]
000000 ea eb e5 3e ed ad bd 3e f0 68 1a 3f 6b e9 4f 3f
       0.4490655 0.37046757 0.6031637 0.8121554
000010 d4 c6 32 3f ec d2 50 3f fc 11 3a 3f bc 16 1f 3f
       0.6983464 0.8157184 0.7268369 0.62144065
000020 bc 11 03 3f 5a 67 bf 3e 6a c4 04 3f 7f f5 ac 3e
       0.51198936 0.37383538 0.51862204 0.3378105
000030 f1 ce a8 3e 41 94 14 3f ac 0c 31 3f 79 30 52 3f
       0.32970384 0.5803872 0.6915996 0.82105213

encoder.encoder.12.weight f4 [16, 16, 3, 3]
000000 82 52 16 bd a6 85 77 bd 26 98 9c 3c 15 49 94 bd
       -0.03669978 -0.06043019 0.019115519 -0.07240502
000010 cd 07 24 3d b8 27 fb ba e4 24 57 3d 81 1c 20 3c
       0.040046502 -0.0019161617 0.052525416 0.009772421
000020 3c ef 96 bc 62 ba 62 3d 65 16 2f bd e8 9c 24 bc
       -0.018424623 0.05535353 -0.042745966 -0.010047175
000030 90 0a 1b 3c e5 13 96 bd 02 a2 78 bd a1 79 74 bd
       0.0094629675 -0.07328013 -0.060701378 -0.059686307
000040 3d 96 1d 3c 36 fa 2f 3d dd ad 7b 3c 37 7b 92 3d
       0.009618339 0.04296323 0.015361276 0.071524076
000050 da d1 16 3d 94 a9 15 bc 3c 26 45 bd 03 c0 30 bd
       0.036821224 -0.009134669 -0.048132166 -0.043151867
000060 60 20 1f 3c 26 af 23 3d c0 f5 3e 3d 61 b1 92 3b
       0.009712309 0.039961956 0.046621084 0.0044767116
000070 91 2e 8c bd 6c 46 8b bc 1f 4b e3 3c 91 41 b5 bc
       -0.06844819 -0.017001353 0.027745781 -0.022125991
000080 cf 65 dc bc ae 05 65 3c 86 37 30 bd 43 60 af 3c
       -0.026904015 0.013978405 -0.0430217 0.021408206
000090 af c1 4a be f4 7a 30 bd 6b 17 1b 3d 98 a1 86 bd
       -0.19800447 -0.043086007 0.03786413 -0.0657379
0000a0 d9 8a 84 bd 69 af b2 3b dd bb f5 39 ee a8 d6 3d
       -0.064717956 0.0054530394 0.0004687001 0.104814395
0000b0 c6 13 56 3d 0b 26 4b 3c 8d 28 ce 3d 91 5c 76 bd
       0.05226495 0.012399207 0.10066328 -0.060146872
0000c0 a4 7a 62 bd 21 7f a1 3d 66 30 2f 3d 58 ee 51 be
       -0.05529274 0.07885576 0.042770766 -0.20501077
0000d0 be c8 f9 3c bc aa 03 3d d0 bb bc bc 39 f4 8a bd
       0.03049123 0.032145247 -0.023038775 -0.06784863
0000e0 0f a2 ad bd 45 06 c3 3c df d3 a2 bd ae 63 cd bc
       -0.08478176 0.0238067 -0.079505675 -0.025071945
0000f0 72 93 2a bd 47 fb a4 3c f6 e6 eb b9 e9 f5 68 bd
       -0.04164452 0.02013935 -0.00044994772 -0.056875143
000100 3f 0a 83 3b ec 40 9a 3c 21 05 4d bd 76 4d 92 bc
       0.003999024 0.018829785 -0.05005372 -0.017859202
000110 ea 0e 3f bc bb 55 13 3c c0 da 6f bc 93 18 3a bd
       -0.011661271 0.008992608 -0.014639556 -0.045433592
000120 f2 fc ae bd 8a 51 22 3d 21 f6 82 3d 9f 0b 2f be
       -0.08544339 0.039628543 0.063946016 -0.17094277
000130 d8 a4 b4 bc 34 14 2b 3d e7 e6 a8 bd cb d5 a9 bb
       -0.02205126 0.041767314 -0.08247166 -0.005182957
000140 c1 a5 22 bc 6b d6 0a bd 3e bf a0 bc ce 1f 92 3d
       -0.009927214 -0.03389589 -0.019622441 0.071349725
000150 a1 50 0e bd 5f a1 29 bd 20 6c d4 3c fc 0c 1e bc
       -0.034744862 -0.04141366 0.025930464 -0.00964665
000160 ad ce a5 bd 83 17 2b 3d 46 ff 5e ba 7d 2f b4 3c
       -0.08096061 0.04177047 -0.00085066666 0.0219953
000170 9e 2c 15 bd 5d 07 c3 bd 4e dd 22 bc e8 f8 0a bd
       -0.036419503 -0.09522889 -0.009940458 -0.03392878
000180 e4 17 10 be f3 72 1e bc 2c 13 78 bc 53 c5 3c bc
       -0.14071614 -0.009670961 -0.01514129 -0.011521655
000190 93 28 5e bb 15 57 13 bd 6b 05 89 3c e1 65 95 bc
       -0.0033898696 -0.03597172 0.016726216 -0.018237056
0001a0 04 f8 f1 3c 2d 2a 81 bd a7 25 b0 bd d8 35 c1 bc
       0.029537208 -0.063068725 -0.086009316 -0.023585245
0001b0 68 6d e6 3d 41 77 72 3c cb 0b 4c 3d 25 93 5f 3d
       0.11251336 0.01479894 0.049815934 0.054583687
0001c0 78 f2 a8 3c 26 4a 0f 3d fc b7 66 bd d2 1f 6f 3c
       0.02062343 0.034982823 -0.056327805 0.014594989
0001d0 c9 81 e1 3c 1f af 13 3e 4e 43 53 bd c2 83 22 3d
       0.027527707 0.14422272 -0.05157786 0.039676435
0001e0 56 8f 89 bd 01 e8 bb bc 78 9f 42 bc 35 f1 57 3c
       -0.06716792 -0.022937777 -0.011878841 0.013180067
0001f0 17 84 aa 3b 6b e0 77 bc ad fb a6 bc 83 2c 86 bd
       0.0052037346 -0.015129189 -0.02038368 -0.06551459
000200 2a 49 b1 3b 0c fa ad bd 37 a2 73 3d 94 df 3e bd
       0.005410333 -0.08494958 0.059480872 -0.04659994
000210 41 5a 28 bd 48 51 6a 3d e2 2a 76 bd 8f 5e ec 3c
       -0.041101698 0.057206422 -0.06009949 0.028853683
000220 6e f7 14 bd d3 1c c1 bd 7c 2c d7 3c db 84 9d bb
       -0.03636878 -0.09429326 0.026266329 -0.0048070974
000230 c3 33 ed bc d5 a9 6e bd 7b a8 b4 bd e6 bc 56 bd
       -0.028955346 -0.058267433 -0.088211976 -0.05242624
000240 9f b1 a2 bd b1 22 44 3d f8 d6 48 3d 41 ae 78 bd
       -0.07944035 0.047884647 0.049033135 -0.060713056
000250 1c ae fe 3b 29 01 4e bd 86 20 f7 bc d0 03 f4 3c
       0.0077722203 -0.050294075 -0.030166876 0.029786974
000260 4e bb b7 3d da c8 b2 3b ab 8d 07 bd 31 c4 20 3d
       0.089712724 0.0054560723 -0.03309409 0.039249603
000270 f5 cf 9b 3c 89 99 45 3d 0c f7 e7 3c 62 4f 81 bb
       0.01902006 0.048242126 0.028316043 -0.0039462307
000280 f3 35 90 bd 3e 88 0d 3e 64 00 c0 3b 1c ff 8e 3d
       -0.0704154 0.13821504 0.0058594216 0.06982252
000290 5f 71 81 3d 9b 43 7f 3d f9 26 3a bd 66 e9 a4 bb
       0.06320452 0.062320333 -0.045447323 -0.005032706
0002a0 e5 c7 11 3d e2 fe 08 3d 1d 1e 6b bb 23 8e 71 3d
       0.035591025 0.0334462 -0.0035876103 0.058973443
0002b0 4d 32 da 3c 10 84 a2 39 03 23 9b bc dd d1 9f 3a
       0.026635313 0.00030997442 -0.018937593 0.0012193281
0002c0 70 ff 95 3d d6 6d 89 bd 96 49 9d bd b7 1e 42 3c
       0.073241115 -0.06710403 -0.07680051 0.011848143
0002d0 e9 14 ae bc f3 fe 8c 3c 92 22 78 bb 4d 21 b5 b9
       -0.021250205 0.017211413 -0.0037862402 -0.0003454782
0002e0 95 83 15 bd cb 8d fd 3c 83 4e 89 bd 8b 4f 8e 3d
       -0.03650244 0.030951401 -0.06704428 0.06948765
0002f0 a7 ff e9 3b d0 62 8a 3c fd 8f 3e 3d 64 d9 1a bd
       0.007141072 0.01689282 0.046524037 -0.037804976
000300 2d 72 ab 3d f9 00 9e bc 75 19 c9 bd 31 32 cd 3d
       0.08371387 -0.019287573 -0.09819309 0.10019339
000310 7d ce fc bc b1 26 3d bd 68 56 b5 3d d5 44 96 bc
       -0.03086018 -0.046179477 0.08854371 -0.018343369
000320 31 9f 37 bd 31 df b7 3b 31 6f f6 bd 17 85 e5 3d
       -0.04482955 0.0056113233 -0.12032927 0.112070255
000330 e3 0e 6d 3d 52 8e 4b bd 53 3a 0c 3a 9b 00 4f 3b
       0.057875525 -0.049696274 0.0005349267 0.0031586054
000340 da 16 94 3c 4c 48 ee bc 5b 3a 3c 3d 97 bd 02 bd
       0.018077303 -0.029087208 0.04595409 -0.03191909
000350 6e 15 27 3d f3 01 91 3d e4 7d 69 3d f7 38 49 3c
       0.04079192 0.0708045 0.057004824 0.012281648
000360 8f 88 11 3d 25 71 47 bd fd ff 5d bd 3b a9 72 bc
       0.035530623 -0.048691887 -0.054199208 -0.0148108555
000370 ce e9 28 3c 35 9b e7 bd a3 08 cc 3d 1b 9d 0b 3c
       0.01030965 -0.113089 0.09962585 0.008521344
000380 60 1b 9c 3c 52 f6 e7 bc a3 ce d3 3c 74 f9 47 3c
       0.019056022 -0.028315697 0.025855368 0.01220547
000390 bb f8 be bb 5b 6d c0 3d 99 fc 47 bd 7e e4 a1 3d
       -0.005827991 0.09395858 -0.04882488 0.079049096
0003a0 5f d8 82 3d e1 fd 04 3d 87 8b 2c 3d bb 23 dc 3b
       0.06388926 0.03246868 0.04212525 0.0067181266
0003b0 6f 24 87 bb 3e 54 11 3d a9 97 29 bd c1 57 07 3d
       -0.0041242163 0.03548073 -0.0414044 0.033042673
0003c0 2c c5 53 bc 87 e2 4f 3d 64 23 c0 3d 89 c7 bb 3c
       -0.012925427 0.050753143 0.0938175 0.022922294
0003d0 f8 3f 88 b9 4e 80 f6 3b e0 f2 83 3d e0 20 5d bd
       -0.00025987602 0.0075226193 0.06442809 -0.05398643
0003e0 75 f6 55 bd 09 74 26 3d cd 5e 34 bd 8b b6 58 3d
       -0.052236993 0.040638003 -0.04403572 0.05290846
0003f0 ec 2c 80 3c 04 7e 99 3b 62 e5 85 bd c5 e5 5c bd
       0.01564642 0.0046842117 -0.06537892 -0.053930063

encoder.encoder.12.bias f4 [16]
000000 b8 a5 27 bc c1 ca 6a ba 06 f7 66 bb 72 4a d3 ba
       -0.0102323815 -0.0008956604 -0.0035242452 -0.0016120209
000010 78 4b 22 3b cf 87 e0 bb e4 50 5c ba 0a 4a 74 3b
       0.002476422 -0.006852127 -0.00084043876 0.0037275576
000020 10 03 0f bc 90 61 2a bb 35 96 ba 3b 86 6b 65 ba
       -0.0087287575 -0.0025998093 0.0056941756 -0.0008751679
000030 ea 51 8f bb 3b 0c 2f bc 87 05 d0 3b 0c 97 8c bc
       -0.0043737786 -0.010684068 0.006348315 -0.017161869

encoder.encoder.13.weight f4 [16]
000000 a8 1b 77 3f c8 c7 7e 3f f8 a3 78 3f 6f 23 84 3f
       0.96526575 0.9952359 0.97125196 1.0323313
000010 1a 9a 76 3f 73 0d 68 3f 24 1c 79 3f c0 3f 6f 3f
       0.9632889 0.9064552 0.97308564 0.9345665
000020 e2 02 73 3f 6d b7 79 3f 7d 98 80 3f e8 1f 7c 3f
       0.94926274 0.9754551 1.0046536 0.98486185
000030 54 16 8a 3f d1 62 9b 3f 00 51 7b 3f 0b 4a 8a 3f
       1.0788064 1.2139531 0.9817047 1.0803846

encoder.encoder.13.bias f4 [16]
000000 49 69 3c bc 56 e5 89 3c ab 66 da bb 34 e2 3d 3c
       -0.011499711 0.016832989 -0.006665071 0.011589576
000010 c4 5b 61 3c 3f 67 0f bd 49 01 4c bd de 9b be 3c
       0.013754789 -0.035010573 -0.049805913 0.023267683
000020 9f d0 61 bd a9 1f 90 bc 15 8e cd bb 87 ab 00 bb
       -0.055130597 -0.017593222 -0.006273041 -0.0019633488
000030 30 70 d4 bc 4d 4c 3a bd 7b 12 8b 3c ec 9e 27 bd
       -0.025932401 -0.045482922 0.016976586 -0.040923044

encoder.encoder.13.running_mean f4 [16]
000000 42 38 63 bf 44 62 93 3e 4c e8 cc bd 6e b7 9d be
       -0.8875772 0.28785908 -0.100052446 -0.30804008
000010 86 d0 a4 bf 4d 98 96 bc 96 20 93 be 62 ff 46 bf
       -1.2876136 -0.01838317 -0.287358 -0.77733433
000020 23 9c e5 3c 64 10 75 bf 76 cf 16 bf 6a 03 80 3f
       0.028028553 -0.95728135 -0.5891031 1.0001042
000030 d0 9d ab be d2 80 27 3e 9a 1f 06 bf c6 5b bb 3e
       -0.3351884 0.16357735 -0.5239197 0.36593455

encoder.encoder.13.running_var f4 [16]
000000 5d f2 6d 3f d2 0d 91 3f 72 84 92 3f 10 92 a9 3e
       0.9294794 1.1332343 1.1446669 0.3311925
000010 75 14 24 3f 44 c5 24 3f 06 b8 c7 3e 44 5d a5 3e
       0.64093715 0.64363503 0.39007586 0.3229772
000020 bd 97 04 3f 71 c4 0a 3e ce b0 43 3e 62 60 33 3f
       0.51794034 0.13551499 0.19110414 0.70068944
000030 dc 3a 93 3e c2 53 6a 3e 56 c0 ca 3e d5 d5 be 3e
       0.28755844 0.22883514 0.39599866 0.37272516

encoder.encoder.16.weight f4 [1, 16, 2, 2]
000000 c1 bb 94 3d ca d2 86 bc ae de c8 bd fa 61 be be
       0.07262374 -0.016457934 -0.09808098 -0.37184125
000010 4f 29 ac 3c 44 1a 7f 3d d0 bc 02 be d2 4d 64 bc
       0.021015791 0.06228091 -0.12767339 -0.013934569
000020 71 12 bd 3d de bf 14 be 6b 00 5a bd 18 2e 79 bc
       0.09232033 -0.14526317 -0.053223055 -0.0152087435
000030 e7 78 2f 3d 29 9d e3 3b fd 95 e4 3d a3 88 c8 be
       0.04283991 0.006946225 0.111614205 -0.39166746
000040 b9 a7 ca 3d 4d 28 14 bd 11 12 03 3d 1e da b5 3d
       0.09895272 -0.036171246 0.03199965 0.08879493
000050 c5 1b 89 bd 97 be e5 3c 05 f7 e8 bd 2a 74 44 3d
       -0.0669475 0.028044982 -0.1137524 0.047962345
000060 32 b6 db bd cb c0 82 bd 56 af 46 bc c5 dd 68 3c
       -0.107281104 -0.063844286 -0.012126764 0.01421303
000070 86 fc 08 3d a4 43 0e 3d ed 53 f7 3d 2c 75 a2 bd
       0.03344395 0.034732476 0.120765544 -0.07932505
000080 7d 8e 1f 3d ae e2 8b bd 5d 1b dc bd ff f3 87 ba
       0.038954247 -0.06830345 -0.10747407 -0.0010372399
000090 37 35 91 3c b6 7a 20 3b 74 7e 1c 3d 40 e8 ae 3d
       0.01772557 0.0024487204 0.038206533 0.08540392
0000a0 2f a8 45 bc 34 88 bd 39 dd a9 fd 3d cb 68 37 3d
       -0.012064024 0.00036150368 0.123859145 0.044777673
0000b0 31 13 ff bc 57 16 3b bd 24 2e 70 3d c4 40 b7 3c
       -0.03113708 -0.0456756 0.058637753 0.02236975
0000c0 d9 36 cf bb 8e 96 44 bc 59 a5 28 bd b2 56 00 bf
       -0.006323677 -0.011998786 -0.041173313 -0.50132287
0000d0 d3 45 3d 39 1b 5c ac bb e0 ce 9f bc e2 ef 14 bf
       0.00018050456 -0.0052600033 -0.019507825 -0.5817853
0000e0 ea ed dc 3c fe 2f 5d 3d a5 bc b4 bb 7f 0f 94 3d
       0.026968915 0.054000847 -0.0055156522 0.07229518
0000f0 30 1c 81 3c 9d 64 45 3b cc f8 8e be a3 7c a5 be
       0.015760511 0.0030119785 -0.27924192 -0.32321653

decoder.decoder.0.weight f4 [1, 16, 1, 1]
000000 2f c6 8b 3c db cc 8b 3d a5 eb 29 3d 4f 0b a3 3c
       0.017062275 0.068261825 0.041484494 0.019902853
000010 14 77 00 3d e0 be bd bd ea 6b f1 bd a1 8a 63 bd
       0.03136356 -0.09264922 -0.11788161 -0.05555213
000020 0d 92 06 be 8e 50 12 be 60 01 0e be 32 0c 0d 3d
       -0.13141651 -0.14288542 -0.13867712 0.03443546
000030 0c 19 3f 3d 3a 5e ad bd d8 4d 12 be 33 39 b1 3d
       0.046654746 -0.08465238 -0.14287508 0.08653488

decoder.decoder.0.bias f4 [16]
000000 31 5c e8 3a 17 55 5d 3b a3 14 d5 bb f9 fb 5b 3a
       0.001772767 0.0033772641 -0.006502704 0.0008391734
000010 84 b0 37 ba 95 d3 5c bb f2 70 9f bb 96 ff ba bb
       -0.0007007199 -0.0033695449 -0.004865759 -0.0057067377
000020 97 38 80 3a 36 38 91 b8 d5 e1 a7 bb 1e cf 5f 3a
       0.000978249 -6.924609e-05 -0.005123357 0.0008537638
000030 f1 39 34 3b db 5c 9b 3a 82 05 04 bc 24 ac c8 3b
       0.0027500356 0.0011853235 -0.008057954 0.0061240364

decoder.decoder.1.weight f4 [16]
000000 a3 07 77 3f d0 00 7e 3f b2 79 71 3f 8f 3b 70 3f
       0.9649603 0.9921999 0.9432632 0.9384088
000010 a9 93 6f 3f 5d 91 78 3f 0a ab 78 3f d9 d7 74 3f
       0.93584687 0.97096807 0.97135985 0.9564186
000020 5d f2 7f 3f 34 2c 7e 3f 7d c2 7d 3f bb 45 7c 3f
       0.9997919 0.992862 0.9912489 0.985439
000030 2a 53 79 3f 41 24 7a 3f bb 27 80 3f a0 40 81 3f
       0.97392523 0.9771157 1.0012125 1.0097847

decoder.decoder.1.bias f4 [16]
000000 46 0e 36 3d aa 9f 5b 3c 11 16 d3 bc da 85 88 3c
       0.044447206 0.013404766 -0.025767358 0.016665388
000010 71 06 03 3d 90 e6 24 3c d5 a7 17 bd c8 fc 5f 3c
       0.031988565 0.010064736 -0.03702529 0.013671108
000020 dd c7 2d bc 1a 3c 8c bc 51 65 3d bc 6c ca 58 3d
       -0.010606733 -0.017118502 -0.0115598 0.05292742
000030 06 46 51 bc f4 19 43 3d 10 db fd bc 7b ee 4e 3c
       -0.012773043 0.047632173 -0.030988246 0.0126301

decoder.decoder.1.running_mean f4 [16]
000000 fc 03 5a 3c 93 e6 58 3d 60 82 0d 3d 09 9c 83 3c
       0.013306614 0.052954268 0.034548163 0.016065614
000010 e0 ee e8 3c 1f ad a6 bd 2e fb b7 bd 54 c4 38 bd
       0.028434217 -0.08138489 -0.089834556 -0.045109108
000020 42 02 be bd 21 b1 d6 bd ae 5f af bd 2d 27 dc 3c
       -0.092777744 -0.104830034 -0.08563171 0.02687415
000030 69 41 14 3d 49 54 95 bd 54 cf bd bd b6 fc 86 3d
       0.036195192 -0.07291467 -0.0926806 0.065911695

decoder.decoder.1.running_var f4 [16]
000000 14 a8 00 39 6b b2 fe 3a d6 88 5c 3a 36 9e 43 39
       0.00012269645 0.0019431835 0.0008412724 0.00018655587
000010 56 94 0d 3a c8 ad 96 3b da 72 b8 3b 47 72 b8 3a
       0.0005400827 0.004598353 0.0056289257 0.0014072143
000020 d5 bf c4 3b 04 41 fb 3b 3e 81 a7 3b e9 36 02 3a
       0.0060043135 0.0076676626 0.0051118424 0.00049672887
000030 5a dd 6b 3a 01 61 73 3b 96 e8 c2 3b d6 dd 46 3b
       0.00089975225 0.0037136676 0.0059481366 0.0030344627

decoder.decoder.4.weight f4 [16, 16, 3, 3]
000000 17 60 cc ba dc 6a 37 3d f6 14 65 bd 24 7d 86 3d
       -0.0015592602 0.044779643 -0.055928193 0.065668374
000010 46 9a e5 3c 81 31 97 bb ad ba a4 bc 54 f7 9f bc
       0.028027665 -0.0046140556 -0.020108545 -0.019527115
000020 02 eb 16 3c bc cc 0d bb ec 82 08 bd b5 3f 68 bd
       0.009211304 -0.0021636924 -0.03332798 -0.05670138
000030 a4 bd 82 bd 69 cd 90 bd 58 34 46 3d ea 55 7c 3c
       -0.06383827 -0.07070429 0.048389763 0.015401343
000040 73 12 47 3c 78 07 3e bc 0a 27 f7 bc 93 bb 51 3c
       0.012150395 -0.01159846 -0.030169982 0.012801069
000050 57 53 98 3b 67 09 a1 b9 42 bc 06 bc 5c d6 8f bc
       0.0046486068 -0.00030715318 -0.008223595 -0.01755827
000060 d2 65 13 3d 5b 54 a0 bb 00 fe 33 bd 57 96 29 bc
       0.035985775 -0.0048928685 -0.043943405 -0.010350785
000070 dc da fb bc a8 57 28 be 40 ee 4b be 71 a9 ea bb
       -0.030744009 -0.16439688 -0.19915104 -0.0071613123
000080 5d 4b 99 bd 77 52 39 bd ad 2d 65 bd 80 47 86 bc
       -0.074850775 -0.04524466 -0.055951763 -0.016391516
000090 69 5c 81 3d 85 6b e3 3b 32 66 5e bd c0 fc b0 3c
       0.06316454 0.0069403076 -0.05429668 0.021604896
0000a0 d7 74 52 bd a3 91 b2 bd 33 7b 86 3d d7 d9 2c 3d
       -0.05138096 -0.08719184 0.06566467 0.042199936
0000b0 4f 9a d4 bc 55 f3 54 3d c9 7b 82 bd c9 b5 d5 3c
       -0.025952486 0.051989872 -0.063712664 0.026087658
0000c0 ee 81 a9 bd c0 b7 90 bc e5 2f 85 3c ea d6 55 bd
       -0.08276735 -0.017665744 0.01625819 -0.05220691
0000d0 79 c0 43 bd 75 e5 32 bb 9b e0 59 bc e2 81 9d bd
       -0.047790978 -0.0027297412 -0.013298179 -0.07690789
0000e0 a2 31 74 3d 11 b5 55 3c af 48 a0 3d aa ce c3 bc
       0.059617646 0.013043658 0.07826363 -0.023902256
0000f0 df e0 44 bd d0 c7 21 3d 6f 98 5d 3d f9 e0 c8 bd
       -0.048066016 0.039497197 0.05410045 -0.09808535
000100 32 37 87 3c 14 7e b2 bd ea 36 86 b9 3d 4f a0 3d
       0.016505811 -0.08715454 -0.00025599386 0.078276135
000110 93 ab e5 bc f1 bd 03 bd f6 ae 31 bd 79 b8 cc bc
       -0.028035915 -0.032163564 -0.043379746 -0.024990307
000120 e7 ed 32 bc 08 4b 18 3c b2 77 9c 3b 90 f1 8d 3d
       -0.010920978 0.009295233 0.004775011 0.0693084
000130 ae 3b b7 3d d8 49 a4 3c 28 b0 8f 3b 2b 80 4a bb
       0.0894693 0.020054743 0.004385013 -0.0030899148
000140 3b 77 fd bb c0 81 c7 3c 99 72 66 3d fb 21 74 3d
       -0.0077351606 0.024353862 0.056261633 0.05960272
000150 06 6e fd bc 90 a2 9c 3a 15 97 2c bd 4a ca 9a 3c
       -0.030936252 0.0011950303 -0.04213627 0.018895287
000160 e5 c9 9a 3c d9 88 25 b6 d7 cc 4d 3b 97 79 eb bc
       0.018895099 -2.4666572e-06 0.0031402612 -0.028744502
000170 d1 b2 ee 3c 12 74 22 bc 46 53 56 bd 9e 1b 35 bd
       0.029138 -0.009915369 -0.05232551 -0.04421579
000180 87 6c 5e bd 03 4f 86 bd 17 fc 47 bd 53 c3 29 3d
       -0.05430272 -0.06558039 -0.048824396 0.04144604
000190 ba ec 96 3c 52 88 3a 3c cf d7 b5 bb 21 3f 16 bc
       0.018423427 0.01138504 -0.005549408 -0.009170325
0001a0 00 a7 37 bc d4 e7 2f bd 5b 77 f7 bc 73 f4 aa ba
       -0.0112092495 -0.042945698 -0.03020828 -0.0013042822
0001b0 d3 7d d0 3c 17 60 c3 bb 8e 20 cb bd 31 62 d4 bd
       0.025450623 -0.0059623825 -0.09918319 -0.10370291
0001c0 15 31 d6 ba d2 34 86 3d 75 76 48 bc d9 1e d2 3c
       -0.0016341532 0.065530434 -0.012235274 0.025649475
0001d0 1a 91 17 3d a8 5e 0e bd e4 56 ad bc 7e 0a a1 3d
       0.037003614 -0.03475824 -0.021159597 0.07863329
0001e0 aa ed b3 3d 1a f2 ff 3c 19 3e 05 bd 6c 00 87 3c
       0.08785565 0.031243373 -0.032529924 0.016479693
0001f0 42 2e d4 3c a2 b6 f3 3c f8 18 06 bd 76 7c 3c 3d
       0.025900964 0.029750172 -0.032738656 0.046017133
000200 82 11 49 3c 4c 73 44 3d 2f 34 12 3c e4 52 8f 3b
       0.012272241 0.04796152 0.008923574 0.004373895
000210 02 87 3c 3d 1d e7 6f 3d e6 60 76 3d 8a 01 ab bc
       0.04602719 0.058570016 0.060151003 -0.020874757
000220 86 6a aa 3d e6 c6 9e bd d9 5e ef bc df 95 e1 bd
       0.08321099 -0.077527806 -0.029220032 -0.11014914
000230 c9 6b a7 bc 07 c4 ef bb e6 f4 d5 3c b6 b1 08 3d
       -0.020437138 -0.0073170695 0.026117753 0.033372603
000240 fa 5c d0 bb cd fd 54 bd 66 c2 3f 3b ab 79 4f 3d
       -0.00635874 -0.051999856 0.0029260158 0.05065314
000250 27 05 75 3d 18 ef 4f bd 98 a6 3b bc ba ad 3b bc
       0.059819367 -0.050765127 -0.011453293 -0.011454994
000260 38 ff 4a 35 0d a8 f5 3c 88 36 5a 3d 7d 5e 3d 3d
       7.5622256e-07 0.02998736 0.05327466 0.04623269
000270 71 a3 3b bd 98 5c ac bd 1b a9 3a 3d 60 ad bf 3b
       -0.045810167 -0.08416098 0.045571428 0.0058495253
000280 6d cf 1e 3c 5c 92 ce 3a fd 2a 2b 3c 26 ed 85 3d
       0.009693009 0.0015760171 0.010447261 0.06539373
000290 3b 2a c6 3c 9b fc 9d bd 43 63 ec bd ee a8 09 bd
       0.024190059 -0.07714196 -0.1154237 -0.03360837
0002a0 22 e5 d5 3c 46 a3 ac 38 f8 8b dc bc 19 13 21 bc
       0.026110236 8.232011e-05 -0.026922211 -0.009831213
0002b0 c3 aa 05 bb 58 fe 2b be ab d6 42 be e7 af 41 bd
       -0.0020395971 -0.16796243 -0.19027202 -0.047286894
0002c0 95 c0 0f 3d 84 29 9a bc 7a 99 19 bd cf 62 9c bc
       0.03509577 -0.018818624 -0.037499882 -0.019090084
0002d0 e3 f8 48 bd fe ff 93 bd 8b 49 04 be f2 0f ad bd
       -0.049065482 -0.07226561 -0.1291868 -0.08450307
0002e0 eb 64 0e 3d 34 bb 17 be fa 27 45 3d 08 e2 0b 3d
       0.03476421 -0.14817506 0.048133828 0.034151107
0002f0 49 77 2f bc d9 b4 5f 3d 24 dd a8 3d 1b b0 a3 3c
       -0.010709592 0.05461583 0.08245304 0.019981435
000300 64 13 9e bd 43 82 e4 bd 91 8c d7 bb e6 c8 18 bd
       -0.07718542 -0.11157658 -0.006578036 -0.037300967
000310 a1 25 0f bd 82 37 41 bc 01 5f cf 3b cf b8 ca bc
       -0.034947995 -0.011793019 0.006328464 -0.024746327
000320 57 9d e6 3c c2 5f d9 bb fc c6 08 bd 2e 65 41 bc
       0.028151197 -0.0066337297 -0.03339289 -0.011803908
000330 0d a1 04 bd fa 44 df 3c b2 ab 16 3d 7c 7a 16 be
       -0.032380152 0.02725457 0.036784835 -0.14695162
000340 06 bd 9b bc 04 25 38 bd 7e 75 08 3d 10 0e b5 3d
       -0.019011032 -0.044957176 0.033315174 0.08840573
000350 8d 3d da bb 0f dd b6 bc 03 53 15 bd 06 24 06 bd
       -0.0066601695 -0.022322206 -0.03645612 -0.0327492
000360 d5 04 4e bc 9d e8 11 bd 1d 99 8a 3c 12 88 8b 3d
       -0.012574394 -0.035622228 0.016918713 0.06813063
000370 62 1b fc bc d9 7c 14 3d b8 4f 93 bb 5b 87 c5 ba
       -0.030774776 0.036251877 -0.004495587 -0.0015070246
000380 b4 93 5c bb ef e0 8c 3d eb bc 91 bd 50 99 24 3d
       -0.0033657374 0.0687884 -0.07116111 0.040185273
000390 f8 8b 97 bd 0e 5a 98 3d 23 c1 d6 3a 3c 2c 12 3b
       -0.07399744 0.074390516 0.0016384464 0.0022304198
0003a0 a2 ed 11 3b c0 6d 48 36 e7 06 68 3d 67 8e 93 bc
       0.0022266884 2.9866205e-06 0.056647208 -0.018012239
0003b0 95 98 6d bd 2a db 69 3a 56 d5 95 3d 8c 8f 3c bc
       -0.05800684 0.00089209026 0.07316081 -0.011508834
0003c0 10 2e 05 bd 1d 7a 3c bd b6 b8 1f bd 1d 5d e1 3c
       -0.03251463 -0.046014894 -0.038994513 0.02751022
0003d0 e2 03 4b bc ec e7 c6 bc 49 35 bf bd c3 4c aa bb
       -0.012391062 -0.02428051 -0.09336335 -0.005197139
0003e0 49 24 9b 3d 85 b2 98 bc 7a d7 cb bc fd e0 f7 bb
       0.0757528 -0.018639812 -0.02488302 -0.0075646625
0003f0 41 60 c0 3c b0 03 0b 3c 01 4d cc 3c 26 ce 28 bd
       0.023483397 0.008484766 0.024939062 -0.041212223

decoder.decoder.4.bias f4 [16]
000000 e3 41 a9 3b 1f 34 50 3b d2 39 7d b8 95 d2 d6 3b
       0.005165325 0.0031769348 -6.037375e-05 0.006555865
000010 f7 88 0c 3c 4a ee cc 3b 6b 08 56 3b 09 e1 18 bc
       0.008577577 0.006253992 0.0032658826 -0.009330996
000020 be e8 40 bc b9 8e 0b bb 9b 37 24 3c 57 d6 30 3b
       -0.01177424 -0.0021294786 0.010023023 0.0026983225
000030 7a 40 61 3b 82 89 15 bc 14 aa af 3b d7 5c 0c 3c
       0.0034370706 -0.009127023 0.005360851 0.008567057

decoder.decoder.5.weight f4 [16]
000000 9e bf 6f 3f e5 bb 81 3f 74 d1 75 3f 48 f3 74 3f
       0.9365176 1.0135466 0.96022725 0.9568372
000010 d6 09 73 3f e5 f8 80 3f 6d cd 73 3f cd 46 78 3f
       0.94936883 1.0075957 0.9523533 0.96983033
000020 7e ee 79 3f 6d 81 6d 3f 76 df 77 3f d3 50 76 3f
       0.97629535 0.92775613 0.9682535 0.9621708
000030 9b 74 80 3f 18 c0 80 3f 7b 9c 77 3f 9c 36 7f 3f
       1.0035585 1.0058622 0.96723145 0.996927

decoder.decoder.5.bias f4 [16]
000000 0a 8c 68 bc f3 1e 06 3d 41 db cf bb 3f 70 c6 bc
       -0.014193544 0.03274436 -0.006343276 -0.024223445
000010 7f d6 9e 3c fa 71 9b bc 83 d5 0f bc cc c0 99 bc
       0.01938939 -0.018975247 -0.0087789325 -0.01876869
000020 f7 08 12 3b a3 6a ed bc 5c a8 6f bb e3 0a 26 bc
       0.0022283175 -0.028981512 -0.0036568856 -0.0101344315
000030 b9 50 d5 3c 46 53 29 bc 39 0e 8f ba 5d eb a6 3b
       0.026039468 -0.010334795 -0.0010914273 0.0050939755

decoder.decoder.5.running_mean f4 [16]
000000 71 0c be 3a 20 c4 cb be 12 11 36 be 10 1d 84 be
       0.0014499557 -0.3979807 -0.1777995 -0.25803423
000010 a3 bc c5 be ff bc 71 be a6 80 62 be 2a c0 a5 bd
       -0.3862048 -0.23607253 -0.22119388 -0.08093293
000020 97 01 ff 3d ae 45 8b 3e e0 89 95 be 77 76 a8 bc
       0.12451475 0.272016 -0.29206753 -0.020564301
000030 a1 e0 e3 be 07 6d a3 3e 7f 9a fa bd 7e 2a 61 be
       -0.44507316 0.3191912 -0.12236499 -0.21988866

decoder.decoder.5.running_var f4 [16]
000000 bd 0a 44 3d aa a1 18 3e 9a b2 35 3e 08 31 49 3e
       0.047861803 0.1490542 0.17743912 0.1964761
000010 7b 28 90 3e d7 85 f2 3d 16 22 b1 3e e2 94 f7 3d
       0.28155884 0.11841934 0.34596318 0.12088944
000020 ee bb de 3d 09 25 26 3e 81 4c f7 3d b6 6d ed 3d
       0.108756885 0.16225065 0.12075139 0.11593191
000030 2b 80 01 3e 33 bf 1d 3e e2 a5 8d 3e da 5e 57 3e
       0.12646548 0.15404968 0.2766562 0.21032277
