assignment_3/AE_model_params.pth (torch, 92557 bytes, 56 tensors)

encoder.encoder.0.weight f4 [16, 1, 3, 3]
00000000: ce2c 0a3c 815e a4be 8ad6 f83d ba4b 9c3d
00000010: 9b7a 813e aa99 92be abb2 543e f2ab 063c
00000020: c24e a7bd c41e 1f3e ed89 53be 8122 81be
00000030: 9c43 2ebe 848c 2cbe 2d95 813e f289 25be
00000040: eed1 c3bd 07ee 56be 26d3 49be 535e 1f3e
00000050: 9428 853e 576b 6f3e bd09 843d 0bf5 2a3e
00000060: e95a 1d3c cab7 853e de08 003c e025 b4bc
00000070: 1d07 233e edbe 763e 1bc7 943e cad8 893d
00000080: ce1b 54be c165 eebc ad4a eb3d 832d 89be
00000090: f837 24be 6637 97be fded 68bc 4b43 debd
000000a0: 025c 19be ec45 473e d91c 66be d768 30bd
000000b0: ee60 2f3e b908 613e 0f30 f93d 97bc 03be
000000c0: 377a 8c3d 763c 31be 380c 5dbe 3d23 91be
000000d0: 5dfa bb3d 4055 90be 5f7d 80be 2f6b 11be
000000e0: 15d1 b8bd da5f 35bd 3947 b23b 127d 9e3d
000000f0: 347f 443e dc31 0a3e e504 bc3d 455d 6ebe
00000100: c3a0 983e 96c8 dcbd d1f4 9e3e 90ed 7cbe
00000110: 7389 b13e 824e 6abe 7000 6bbe 645f 8ebe
00000120: cf96 fc3d 910e cfbd 0acc a13a 8499 a33e
00000130: ab33 66be 21cb a43e c900 4abe 9ef5 43be
00000140: 4582 8c3e 0fdc 97be 46cf 0fbe 27bb 893d
00000150: d7b5 a9be eddd 6d3e bd7b 253e 7137 573e
00000160: 57c0 57bd 6ce8 8b3d 84c6 7f3e 087f 943e
00000170: a804 723e 26b1 77bd b6ff eebd e2cf 89be
00000180: 7602 88be f267 3ebd 9fa0 06be 8a64 3cbe
00000190: 6ebb 8b3b a466 55be 77e2 c93d 6261 93be
000001a0: 36a9 253d 2cd2 4c3d cb03 b63e ccfd 8ebe
000001b0: 3290 693e 99dc 99be b778 253e 2070 f9bd
000001c0: 44e7 59be 0402 14be 2e19 dfbd 8352 1fbe
000001d0: 56d9 0abb fbb7 c03d 11f3 01be a401 983e
000001e0: 3a2f 33be 470c 843e f565 983e 8f6b a93e
000001f0: c997 98bd db72 933e 52b7 37bb 67b1 093e
00000200: f8fc 6bbe 775b f0bd 8674 9fbe 6200 bebe
00000210: 6487 ce3d 5657 dcbb 673e 89bd eb94 ba3d
00000220: a14f 9cbd a79b 8c3e 747e 71be 7e19 7f3d
00000230: bd6e 11be d7fa a6bd 1596 d73c 456d 82be
0.008433534 -0.3210335 0.12150295 0.07631631 0.25288853 -0.2863286 0.20771281 0.008219706
-0.08169319 0.1553908 -0.20658083 -0.25221637 -0.17017978 -0.16850477 0.25309125 -0.16165903
-0.09561525 -0.20989238 -0.19709453 0.15563326 0.2600752 0.2338079 0.0644717 0.16695039
0.009604194 0.26116782 0.007814614 -0.021990716 0.15920682 0.2409627 0.29058155 0.06730802
-0.20713732 -0.029101254 0.11488853 -0.26792535 -0.16036975 -0.29534453 -0.014216897 -0.10852679
-0.14976504 0.19460267 -0.22471942 -0.043068733 0.1712682 0.21975984 0.121673696 -0.1286491
0.06859248 -0.1730822 -0.21586692 -0.28347197 0.091786124 -0.2819004 -0.2509565 -0.14201044
-0.09024254 -0.044280864 0.0054406193 0.07738699 0.19189149 0.13495582 0.09180621 -0.23277767
0.2981015 -0.10780446 0.31046155 -0.24699998 0.34675178 -0.22881511 -0.22949386 -0.27807152
0.12333452 -0.101102 0.0012344134 0.3195306 -0.22480647 0.32186225 -0.19726862 -0.19136664
0.27443138 -0.2966008 -0.14043912 0.067251496 -0.33146545 0.23229189 0.16160484 0.21017243
-0.052673664 0.0683144 0.24978071 0.29003167 0.23634589 -0.060471676 -0.11669867 -0.26916414
-0.26564378 -0.04648585 -0.1314721 -0.18397728 0.0042642867 -0.20839936 0.09857648 -0.28785235
0.040444575 0.050005123 0.3554977 -0.27928007 0.22808912 -0.30051115 0.1615933 -0.12179589
-0.21279627 -0.14453894 -0.108934745 -0.1555882 -0.0021186671 0.094100915 -0.12690379 0.29688752
-0.17498484 0.25790617 0.29765287 0.33089873 -0.07450826 0.28798565 -0.0028032851 0.1344658
-0.23045719 -0.117361955 -0.31143588 -0.37109667 0.100844175 -0.0067242784 -0.067013554 0.09110435
-0.076323755 0.27462503 -0.23583394 0.06228017 -0.142024 -0.08153313 0.026316682 -0.2547399

encoder.encoder.0.bias f4 [16]
00000000: 8ccc 06b8 c302 31b8 b6e1 ccb7 af9d 4938
00000010: d96a ecb7 9f00 1e38 3cc4 dc38 94e7 b837
00000020: 4f46 d2b6 745b 55b8 c43e 5b38 6746 3bb9
00000030: 0afa 1bb8 2bd7 1238 3903 3438 c834 a338
-3.213859e-05 -4.220266e-05 -2.44238e-05 4.806899e-05 -2.8183147e-05 3.7670714e-05 0.00010526969 2.2042346e-05
-6.2666727e-06 -5.086833e-05 5.2272124e-05 -0.00017859937 -3.7187747e-05 3.5009503e-05 4.2918346e-05 7.782277e-05

encoder.encoder.1.weight f4 [16]
00000000: 4661 7e3f 1f83 7f3f 5a67 773f 9c12 773f
00000010: 180b 823f d776 803f b5fa 813f 26fe 833f
00000020: e424 723f cc9a 753f dedd 823f 1ceb 7a3f
00000030: b628 7d3f 26cc 793f 4f0d 7d3f c2c8 803f
0.9936718 0.9980945 0.96642077 0.9651277 1.0159636 1.0036267 1.0154635 1.0311935
0.9458754 0.95939326 1.0223958 0.98015 0.98890245 0.9757713 0.9884843 1.0061266

encoder.encoder.1.bias f4 [16]
00000000: e73e 853c 31da 963c fad1 313c 0572 f13c
00000010: c5c5 403d b4a9 b23b ead8 3d3c 1e53 1c3b
00000020: 2a02 a13d 4a2f 033d 8c08 e53b 2910 9ebb
00000030: 8ded 9a3b 2a31 9bbb 6a66 053d 6aaf 783c
0.016265346 0.018414589 0.010853285 0.029473314 0.047063608 0.005452359 0.011587361 0.0023853253
0.07861741 0.03202752 0.0069895443 -0.004823704 0.0047280253 -0.0047360854 0.032568373 0.015178541

encoder.encoder.1.running_mean f4 [16]
00000000: 1aa5 db3b 79b1 173f 4da7 2dbf cedd 7ebe
00000010: 8a2e e23e cc01 cc3e 017d 9e3c 0181 7a3e
00000020: cd90 5dbe 5b42 523d 4b56 b13d 4a60 8f3e
00000030: f9cf f53e 064b 51bf cc57 1e3f 28ad 703e
0.0067030312 0.59255177 -0.67833406 -0.248893 0.4417613 0.3984512 0.019346716 0.24463274
-0.21637268 0.051332813 0.08659037 0.2800315 0.48010233 -0.817551 0.6185272 0.23503554

encoder.encoder.1.running_var f4 [16]
00000000: e7cf d13c ae94 463e 8db9 873e 6e51 a93d
00000010: 5ea8 2e3e 9a05 183e 11fe 633d b9bf 893d
00000020: 7826 3d3d c737 8d3d 272c d43d 75da 813d
00000030: ad92 143e ee15 c43e 1c32 753e 908f 4b3d
0.02561183 0.19392654 0.26508752 0.082674846 0.17056414 0.14845887 0.05566222 0.06726021
0.046179265 0.06895404 0.10359984 0.063404955 0.14509077 0.3829798 0.23944896 0.04969746

encoder.encoder.4.weight f4 [16, 16, 3, 3]
00000000: 334f 6dbd 2bfa 4e3c deb7 66bc eb03 1ebe
00000010: ac24 a9bd 89a9 87bd 6df1 073c d6d6 5ebd
00000020: 9060 893d 0d2d 03bd 9668 5d3d 03f3 d9bb
00000030: e1b6 8f3d 1bc5 063c 1fe4 743d 3817 643c
00000040: a9fd 12bd dd21 b63c e4ab 0c3d 8f9e ef3c
00000050: 3b6a eabc 8a82 073d 70a3 0b3d 34ef 513d
00000060: ecff 203d d813 d13b 765d 983d 1011 86bd
00000070: b3a3 88bc 17c4 20bd bd7c 91bd 41cf 9c3d
00000080: e495 c03b bba3 81bc afe6 55bd acc8 643d
00000090: 2e4c a63d 28a3 2f3d 5b41 883d 647e 8d3d
000000a0: 9722 bf3b 6813 7e3b 7e8d 493d 4c96 19bc
000000b0: b3f2 b63d 1d77 a93d 9b15 21bd 0239 24bd
000000c0: b60f da3c 6c43 bfbd 9036 243d bec6 72bd
000000d0: d662 1fbd d30e b33d 7aa9 9e3d 93fd fcbc
000000e0: 5680 553d 3ec1 89bd 47fa 93bd 712a 8dbc
000000f0: 13dd 033c fd4c adbb 49b7 f03d 5931 863d
00000100: 5541 eabc a1d0 713d 4bc5 a93d 20be 91bd
00000110: 33b4 b9bc 6f64 70bc 77cd bc3d 6841 09bd
00000120: 481b 8bbc 234b 97bd 86fe 713d 89cf 90bd
00000130: 9b91 61bd 6ec8 ab3d 5777 033c 6687 393d
00000140: a771 9c3d a037 973c b3ab ed3b 8ed9 0d3d
00000150: dc9d 263d 513b 593d 80fa 443d c57e 2b3d
00000160: 2476 513d 591b 843d 598d 203c eb85 4fbd
00000170: 5662 40bd db4d 2a3d 2755 5a3d 9dcf ac3d
00000180: 9674 63bd 9054 1f3d b9a4 1cbd 6f98 1d3d
00000190: 9c94 493c 406b bf3c 6091 7e3c 28b4 30bd
000001a0: 83da 89bd 9075 77bc af83 0d3d f848 863c
000001b0: c2a5 6d3d 99ff 433c 264a 183c fef1 493d
000001c0: 6e45 b53c 0f7d fabc a15b 533d 7a9b 3fbd
000001d0: b764 b33d a272 5e3d 96ff 4e3d 9f53 8fbd
000001e0: 6d37 58bd ea64 89bd be81 1f3d 8ea2 383d
000001f0: 598e da3c 50c0 bebc 5123 01bd d02c 80bd
00000200: 2f46 19bd b97b a73d 67ce 4fbd 48eb 5d3d
00000210: b6a8 ce3d 91b9 fcbc 9ab7 963d fe98 65bc
00000220: 9456 83bd f4c5 cbbc 84e8 433d 8bee 06bd
00000230: 548f 6fbd 56ad 0f3d aa51 0f3c 1495 fb3b
00000240: 482a ffbc f2bb 1e3d dedf 143c f1d3 433d
00000250: 62a5 d53c fab2 673b 9486 28bd 6b8d 9cbc
00000260: d142 3d3b 6eed 6ebc e4e6 85bd 3b0b f1bb
00000270: a202 dbbd 8478 a83b e4d5 e43b 8f8f 29bd
00000280: 049c 92bd dc88 9cbd 5bf9 71bd 13cc 2f3d
00000290: 4cf1 753d 627c 92bd 4a12 e03d 7325 8e3d
000002a0: 0ff1 1f3d 735e e93d 22c0 8d3c bb3e cebc
000002b0: 2962 33bd 2169 febc 8c61 8dbc e87d 073d
000002c0: 58aa 80bd b7b4 913d b226 a53d 8798 483d
000002d0: 3634 25bd d122 b4bd d898 093d 13c7 d7bc
000002e0: 78b2 cd3c b857 6cbd 439d 053c cc2d 8a3c
000002f0: fce0 9ebd a8d6 0e3c 0d7b 843d 5b81 8fbc
00000300: b605 d63c c0cc 2f3d b282 a2bc b431 9c3d
00000310: b132 b83d 9730 58bc 46a2 813d b1a9 82bd
00000320: 5981 35bd c894 a23d 5b72 2cbd 9253 96bc
00000330: bacb 903d 4cb6 2bbd 4657 d53c 16a1 633a
00000340: 7db7 44bd f8fb 83bc 160d 4cbd 7ab5 6d3c
00000350: f7d6 a6bd 816e 8a3c a603 bcbc 0bb0 e03d
00000360: 09ba 0f3d b2cc c43c 4092 83bd bfb0 593d
00000370: 93a9 75bc e8aa d03c 891b f9bc bfc1 9f3c
00000380: 6b0d 3a3d 6d80 833d 2ab7 393d ad67 18bd
00000390: 9db1 723d 9946 5f3d 38d9 293b 902a 9c3d
000003a0: 41e8 c03d aec1 15bd 833e 663d 1967 07bc
000003b0: e5bc a23c da33 75bd 28be 7c3c cc9c 833c
000003c0: 1373 9c3c 7175 8dbc 34cf 2d3d 1b83 6cbd
000003d0: 517b 76bd e136 443b 8fbe 7e3d 652c 02be
000003e0: 4a07 08bd e7f9 92bd 2caa 5d3d c87f 8bbc
000003f0: 5158 95bd 69eb 63bd 26f7 983c 8a65 3fbd
-0.05793686 0.012632887 -0.014081923 -0.15431182 -0.08258948 -0.06624133 0.0082973065 -0.054404102
0.06707871 -0.032025386 0.05405482 -0.0066512837 0.07017303 0.008225705 0.059787866 0.013921551
-0.03588644 0.022232944 0.034343615 0.029250411 -0.028615108 0.033083476 0.034091413 0.051253513
0.039306566 0.0063805394 0.07439701 -0.06546223 -0.01667962 -0.039249506 -0.0710387 0.07656718
0.0058772434 -0.015825143 -0.05222195 0.055855438 0.08119999 0.042880207 0.066530906 0.06908873
0.005832981 0.0038768891 0.049207203 -0.0093742125 0.0893301 0.08274672 -0.039327245 -0.04009343
0.02661882 -0.093390316 0.040091097 -0.059271567 -0.038912617 0.08743062 0.07747169 -0.030882632
0.052124344 -0.06726311 -0.07225471 -0.017232152 0.008048314 -0.0052887187 0.11753709 0.06552381
-0.028595606 0.059036855 0.08289584 -0.071163416 -0.022668933 -0.014672383 0.09218877 -0.033509642
-0.016980782 -0.07387378 0.059080623 -0.07070834 -0.0550705 0.08387838 0.008024058 0.04529514
0.07638865 0.018459141 0.007253134 0.034631304 0.04067789 0.053035084 0.048090458 0.041868944
0.05113806 0.06450529 0.009799325 -0.050664824 -0.04696878 0.041578155 0.053303864 0.084380366
-0.055531107 0.038899004 -0.03824303 0.03847545 0.012303498 0.02336657 0.01553759 -0.04314056
-0.06731131 -0.015103713 0.03454941 0.016392216 0.058019407 0.011962795 0.009295022 0.049303047
0.022127833 -0.03057721 0.051601056 -0.046779133 0.08759444 0.05430854 0.050536714 -0.06998371
-0.052787233 -0.06708701 0.03894209 0.0450769 0.026679205 -0.023285061 -0.03152782 -0.06258547
-0.037420448 0.08177895 -0.05073395 0.05417946 0.10090773 -0.030850204 0.07359238 -0.014013527
-0.06412998 -0.024874665 0.047829166 -0.032942336 -0.058486298 0.035077415 0.008747498 0.0076776836
-0.031148091 0.038753457 0.009086577 0.047809545 0.026079837 0.003535448 -0.04114397 -0.019110402
0.0028878937 -0.014582975 -0.065381795 -0.007356075 -0.106938615 0.0051413197 0.0069835056 -0.041396674
-0.07158664 -0.07643291 -0.059075695 0.04291923 0.06004457 -0.071526304 0.10940988 0.069407366
0.03904825 0.11394968 0.01730353 -0.025176397 -0.043794785 -0.031055989 -0.017258428 0.033079058
-0.062824905 0.07114547 0.08064021 0.048973586 -0.040332995 -0.08795703 0.03359303 -0.026340043
0.025109515 -0.057700843 0.00815517 0.01686754 -0.07757756 0.00871817 0.064687826 -0.017517736
0.02612577 0.042919874 -0.019837711 0.076266676 0.089940436 -0.0131951785 0.06329779 -0.06380022
-0.04431281 0.07938534 -0.042101245 -0.018350396 0.07070108 -0.0419219 0.026042592 0.00086833665
-0.04802655 -0.016111359 -0.049817167 0.014508599 -0.0814647 0.016898395 -0.022950958 0.109710775
0.035089526 0.024023388 -0.06424379 0.053147074 -0.014994043 0.02547212 -0.030408638 0.019501565
0.045422953 0.0642098 0.045340694 -0.037208248 0.059251416 0.054510687 0.0025916826 0.07625306
0.09419299 -0.03656166 0.05621196 -0.0082643265 0.019865463 -0.059863903 0.015426196 0.016065978
0.01909784 -0.017267914 0.042433932 -0.05774222 -0.060176197 0.0029939937 0.06219345 -0.12712248
-0.033210076 -0.07176571 0.054117367 -0.017028704 -0.07292236 -0.055644426 0.018672537 -0.046727695

encoder.encoder.4.bias f4 [16]
00000000: 80fc b7b7 93fd 43b5 5dd3 2338 f3ae 2b37
00000010: 0782 1db7 c0bc 6237 f62f efb6 9589 2138
00000020: 3b85 5237 b400 8536 0fd3 7d36 41d8 0d37
00000030: 3f78 9135 400c 44b6 e95f 5035 e912 c7b7
-2.193288e-05 -7.301216e-07 3.9059076e-05 1.0233128e-05 -9.388204e-06 1.35145965e-05 -7.1283384e-06 3.8513524e-05
1.25479955e-05 3.9637907e-06 3.782279e-06 8.454605e-06 1.0838338e-06 -2.9213406e-06 7.7625606e-07 -2.3731454e-05

encoder.encoder.5.weight f4 [16]
00000000: 6793 683f 304b 7d3f a43e 773f 2478 7c3f
00000010: 6b77 863f 1641 823f 608c 833f ef0b 803f
00000020: 0a73 783f 443b 733f d3c7 773f c80b 803f
00000030: 9974 783f e18e 803f fc89 833f 9e3d 7f3f
0.9084992 0.9894285 0.96579957 0.9862082 1.0505193 1.0176113 1.0277214 1.0003642
0.97050536 0.9501231 0.9678928 1.0003595 0.97052914 1.0043603 1.0276484 0.99703395

encoder.encoder.5.bias f4 [16]
00000000: 26b1 243d 79e7 9d3b ba9b 5b3c 76f9 83bc
00000010: 5230 1abc f488 5f3b acdb 7c3d 46d5 02bd
00000020: 41de 203d da91 833d daae ddbc 70a1 02bc
00000030: a059 023d c5ab 873c cbc2 c7bc dc1b 193b
0.040208004 0.0048188535 0.013403827 -0.016110163 -0.0094109345 0.003410873 0.061732933 -0.031941675
0.039274458 0.06424303 -0.027060915 -0.00797306 0.031823754 0.016561398 -0.024384877 0.0023362553

encoder.encoder.5.running_mean f4 [16]
00000000: 92b4 003f 1f84 77bd eb07 14bf 58b2 3cbf
00000010: 8814 963d 1b17 1ebf 0a68 9ebe 561d 46bf
00000020: ac4c 6ebe 0c19 01bf c3ba f13d e1f0 8abf
00000030: a218 53be 6317 11bf 0e94 f23d 14fd 2cbf
0.5027553 -0.060428735 -0.5782458 -0.7370963 0.07328135 -0.61754006 -0.3093875 -0.77388513
-0.23271435 -0.50428843 0.118032 -1.085476 -0.20614865 -0.5667631 0.118446454 -0.67573667

encoder.encoder.5.running_var f4 [16]
00000000: eb4a e23e 9789 3f3f ac0d cb3e e424 af3e
00000010: ed54 833e ee03 883e b5bd f23e ed22 333e
00000020: 75da 573e dd6d 913e 1a94 8d3e 4770 b83e
00000030: 6472 b83e 7f59 3d3e 337f 393e 5037 b43e
0.44197783 0.7481932 0.39658868 0.34207833 0.2565073 0.26565498 0.4741036 0.17493792
0.21079428 0.28404132 0.27652055 0.3602316 0.36024773 0.18491171 0.18114929 0.3519845

encoder.encoder.8.weight f4 [16, 16, 3, 3]
00000000: 94aa 363d c29e 873c fe2f 0a3d 68a8 5f3a
00000010: 67d6 2a3d 9561 52bd 4804 41bc 4a4c 7b3c
00000020: aaaf a8bd 72c0 013c 550e 8939 35c8 18bd
00000030: 0af4 603d b05a a33d 6774 76bb ea1e aa3d
00000040: a6b6 29bc 2eaa d13d b925 19bc c5f9 c7bc
00000050: af7e 3d3d 8256 e8bc 892d 51bd d574 653d
00000060: dd17 903b 54ce 383d 4565 753d 1fd7 8ebc
00000070: 9e2b 34bd f7db ac3c d09d e4bd 491c 16bd
00000080: 3a91 8d3d 8893 7b3d 14dc f53c 7211 3fbd
00000090: 2ae3 943c dbcf 263c 093e f0bd 3d79 42bd
000000a0: 9d84 1e3d bd2c 6f3c 03e3 3bbd 8355 a5bd
000000b0: aa19 303c 6b60 4e3d 4343 9a3d 0ff4 a33d
000000c0: 1a7a 03bd 6a3f dc3d 6313 963c b38d 3a3d
000000d0: d3ec b73d 9015 3c3c 01db 883d 3071 8d3c
000000e0: 57bb cd3d 2533 46bd 5e0b 7ebd c75c 0b3d
000000f0: 5337 043d c6bb b2bd 45eb 64bd bde5 a83c
00000100: d379 a33d c775 4cbd 03e5 55bc 5925 5bbc
00000110: fc8e 013d fc59 803d f24a 143d d9e4 d13d
00000120: 5465 5d3c 645f ecbc aa94 1dbd 646c e3bc
00000130: ab7b 2ebd 94a6 b3bd 4cf5 a83b 8711 e33c
00000140: c3e8 823d 6b26 bcbc 9f8a a73b 0293 ec3c
00000150: 36f7 2f3d de94 4e3d c7a3 9bbd 81e2 be3c
00000160: c67a 883c 9a33 8dbc 0b73 acbd 8036 743d
00000170: 24d6 a839 c86c 2d3c 4477 ae3d 313f c33c
00000180: f4aa 49bd 9025 323d 7767 923d 2caa 983d
00000190: ad63 11bc 4585 f23d 46e2 473d fe5f 593d
000001a0: 95fc 39bd 1377 71bd 2210 b5bd 1c43 a83c
000001b0: 3c0b 11bd 77de 61bd 97c3 e3bc 5629 06bd
000001c0: 6d93 d6bb 41c1 3f3d ec52 f43c 9545 433d
000001d0: d621 863d 4773 91bb d303 6abd edea 02bb
000001e0: 0ff8 cd3c 5d8c 5e3d 91fb c23c 7445 913d
000001f0: b5b5 0ebc 362f 493d 7020 9bbc 28af 813b
00000200: eb54 9f3d 6234 f63c 2003 e63b db85 903d
00000210: 13ca 8abd 238c 6dbb b97c 6e3d dc0b de3d
00000220: 735b 24bc 067f 77b9 881c cf3c 0d88 0b3d
00000230: 0da5 3cbd e470 983d d9e9 503d a468 073d
00000240: dfe8 413b cfc2 92bc 0bdb 783b 1f10 81bc
00000250: 02dd c3bd 6f59 04bd 5498 46bd 9f2c 653d
00000260: 50d2 70bd bc46 b03d c319 b43c 17d4 e23c
00000270: 8abe 153d 7817 18bd 1efa 90bd 72ff 9c3d
00000280: 53e3 b5bc 2fe6 4e3c 81b5 f3bc 95de 97bd
00000290: ab2b 19bd 25c3 10bc be26 a93c 2bd0 26bd
000002a0: 4ba7 173d 536c a63d 4a0b 633d 5b1d 9f3d
000002b0: ada0 0f3d bc15 afbd 5c4b 763d fae4 3c3b
000002c0: e6c2 6d3d 9348 473c 384d 92bc fe5f a8bb
000002d0: b715 9c3c 7b86 e03b cf50 4f3d 85cd 683d
000002e0: 0ae4 d43d a420 db3d 595e 5c3d ba4b bbbc
000002f0: 4f7e 77bd 85fb 323b fa42 d23c d815 a4bc
00000300: 6a00 01bd 15cb 303d e1a7 48bd 23b2 a0bc
00000310: 0f44 0c3c b48e f339 44f7 28bd d8d5 bcbc
00000320: 499f 5c3c 4dc4 19bd 3608 13bd 66f9 d7bc
00000330: d9e2 953d f14c 63ba 21f4 613d 1325 573d
00000340: eaae ae3a ac79 80bc 8f57 36bd 18ee 1b3d
00000350: 16da 28bd 6cc1 cb3c 8521 823c f530 a43d
00000360: 7939 523c 8c5f 74ba 92d9 6abc af51 e03d
00000370: 28a3 163d 55c0 0f3c d9f1 81bc d6d1 943d
00000380: e8d5 dd3c 130b 1d3d f260 30bb 3b12 663d
00000390: bf43 703d 6b02 48bd ca44 963b 647b 95bd
000003a0: 117b 953c 3d0f 653b 5d80 103d 5a2d 22bd
000003b0: 4627 823d 74df 92bc bee1 19bd b85f 663d
000003c0: a7c0 8dbd 3d9e 9cbc e59d ac3d 3b11 2f3d
000003d0: a0ff a9bc 8b88 e23c a8c9 5bbc a0fe afb9
000003e0: 396e 84bd 0304 263d bf27 fabc ced5 8e3d
000003f0: 0433 08bc 47d3 22bd 113a b1bd f04c 943d
0.04459627 0.016555194 0.033737175 0.00085318694 0.041708376 -0.051362593 -0.011780806 0.015338013
-0.0823663 0.007919418 0.00026141354 -0.037300307 0.054920234 0.07976282 -0.0037606002 0.08306678
-0.010358488 0.10237537 -0.009347373 -0.024411092 0.046263393 -0.028361563 -0.051068816 0.056019623
0.004397376 0.045118645 0.05991103 -0.017436562 -0.04398691 0.021100981 -0.11162913 -0.03664807
0.069124654 0.061419994 0.030012168 -0.046647497 0.018174727 0.010181393 -0.11730582 -0.047478903
0.03870069 0.014598069 -0.045870792 -0.08072951 0.010748306 0.05038492 0.075323604 0.08005535
-0.032098867 0.10754283 0.018319791 0.04554529 0.089807175 0.01147975 0.06682397 0.017265886
0.10045498 -0.04838862 -0.06202256 0.034024026 0.032279324 -0.08727221 -0.055888433 0.02061736
0.079822205 -0.04991701 -0.013055089 -0.013375604 0.0316305 0.06267163 0.036204286 0.10248727
0.013512928 -0.02885408 -0.038471855 -0.027761646 -0.042598408 -0.08772007 0.005156195 0.027718319
0.06392052 -0.022967538 0.0051129605 0.028878693 0.042960368 0.05043494 -0.075995974 0.023301365
0.016660105 -0.01723652 -0.0842038 0.059622288 0.00032203004 0.0105850175 0.08518842 0.023833843
-0.0492353 0.043492854 0.071486406 0.07454333 -0.008873862 0.118418254 0.048799776 0.05307006
-0.045406897 -0.05895145 -0.08840968 0.020539813 -0.035411105 -0.0551438 -0.027803225 -0.032754265
-0.0065483362 0.04681516 0.029824696 0.04767378 0.065494224 -0.004438791 -0.057132553 -0.0019976452
0.025142698 0.05433308 0.023801597 0.07093325 -0.0087103145 0.04911729 -0.018936366 0.003957648
0.07779869 0.030054275 0.0070194155 0.07056781 -0.06776824 -0.0036246858 0.058224414 0.10842106
-0.010031569 -0.00023603076 0.02528216 0.034065295 -0.046055842 0.07443407 0.051004265 0.033058777
0.0029588265 -0.017915158 0.0037972357 -0.015754757 -0.09563638 -0.032311853 -0.048485115 0.055950757
-0.05879432 0.086072415 0.02198494 0.027689023 0.036558665 -0.037131757 -0.07078956 0.0766591
-0.022203123 0.012628122 -0.029749634 -0.07415501 -0.03739516 -0.008835589 0.020648357 -0.04072587
0.037024777 0.0812613 0.055430688 0.07769271 0.03506534 -0.085490674 0.060130462 0.0028823004
0.058047198 0.012163299 -0.017859086 -0.0051383963 0.019053323 0.006851969 0.050614174 0.056836624
0.103950575 0.10699585 0.053800914 -0.022863258 -0.06042319 0.0027310562 0.025666703 -0.020029947
-0.031494536 0.043162424 -0.048988227 -0.019616192 0.008561148 0.00046454894 -0.041251436 -0.023051187
0.013465711 -0.037540723 -0.035896502 -0.02636404 0.073186584 -0.0008670828 0.05516446 0.05252559
0.0013327275 -0.015683018 -0.044517096 0.03806886 -0.041223608 0.024872504 0.015885124 0.0801715
0.012831085 -0.0009322099 -0.014334099 0.1095308 0.03677669 0.008773883 -0.015862392 0.072665855
0.027079538 0.03834064 -0.0026913253 0.05616973 0.058658358 -0.04883043 0.004585837 -0.072989255
0.01824716 0.003495171 0.035278667 -0.039594032 0.06355147 -0.017928816 -0.0375688 0.05624363
-0.06921511 -0.019118423 0.084285535 0.04274104 -0.020751774 0.027653 -0.013414778 -0.00033568311
-0.06466336 0.04053117 -0.03053653 0.06974374 -0.008312944 -0.03975227 -0.086536534 0.07241237

encoder.encoder.8.bias f4 [16]
00000000: 6477 4737 8487 1db8 9674 c136 8659 f137
00000010: 2f7a 8eb6 5b0f b8b7 748c 84b7 0db2 dbb7
00000020: 84ab 2e37 987a 61b7 7012 1134 98e8 aeb7
00000030: 59a1 9235 15ca 86b4 cd91 35b7 7b3b 0237
1.1889122e-05 -3.7557926e-05 5.7654206e-06 2.8771126e-05 -4.246154e-06 -2.194166e-05 -1.580103e-05 -2.6189746e-05
1.0411142e-05 -1.3439589e-05 1.3510885e-07 -2.0850726e-05 1.0924806e-06 -2.510648e-07 -1.0822388e-05 7.762453e-06

encoder.encoder.9.weight f4 [16]
00000000: a82b 663f b642 743f b941 813f 411a 823f
00000010: 7ebd 773f 650a 833f efa4 7f3f 74fc 6f3f
00000020: 30cc 823f 5095 793f 99ef 723f 1af1 833f
00000030: f253 823f 5fd5 823f 3506 863f 357c 7e3f
0.89910364 0.9541429 1.0098182 1.0164262 0.9677352 1.0237547 0.99861044 0.9374459
1.0218563 0.9749346 0.94896847 1.0307953 1.0181868 1.0221366 1.0470644 0.99408275

encoder.encoder.9.bias f4 [16]
00000000: 9628 4e3c 7ecb 273d cd7d 1fba d975 573d
00000010: abe0 a8b7 a5ea cc3a 9d22 57bd ea75 323c
00000020: 4f7e 5dbc 4f93 5b3d ecfc 9ebb 57dd 05bd
00000030: cf88 91bc 72b2 fdbd 0917 f63a 9076 1fbc
0.012582919 0.04096555 -0.00060841144 0.052602623 -2.013178e-05 0.0015633894 -0.052523244 0.010892371
-0.013518884 0.05360728 -0.004851928 -0.03268179 -0.01776543 -0.12387551 0.0018775176 -0.009732857

encoder.encoder.9.running_mean f4 [16]
00000000: 3711 583f 1e76 073f 5829 82bf 4d73 e43e
00000010: d790 2a3f 7648 9dbf 18d9 c5be 3091 913e
00000020: f6fd 2cbf 8918 903e 3384 f0be f8dd ddbe
00000030: 8ae2 e03e 642d f9be 23d0 86be 3811 e3be
0.8440127 0.5291461 -1.0168867 0.44619218 0.6662726 -1.2287738 -0.38642192 0.28431082
-0.67575014 0.2814372 -0.4697586 -0.4333341 0.43922836 -0.48667443 -0.2633067 -0.44349074

encoder.encoder.9.running_var f4 [16]
00000000: 808f e53e 3f08 b63e c525 1e3f e2a1 5c3f
00000010: b417 263f 6834 493f 28a1 223f a403 223f
00000020: 9b7c 073f 6f14 c23e 7221 f63e f073 b13e
00000030: 7d10 a33e 79d5 113f 8d54 353f cba8 433f
0.44836044 0.35553166 0.6177638 0.86184514 0.6487992 0.7859559 0.63527155 0.63286805
0.5292451 0.37906215 0.48072392 0.34658766 0.31848517 0.5696636 0.7083214 0.7642943

encoder.encoder.12.weight f4 [16, 16, 3, 3]
00000000: 5b63 b33b 6365 3cbd f082 173c 3b04 25bd
00000010: a3d9 97bc 3381 9dbb 5e8e 603d b08e 0abd
00000020: 2209 2c3c 3d8f 633c b346 1fbd 407d debb
00000030: 571f f03c 1d7c d6bd 6881 6abd b427 29bd
00000040: 46a8 0dbc ad2d 2c3d 6695 a03c f310 a73d
00000050: d7fa 55bc 24df 263c 588f 3dbd bae1 59bd
00000060: f9c9 ca3c 47a1 153d 9a83 133d 6963 133c
00000070: b785 fdbd 9695 093d c53a 4a3d b92b 3dbd
00000080: c80c fdbc a76b d63c 23bc 90bd b0f1 763d
00000090: bb3e 3abe fbef 99bd 9520 f63c 7384 60bd
000000a0: 4aeb 46bd 03d7 703b 13de 8139 ff6e 0d3d
000000b0: 1027 3e3d 50a0 a6ba db82 d73d 820b 1bbd
000000c0: 9a7a 38bd e83e b13d 5be2 843d 5daa 00be
000000d0: bfd9 2b3d 37b1 f73c 4fd5 1cbd 6711 83bd
000000e0: 5e3c 8cbc 7a92 833d 9572 94bd d2df 43bd
000000f0: 4320 75bd 99ce ca3c 4849 a8bc 30df 71bd
00000100: 21a6 a6bc d159 043d 6e84 17bd 463b 3ebd
00000110: c95e 81bc f3e2 363c 2589 b33a 42d6 53bd
00000120: 5e7f 57bd d439 eb3c bdc9 af3d 3cf6 0fbe
00000130: 6f96 f4bc a284 083d 0b17 3f3b 789d bb3c
00000140: 341d 58bc 6b0b 89bd 017c dabc 31d2 9a3d
00000150: 2e55 9a3b 4538 b63a 430c 3e3d 18f4 44bc
00000160: ddfc 55bd 4106 603d 4128 163c 783c b93c
00000170: f507 d7bc c5e2 87bd e1b8 8cbc 9f8d cfbc
00000180: ba04 a0bd 7543 a13b f1c7 11bd a19d 7abc
00000190: 42e5 29bc 5331 18bd a688 473c b23a 73bb
000001a0: bc6c 2d3d af01 47bd 2571 bebd 12cc 493c
000001b0: ae88 783d 162d 343d 2ae1 853d 5857 383d
000001c0: 6328 c73c be46 943c ebfa a2bd 6fa5 003d
000001d0: 0bea 8e3d 21f3 d03d dfbe 76bd 20cf b03c
000001e0: 25fa 92bd 0b38 2b3b 66a4 1abd d16f e53c
000001f0: 3556 8c3c 44f5 4bbc 3020 52bd 2a16 83bd
00000200: 49bd 15bd 1eee 96bd 7d2b 943d a67c 2dbc
00000210: cfe3 29bd 20e7 323d 16be 67bd f5dc dc3c
00000220: 4f66 58bd 2d86 2fbd d9aa f73c 8ba5 20bb
00000230: c745 c13b 5e78 90bd a374 95bd ee25 42bd
00000240: 0adf b5bd b173 543d 0d34 3b3d 319b dbbc
00000250: 52ba 103c c8a5 96bd 868f 91bd ea00 0abc
00000260: 47e6 9e3d a1ce 58bc a0a3 4fbd b8b4 ed3c
00000270: 61d5 1a3d c72a 803d 7dca e53c 2919 30bd
00000280: e5a1 5bbd 92b6 183e 57e2 e33c da72 523d
00000290: b7a2 593d a711 6c3d d250 6ebd 1c05 ab3c
000002a0: 6c01 d93c 0fac 0b3d 7abc 5f3b 49ac 763d
000002b0: 5826 b23c 9711 2cba 6123 2abd 70e6 d13c
000002c0: 67bd a93d 85b5 f6ba ce88 26bd beeb 933c
000002d0: e2e1 41bd dc6c dc3b 153a 55ba f6e2 5d3a
000002e0: 7319 02bd 9a82 a23c 895c 8abd 26d3 9b3d
000002f0: 3f4c 243d 7f96 c43c 8df1 c93b 6c67 18bd
00000300: 7f17 de3d 1897 c73a 3e18 60bd fe9e b93d
00000310: 19c1 4bbd 78e8 4ebd 546f c73d 407b 533c
00000320: 64e2 83bd b7f7 053d 5671 8fbd 6c24 bb3d
00000330: 61e1 5f3d 9d8b 843b 732d bd3b 22b2 073b
00000340: 952b b43b 8982 7ebd fe69 473d 4ad9 37bd
00000350: 6918 c83c 8625 9f3d c1d6 453d cd10 5abb
00000360: f400 223d 41cf 21bd 8da2 30bd 0899 053d
00000370: 642c 883b 6bda 9abd 1c56 e13d dba0 e23b
00000380: 1a15 3d3c ba7e 39bd 602a 153d 74d5 03bd
00000390: 66f1 09bc 73d1 c33d 0aee 7cbd 0c31 8d3d
000003a0: 67f2 373d 05a7 923b 9317 0e3d 0bf5 62b9
000003b0: f26e 05bc 4c18 f83c c28b 54bd 0d15 543d
000003c0: 100d a2bc 1431 0b3d 8fd1 893d 8cd1 613d
000003d0: 8a87 9e3a b160 a6bc 762f 2b3d caa6 16bd
000003e0: 707e 5dbd 3699 6f3d 2451 0abd 571d 613d
000003f0: 64b4 0e3d 5b10 b33c be56 a0bd ac35 cebc
0.0054744906 -0.045995127 0.0092475265 -0.040287238 -0.018536394 -0.0048066615 0.054823272 -0.033827484
0.010500224 0.013889131 -0.038885783 -0.0067898333 0.029311819 -0.104728915 -0.057252318 -0.04129763
-0.008646077 0.042035747 0.019602489 0.0815753 -0.013060293 0.010185037 -0.04627928 -0.053193785
0.024754511 0.03653076 0.036014177 0.008995869 -0.1237902 0.033589922 0.049372453 -0.046184275
-0.030889884 0.02617438 -0.07067134 0.060289085 -0.18187992 -0.07516476 0.030044833 -0.054813813
-0.048564233 0.003674925 0.00024770256 0.034529682 0.04642397 -0.0012712572 0.105230056 -0.03785277
-0.045038797 0.086545765 0.064884864 -0.12564988 0.041955706 0.03023587 -0.038289364 -0.063998036
-0.017118629 0.064244226 -0.07248417 -0.047820874 -0.05984522 0.024756717 -0.020542756 -0.05905074
-0.020342888 0.032312218 -0.03699153 -0.046443246 -0.015792267 0.011162507 0.0013697488 -0.051718004
-0.0526117 0.028714098 0.085834004 -0.14058775 -0.029856889 0.033329614 0.0029158022 0.022902235
-0.013190556 -0.06691631 -0.026670458 0.07559622 0.0047098612 0.0013902268 0.046398412 -0.012021087
-0.052243102 0.054693464 0.009164871 0.022611842 -0.026248911 -0.0663505 -0.017178 -0.025336085
-0.078134015 0.0049213716 -0.03559107 -0.015296371 -0.010369601 -0.037156414 0.012178576 -0.0037113843
0.042340025 -0.04858559 -0.09298924 0.012316721 0.060677223 0.04398831 0.06537087 0.045005172
0.02431125 0.018100139 -0.07958015 0.03140777 0.06978234 0.10202623 -0.060240623 0.02158314
-0.071766175 0.0026125934 -0.03775444 0.02800742 0.01713095 -0.012448613 -0.051300228 -0.06400712
-0.03655747 -0.07369636 0.07234857 -0.010588801 -0.04147702 0.04367745 -0.056577764 0.02696083
-0.052831944 -0.04285257 0.030232834 -0.0024512734 0.0058982107 -0.07054208 -0.07297637 -0.047399454
-0.08880432 0.051868144 0.045703936 -0.0268074 0.008833485 -0.07355839 -0.07107453 -0.0084230695
0.07758766 -0.013232858 -0.050693154 0.029016837 0.03780115 0.06258159 0.028050655 -0.042992745
-0.05362119 0.14913395 0.027817888 0.051379062 0.053133693 0.057634022 -0.058182545 0.02087646
0.026489936 0.034099635 0.003413944 0.060222898 0.0217468 -0.00065639004 -0.041537646 0.025622576
0.08288079 -0.0018822408 -0.04065781 0.018056747 -0.04733456 0.0067268442 -0.000813396 0.0008464301
-0.03176255 0.019837666 -0.06755931 0.07608633 0.040111776 0.023997543 0.0061628283 -0.037208006
0.10844325 0.0015227525 -0.05471062 0.090635285 -0.0497447 -0.05051467 0.09738031 0.012907803
-0.06439665 0.032706942 -0.07004039 0.09137806 0.054658297 0.0040449635 0.0057732402 0.002070554
0.0054983594 -0.062136207 0.048685066 -0.044884957 0.024425702 0.07770829 0.04830051 -0.0033274174
0.03955169 -0.039504293 -0.04312377 0.032616645 0.0041556824 -0.07561191 0.11002752 0.006916148
0.011540676 -0.04528687 0.036417365 -0.032185987 -0.00841937 0.09561434 -0.06175045 0.068941206
0.044908907 0.0044754767 0.03469045 -0.00021644325 -0.008144127 0.030285023 -0.051891096 0.051777888
-0.01978162 0.03398235 0.06729423 0.05513148 0.0012094837 -0.020309778 0.04179331 -0.036780156
-0.05407566 0.058495723 -0.033768788 0.05495962 0.034840003 0.021858385 -0.07829045 -0.025172077

encoder.encoder.12.bias f4 [16]
00000000: 0965 a436 9813 2038 5e2d 59b7 b405 9bb6
00000010: f83c 76b6 4897 05b7 d2e7 a3b7 7030 1737
00000020: cf31 17b8 66b4 0fb8 eddd 0d38 e920 f1b7
00000030: 7749 a037 6c3a 0338 e986 d336 d12a 3db6
4.899343e-06 3.816522e-05 -1.2944771e-05 -4.620024e-06 -3.6692345e-06 -7.962641e-06 -1.9539064e-05 9.011579e-06
-3.6047593e-05 -3.4261866e-05 3.3823704e-05 -2.8744764e-05 1.9107696e-05 3.1287243e-05 6.3039956e-06 -2.8188117e-06

encoder.encoder.13.weight f4 [16]
00000000: 333e 7c3f 54cf 813f 1876 7b3f 7d13 803f
00000010: 1aed 783f 0f66 6d3f 686c 7d3f d529 7b3f
00000020: 11f0 773f 4057 7e3f ea58 803f 0c50 7e3f
00000030: 321c 843f 68ba 863f 9733 7e3f 4781 853f
0.9853241 1.0141397 0.9822707 1.0005947 0.9723679 0.92733854 0.9899354 0.98110706
0.9685069 0.9935188 1.0027134 0.9934089 1.0321105 1.0525637 0.9929747 1.0430077

encoder.encoder.13.bias f4 [16]
00000000: 3f71 64ba 4507 8b3c 98ac 7abb eb86 4d3c
00000010: 4b5c 6c3c 11f7 f2bc 1e89 45bd 92b5 b63c
00000020: b70d 50bd 89a7 37bc 2655 18bc 8f6c c3b8
00000030: 8522 aebc 4621 ffbc 6a9b 453c c762 86bc
-0.0008714385 0.01697124 -0.0038249847 0.012544374 0.014426301 -0.029658826 -0.04822647 0.022303376
-0.05079433 -0.011209377 -0.009297645 -9.318545e-05 -0.021256695 -0.031143796 0.012060979 -0.016404523

encoder.encoder.13.running_mean f4 [16]
00000000: e4f0 5bbf 5d0d 883e 8e7d eabd 5505 acbe
00000010: dd4d 9fbf 9935 2bbc 112b 6dbe 7dfe 42bf
00000020: d25d a53d 0d25 69bf 554b 1fbf b614 663f
00000030: 41fb a6be 8e0c 4a3e 297a e3be 5edb a33e
-0.85914445 0.26572695 -0.11449729 -0.33597818 -1.2445637 -0.01044979 -0.2316096 -0.7616957
0.080745354 -0.9107216 -0.6222432 0.8987535 -0.32613567 0.19731352 -0.44429138 0.320033

encoder.encoder.13.running_var f4 [16]
00000000: 54c0 6c3f 3e6a 853f 0e87 813f 6188 b33e
00000010: 26e0 163f be60 1a3f 5d2b b33e e5ca a63e
00000020: 746d f83e 5a99 f03d 5e44 513e 96f6 263f
00000030: 8231 973e d29a 723e 548f b33e f33e a93e
0.9248097 1.0423048 1.011934 0.35064986 0.58935773 0.60303867 0.3499402 0.3257667
0.48521006 0.117479995 0.20436236 0.6522001 0.2952996 0.23691872 0.35070288 0.3305584

encoder.encoder.16.weight f4 [1, 16, 2, 2]
00000000: 8b85 bc3d 06a0 61bd 9fd2 bdbd 1824 5dbe
00000010: 0f7c 093d eeb0 993d 8ff0 fcbd 1bba 77bc
00000020: 2d63 d03d ab03 5bbd 2e5e 7ebd 3a4b 3f3c
00000030: 465f 6c3d 878e 963c 02dd b83d d3cd 27be
00000040: bce0 b93d f055 43bd 057d 0c3d 8f5d d03d
00000050: 4129 75bd a74c 083d 7cf4 53bd 9dd4 4f3d
00000060: 6f9d eabd caaa 9cbd b59f 38bd c38c f63c
00000070: ee09 863d d48e 4c3d dc2e fb3d 6ff0 babd
00000080: 758b 513d 7376 63bd f38d e4bd 3fef 273c
00000090: b5a6 db3c f0aa 67bb c05e 133d 7a99 cd3d
000000a0: 3aaa 00bd 7f13 59bc 80ac d63d 2032 413d
000000b0: db5e 21bd 2278 44bd 1da2 393d 178a b43c
000000c0: e72a 63bb 536a 4abd ae9d 75bd dd34 85be
000000d0: 6d9d 313a f960 c7bc feb7 09bd 64e2 8bbe
000000e0: f64d b73c d7a3 783d a1ca fdbb 2f8f 843d
000000f0: 3616 dd3c 7339 a6bb 7709 f8bd 6d2d 68be
0.09205159 -0.05508425 -0.092686884 -0.215958 0.033565577 0.0750445 -0.123505704 -0.015120055
0.10175166 -0.053470295 -0.062101535 0.01167565 0.057708047 0.01837851 0.09026529 -0.1638711
0.09076068 -0.04768938 0.034298915 0.10174095 -0.059853796 0.033276226 -0.05174683 0.050739873
-0.11455809 -0.07649763 -0.045074183 0.030096417 0.06544863 0.0499409 0.12264797 -0.0912789
0.051158387 -0.055532884 -0.11159887 0.010249912 0.02681289 -0.003534969 0.035979033 0.10039039
-0.03141234 -0.013249277 0.104821205 0.047166944 -0.0393971 -0.04796613 0.04532062 0.022038503
-0.0034663023 -0.049417805 -0.05996483 -0.26016894 0.00067754724 -0.024338232 -0.033622734 -0.2732116
0.022376042 0.060703125 -0.0077451025 0.064726226 0.02698813 -0.0050727664 -0.1211118 -0.22673579

decoder.decoder.0.weight f4 [1, 16, 1, 1]
00000000: 4e5d 823c 6909 943d 3d74 553d c420 923c
00000010: 73c8 313d 9d62 c2bd db47 dbbd 2df1 70bd
00000020: 513c e0bd a9b6 00be ef42 cebd c830 1a3d
00000030: 7c26 523d 99a7 b7bd 1e70 e3bd 5b18 ae3d
0.015913632 0.07228357 0.052112807 0.01783789 0.043404054 -0.09491465 -0.10707065 -0.058823753
-0.109490044 -0.1256968 -0.1007136 0.037644178 0.051306233 -0.089675136 -0.11105369 0.08500739

decoder.decoder.0.bias f4 [16]
00000000: ea27 c43a 8e27 05b9 1fdf d537 444c 1cba
00000010: 06f1 1a39 40cb c338 ffb5 1ab9 c7e1 cb39
00000020: 7e18 5cb9 f18b 07b9 a87c 3d39 d422 69b6
00000030: e9a5 d1b8 7122 b9b9 4170 0fb9 96ed 8c38
0.0014965509 -0.00012698604 2.5495478e-05 -0.0005962292 0.00014776373 9.336183e-05 -0.00014754383 0.00038887394
-0.00020989959 -0.00012926736 0.00018070883 -3.4739978e-06 -9.9968e-05 -0.0003531161 -0.0001367936 6.719974e-05

decoder.decoder.1.weight f4 [16]
00000000: 40b1 7f3f 1fee 7f3f 50cc 793f e7b3 7b3f
00000010: 7583 773f f2ed 7f3f a83e 7e3f 362b 7e3f
00000020: ba5b 803f 0638 7f3f 5e49 7f3f 9e9c 803f
00000030: c890 7c3f 2172 7f3f 90b6 803f c00b 823f
0.9987984 0.9997272 0.9757738 0.98321384 0.9668496 0.9997245 0.99314356 0.99284685
1.0027993 0.9969486 0.99721324 1.0047796 0.9865842 0.9978352 1.0055714 1.0159836

decoder.decoder.1.bias f4 [16]
00000000: d3db 213d 9352 3b3c 506e a7bc 74c3 653c
00000010: 5042 043d 12bd 603c 98f2 f0bc 9cc1 c93c
00000020: 1cd3 cdbb 34d2 76bc 719b 2cba e7da 513d
00000030: cfce 6cbc a955 333d e854 aabc 67c7 4b3b
0.03951628 0.011433261 -0.020438343 0.01402365 0.032289803 0.013716953 -0.029412553 0.024628453
-0.0062812697 -0.015064765 -0.0006584442 0.051234152 -0.014453604 0.043782864 -0.02079244 0.0031094195

decoder.decoder.1.running_mean f4 [16]
00000000: e265 773c 2b08 813d 85b9 3a3d ab07 763c
00000010: 8981 1b3d fdde a9bd 8e21 c0bd 2a00 51bd
00000020: 2297 c4bd d18d e1bd 79ad b4bd 6979 053d
00000030: 043d 383d e071 a1bd b1e6 c6bd b200 983d
0.015099974 0.06300386 0.04558708 0.015016477 0.03796533 -0.08294485 -0.093814 -0.051025547
-0.09599139 -0.110133775 -0.0882215 0.03258649 0.044980064 -0.07883048 -0.0971197 0.074220076

decoder.decoder.1.running_var f4 [16]
00000000: 3bd8 2339 a402 553b 8220 de3a 5bf4 4c39
00000010: 2c0c 993a e9d4 b83b faa0 eb3b bb25 0d3b
00000020: 7aba f53b e6ff 213c 7e8e d03b 6953 653a
00000030: 3de1 d63a 3813 a53b b688 fc3b a071 933b
0.00015625443 0.0032502795 0.0016946944 0.00019545986 0.0011676601 0.0056406152 0.0071908208 0.0021537382
0.0074990364 0.009887671 0.0063646426 0.0008748086 0.001639403 0.0050376914 0.007706727 0.004499629

decoder.decoder.4.weight f4 [16, 16, 3, 3]
00000000: c345 823c 9b0a 673d 1ba9 3dbd 0d22 943d
00000010: 1db1 193d 16b7 213b 278c ee36 5c5f 7ab6
00000020: 1141 48b5 67cb 143b eb77 04bd 4ee3 7ebd
00000030: 3825 88bd 204c 91bd fa45 603d 3732 3336
00000040: 0513 fe36 f256 9935 feac b9bc f73a a03c
00000050: acdd 093c 76bd 0c3c 9708 c83a 9e5c 733c
00000060: 1a64 0336 3b4b 7436 8eca ab35 e30b 72bc
00000070: fe0e d7bc 9cba f2bd ccaf ecbd 7872 9a3b
00000080: 6ad3 9dbd 8ae0 ed34 82c7 2336 3e9a d034
00000090: 9f01 893d ab98 613c 10ca 1cbd 6bc5 3e3c
000000a0: 76fc 6fbd f30f 1d3c a0c6 4236 2f54 aab4
000000b0: 4dfa ceb6 143c 3e3d a921 89bd 137f de3c
000000c0: f69c b0bd fdfd 71bc 84e0 c63c 013a 1c37
000000d0: a74c 8335 2c07 54b7 a9ec 15bc 1569 92bd
000000e0: a113 893d 517a 743d 9424 963d 9c72 77bd
000000f0: de32 5936 6e9e 80b6 d9ed 9eb6 bb36 23bd
00000100: 351c d13c 1e00 aebd d8ad 8b39 119c a23d
00000110: eaf3 dfbc 9b10 5db6 6544 f935 700e 0336
00000120: fc0d e5b9 4559 ad3c cb17 4a3c 296b a13d
00000130: 14e1 be3d 4042 9d3c 7c0a c3b5 b8ed e1b6
00000140: b76e deb5 22d8 033d 61b7 823d 81a5 9a3d
00000150: c04e fdbc 53ba 123b 8553 5bbd fe7f 1f34
00000160: 1d34 6db5 f51b f8b5 f0fc 84ba fab4 fdbc
00000170: acf3 033d 2eaa 3a3b 7ce7 85bd 301d 97bd
00000180: 9ef8 20b7 b9e4 62b6 335a 8036 91ed 463d
00000190: f532 8b3c 118e 2e3c 820a 68bb 135b eabb
000001a0: 4cf8 28bc 718f ddb4 3813 1f36 fd71 a936
000001b0: df6c c13c 7643 eabb 6ea1 7bbd 2f87 c4bd
000001c0: af6b feba 3652 7c3d 2ac9 96b5 6fb4 76b4
000001d0: a687 1236 070e 10bd 8d7d 98bc bd2d ad3d
000001e0: 9f21 be3d 0f1c 0a3d 7cee fabc 833e a9b6
000001f0: 98b7 07b5 c47f 8536 8755 5ebd 9ea1 8b3d
00000200: 41ef 3b3d 91b4 7e3d 9c2f 883c 32af 563b
00000210: fd27 6bb5 179f b8b5 4c1b 9335 1095 623c
00000220: 115b a43d 3d4f aabd a293 aabc cb74 e2bd
00000230: e84e dcbc 37bf ddb5 1094 41b7 19f6 1db6
00000240: fe89 31bb 34a3 1abd c30e 913c 1966 583d
00000250: 9295 903d a396 01bd 12eb b136 ddfc ca36
00000260: 89ac 1137 b157 0c3d 8144 6c3d 6383 3c3d
00000270: aa9b 88bc c116 56bd d800 4f3d c819 0f34
00000280: 9969 a9b5 32c4 f436 5cf0 8c3c 0f0f 913d
00000290: ca51 da3c 0d37 7ebd fa2b cdbd cf64 9abc
000002a0: 5b94 86b6 a0e2 bbb6 4c39 d036 c875 1dbc
000002b0: 1745 173c 8b52 d2bd 478b 62bd e45e 0fbd
000002c0: 78a1 033d 6d36 8835 896e 9535 e0db 3436
000002d0: a418 3abd 990a 85bd b6bd e5bd 0800 babd
000002e0: 7e03 043d 43af ccbd 49e2 45b5 4c00 72b6
000002f0: ddcf 2034 57cd 483d 86e8 a63d 9eac cb3c
00000300: dc29 53bd ce98 b3bd b97e cb3b 5d40 55b7
00000310: c2ef 9bb7 99c6 08b7 e745 503c 5174 8bbc
00000320: 85e2 113d 999d bb3c 9e2c 83bd 38b3 28bd
00000330: 3dc8 2136 6450 3e32 c010 9d35 c9df 38bd
00000340: 0091 69bc b16c 44bd 3da7 023d ae2b a83d
00000350: 4551 55bc 709d f935 e2fc 5135 661d 84b5
00000360: a909 03bc fe58 0abd cca8 393c b751 8f3d
00000370: b088 07bd e1dd 023d 0acc 60b7 d11d a4b6
00000380: a6d0 6036 2032 943d 4875 8cbd 1fc6 513d
00000390: 14b6 96bd 742b 9d3d 4aa5 843b bb17 04b6
000003a0: e88f 0ab5 2830 f5b4 673a 5a3d 4bad b3bc
000003b0: fe46 7bbd 8af3 6c3c 057e 943d 9e61 0dbd
000003c0: 9c46 09b7 4b69 23b6 2c2e 3f36 7c49 153d
000003d0: 9de6 8bbc 5c6b e7bc 2ed0 9fbd b2b1 273b
000003e0: 8728 9d3d a406 5d36 6ffd 3db6 e00f b336
000003f0: 7d82 c53c 7917 033c d040 843c f141 593c
0.015902406 0.0564066 -0.04630385 0.07233057 0.037522424 0.0024675778 7.1092686e-06 -3.730841e-06
-7.460049e-07 0.0022704245 -0.032340925 -0.062228493 -0.06647724 -0.07094598 0.054754235 2.6702307e-06
7.572004e-06 1.1424693e-06 -0.022665497 0.019559367 0.008414667 0.008590093 0.0015261349 0.014853625
1.9578788e-06 3.6402623e-06 1.2799444e-06 -0.014773342 -0.026252266 -0.11851999 -0.11556968 0.004713353
-0.0770634 4.4308064e-07 2.4405022e-06 3.8855245e-07 0.06689762 0.013769309 -0.03827864 0.011643748
-0.058590375 0.009586322 2.9023868e-06 -3.172622e-07 -6.1684173e-06 0.046444014 -0.06695873 0.027160203
-0.08623688 -0.014770028 0.02427698 9.31183e-06 9.782569e-07 -1.26378545e-05 -0.009150662 -0.07148949
0.06693197 0.059686963 0.073311955 -0.060412034 3.2365128e-06 -3.833141e-06 -4.736456e-06 -0.039847117
0.025526145 -0.08496116 0.0002664167 0.079399236 -0.027337987 -3.2941232e-06 1.8571851e-06 1.9528925e-06
-0.00043688703 0.021160731 0.012334774 0.07881767 0.09320274 0.01919663 -1.4531684e-06 -6.7331966e-06
-1.6572511e-06 0.032188542 0.06382633 0.075510986 -0.03092134 0.002238889 -0.053546447 1.4854592e-07
-8.8365215e-07 -1.8485576e-06 -0.0010146182 -0.030970085 0.032214805 0.0028482783 -0.06538293 -0.07378614
-9.594629e-06 -3.3809758e-06 3.825198e-06 0.048566405 0.016992072 0.010653988 -0.0035406654 -0.00715197
-0.010313105 -4.1268825e-07 2.3704033e-06 5.0498625e-06 0.023611484 -0.0071491553 -0.06143325 -0.09596097
-0.0019410754 0.06160184 -1.1234417e-06 -2.2976177e-07 2.1834653e-06 -0.035169628 -0.018614555 0.084559895
0.092837565 0.033718165 -0.030631296 -5.04387e-06 -5.0558583e-07 3.9785828e-06 -0.054280784 0.068179354
0.045882467 0.06218392 0.016624264 0.0032758233 -8.760251e-07 -1.375537e-06 1.0960298e-06 0.013829485
0.08025182 -0.08315895 -0.02082235 -0.11057433 -0.026893094 -1.6521434e-06 -1.153817e-05 -2.353807e-06
-0.0027090306 -0.0377533 0.017707234 0.052831743 0.07059778 -0.0316378 5.302377e-06 6.0495063e-06
8.682845e-06 0.034263317 0.057682518 0.046023738 -0.016675789 -0.052267794 0.050537914 1.3327292e-07
-1.2622214e-06 7.294607e-06 0.017204456 0.0708295 0.026650328 -0.06206422 -0.100181535 -0.018846897
-4.010782e-06 -5.599417e-06 6.2055533e-06 -0.009610601 0.009232781 -0.1026965 -0.055308606 -0.035002604
0.03213641 1.014863e-06 1.1133535e-06 2.6950074e-06 -0.045433655 -0.06496162 -0.11217825 -0.09082037
0.032229893 -0.09994366 -7.3717507e-07 -3.6060983e-06 1.4976781e-07 0.049023952 0.08149819 0.024862584
-0.051553592 -0.087693796 0.006210175 -1.2710775e-05 -1.8589086e-05 -8.152471e-06 0.0127119785 -0.017023237
0.035616416 0.022902297 -0.064049944 -0.04118654 2.4107424e-06 1.1077734e-08 1.1702286e-06 -0.045135293
-0.014255762 -0.04795522 0.031897772 0.08211456 -0.013019864 1.8597766e-06 7.822656e-07 -9.843322e-07
-0.007997909 -0.033776276 0.011331748 0.06998008 -0.03308934 0.03194988 -1.3398947e-05 -4.891052e-06
3.350005e-06 0.07236123 -0.06858307 0.051214334 -0.073589474 0.07674304 0.0040480243 -1.9683346e-06
-5.161842e-07 -4.5669844e-07 0.053278353 -0.021933218 -0.061347 0.014462361 0.07250599 -0.034516923
-8.182276e-06 -2.4350181e-06 2.8488093e-06 0.036447033 -0.017077738 -0.028249435 -0.07803379 0.0025588092
0.076737456 3.2935432e-06 -2.8310712e-06 5.336464e-06 0.024110073 0.008001202 0.016144186 0.013260351

decoder.decoder.4.bias f4 [16]
00000000: ee6e 4d37 39a6 3438 ca6c 77b4 5cfb 1a38
00000010: 44ec c3b7 bca9 31b8 5f3c b0b6 99ad a3b6
00000020: 2600 33b8 aa53 19b6 44ff 6738 b74c fe37
00000030: b702 0a38 c2f7 98b8 5312 3738 7781 5838
1.224478e-05 4.307015e-05 -2.3043245e-07 3.6950558e-05 -2.3355831e-05 -4.2358166e-05 -5.252237e-06 -4.877988e-06
-4.2677064e-05 -2.2847476e-06 5.5312426e-05 3.0314883e-05 3.2904292e-05 -7.294073e-05 4.3647666e-05 5.1618987e-05

decoder.decoder.5.weight f4 [16]
00000000: a9ad 773f d5f0 813f d105 7d3f 8086 793f
00000010: 8d6b 793f 79d7 803f 1fd3 7c3f c419 7c3f
00000020: 64f7 7d3f 22c4 763f ccf7 7c3f b093 7a3f
00000030: 841b 823f aa81 823f 8408 7d3f 107f 7f3f
0.9674936 1.0151621 0.98837 0.97470856 0.97429734 1.0065757 0.98759645 0.98476815
0.99205613 0.96393025 0.9881561 0.97881603 1.0164647 1.019582 0.9884112 0.99803257

decoder.decoder.5.bias f4 [16]
00000000: 081f 77bc 6201 e83c a828 6bbb 4293 c2bc
00000010: 1c3d 6e3c 94db a8bc 4519 abbb b7bd 16bc
00000020: 39f6 703c 2e34 b5bc c9d8 30bc 546c 0cbc
00000030: 0c89 ba3c 25da 913a 628f fe3a 9259 80bb
-0.015083082 0.028320972 -0.0035882387 -0.023751859 0.014540937 -0.020612516 -0.005221518 -0.009200505
0.014707142 -0.022119608 -0.010793873 -0.008570749 0.022770427 0.0011127634 0.0019421394 -0.0039169276

decoder.decoder.5.running_mean f4 [16]
00000000: ee54 503b 0f9c c0be f5d1 31be af13 76be
00000010: 6abe b4be a719 5bbe 0b81 3fbe 15dc d3bd
00000020: 860c db3d 6024 893e 1c8f 93be 2016 b8bc
00000030: 3930 dbbe f878 933e 0734 c7bd 243e 3fbe
0.0031788903 -0.37619063 -0.17365249 -0.24030946 -0.35301524 -0.21396504 -0.1870157 -0.10344712
0.10695748 0.26785564 -0.2882012 -0.022471488 -0.42810228 0.2880323 -0.0972672 -0.18676049

decoder.decoder.5.running_var f4 [16]
00000000: a9f8 2e3d e12e 023e 880f 2f3e cf85 253e
00000010: b0d9 7d3e e740 d63d 7c32 9b3e 4d12 e63d
00000020: 7df1 ca3d f133 1d3e f972 e73d 9dc1 c83d
00000030: 91fe e83d 9714 0f3e 7344 853e 1a8b 343e
0.04271761 0.12713195 0.17095768 0.16164325 0.24790072 0.10461598 0.30311954 0.11233959
0.099093415 0.15351845 0.11301226 0.09802554 0.1137668 0.13972698 0.26028785 0.17631188

decoder.decoder.8.weight f4 [16, 16, 3, 3]
00000000: d7cf d53c 2b53 d3bd dcec db3d 1604 4c3d
00000010: e93a 98bb 4dad 7d3c 6e04 86bc a719 0a3d
00000020: 17ac db3d 42d8 5d3d 7aea 82bd 0e22 9bbd
00000030: a61c bf3c e4fd 5a3d 3391 a33d 715c 73bd
00000040: 5360 60bd 187a 5bbd 196b cfba e1b5 e6bb
00000050: 7ecc 5dbd af62 efbc b633 253c 8213 1a3d
00000060: 9923 3b3d 156d 7f3d a434 04be a4b5 e03c
00000070: bb75 c1bc 1642 d9bd 16fb 69bc 1609 9ebd
00000080: e1eb dfbb 32f8 353d 93a3 8f3c 1fc0 8f3d
00000090: 1257 c2bc d293 913c 9312 f33c e674 843d
000000a0: 02ee acbc c0be a03c 84a4 143b bc1f 9bbc
000000b0: 22d6 6dbc f79b 2fbd a583 453d 9bec 3b3c
000000c0: c12f 333c 9f56 55bc a7ee 63bd 9f11 2f3d
000000d0: 16ef 46bd 72db c43c c8ab 91bd 3685 d23a
000000e0: 25f8 02bd e95a dc3b c308 b93d d4b1 563d
000000f0: 30f4 91bb 1796 09bc 7a44 b5bd c78d 03bd
00000100: ba84 c13c 1ec6 6fba 95a2 033d 0afe 24bd
00000110: 7080 da3d 29d8 bbbc 6cdf 6cbd dc3f 8f3c
00000120: 503a 853d cc8a 053d bce5 86bc 7400 a3bd
00000130: 78ce 803d 681c a3bb 3a06 18bd ae5c 0ebd
00000140: e664 b53c 0857 4ebd 6509 e23c b784 a63c
00000150: ffcc a63d 0caa 743d 7b34 0b3b 6f3f 503d
00000160: f0f3 af3c 66c2 6d3d efab b4bc e952 a6bd
00000170: 8cf3 033d 67f4 86bc bb0c 5bbd 4ff3 55bd
00000180: ec30 2a3d 4ff0 773a 5c42 dfbc 3731 ffba
00000190: 4fd3 5a3d 329f bcbd 4176 3fbd c8e4 be3c
000001a0: 2739 093d 2a27 103d a986 713c 31c9 52bd
000001b0: a738 61bc d679 993c 0783 94bd dcfb 303c
000001c0: 4d20 3b3d 1e7d e93c da99 403c 4b98 bd3c
000001d0: d1ac 88bd 4842 273c 6557 2abd 293c 723d
000001e0: 20ff 093d a276 2c3d 5ad3 26bd a905 f7bc
000001f0: fdc2 95bd f98e 1fbd 8819 703d 1c54 eb3c
00000200: adda 01bc f86b 4dbd b80a 68bd 4519 ca3c
00000210: 1f60 323d e383 863d f629 a13d 1d19 3b3d
00000220: b32b 8e3d 0c3b b43d c66e 1d3d a1ec 4abc
00000230: aefe 4a3c 9360 9ebd 328b 69bd b898 47bd
00000240: bb76 6dbd f1fc 8c3d db9b b33d b2bd 9b3d
00000250: 99d3 533d d292 aabd 7625 b8bc 5c52 bfbd
00000260: 44fc c23c 3717 9dbb e365 a2bd 9ae5 083c
00000270: c388 293c bf34 4f3c 551a 143c 9f03 84bd
00000280: da7a 01bd 3606 92bd 86aa 933d 0da5 e2bd
00000290: bc8e 523d fabf 65bc 3e12 3bbc a80b 523d
000002a0: 8ffd 89bd f703 a43d a25d 8a3d 2c68 29bd
000002b0: 900a a5bd 550d 033d 0d2a 853d 3e1d 653d
000002c0: f830 c53d 5149 57bc 3d56 203d b763 833c
000002d0: b6b7 a6bd 15da ba3c 06ad 113d 37db 36bd
000002e0: 8b0c 893d 8950 d53b 96cc 2bbd a39c 19bd
000002f0: ee6b 89bd 9c87 c13d ef9f bcbd 33a7 fdbc
00000300: 505d 733d ca6a 04bd 6a9b 2bbd 5ca4 973d
00000310: e812 883d 2d18 8bbd e57c aa3c 975c 693d
00000320: 3174 febc ae05 563d f71f 6cbd c5b9 e53c
00000330: b385 bdbb 7866 69bd 9e85 793d 3e1d 843c
00000340: 75b9 3d3c d630 bebd bc44 09bd ba98 a9bc
00000350: e02d 80bd 3920 06bd c528 9fbd ce07 b1bc
00000360: 2181 f1bd 21e8 d0bd 107f b2bd cf2a 7dbd
00000370: f65f 2a3c ac7a 903d 6983 543d 02cf a03d
00000380: 7d60 8a3d 47a0 29bd 14ad 883b b627 df3d
00000390: 911c e6bc f9bb e23c 9f3c b73d 73d6 8d3c
000003a0: 200d a23b 84aa 81bd 71e7 66bd 4f2c 95bd
000003b0: d17b 92bd 6bad 333d fbb0 113d 8f8c a33d
000003c0: 3497 5bbd 5d1f 97bc 5c89 f7bc db8f 55bd
000003d0: 0472 c53c e1ca 6b3c 3a6a f53c 47b6 93bd
000003e0: f76a 71bd fd50 473b 8115 a3bc ba9d 06bc
000003f0: 4d5e 013e 028c 833d 7234 02bc ac2c 5abd
0.026100082 -0.103185974 0.10738537 0.049808584 -0.0046456945 0.015483213 -0.016359534 0.03371587
0.10726183 0.054161318 -0.06392379 -0.07574855 0.02332909 0.053464785 0.07986679 -0.05941433
-0.054779362 -0.053583235 -0.0015824764 -0.0070407246 -0.054150097 -0.02922186 0.01008313 0.03761626
0.045688245 0.062359888 -0.12910706 0.027430363 -0.023615709 -0.10608308 -0.014281055 -0.07716577
-0.006833539 0.04442615 0.017534053 0.07019066 -0.023723159 0.017770682 0.029671943 0.06467609
-0.021109585 0.019622207 0.0022681067 -0.01893603 -0.014516385 -0.04287335 0.04822125 0.011469985
0.010936678 -0.01302114 -0.05564752 0.042741414 -0.048567854 0.02403042 -0.07112843 0.0016061428
-0.03197493 0.0067247045 0.09034874 0.052415684 -0.0044541582 -0.008397601 -0.088509515 -0.03211763
0.02362286 -0.0009146648 0.032137472 -0.040281333 0.10669029 -0.022930222 -0.05783026 0.017486505
0.06505263 0.03260307 -0.016466968 -0.07959071 0.06289381 -0.0049777515 -0.037115313 -0.034756355
0.022142839 -0.05037597 0.02759237 0.020326955 0.08144569 0.05973248 0.0021240998 0.050841745
0.021478623 0.05804672 -0.02205464 -0.081212826 0.032214686 -0.016473962 -0.053478938 -0.05223399
0.04155056 0.0009458111 -0.027253322 -0.0019469623 0.053424176 -0.092100516 -0.046743635 0.02330245
0.03350177 0.0351936 0.014741578 -0.051461402 -0.013746417 0.018734854 -0.07251554 0.010802235
0.0456851 0.028502043 0.011755431 0.023143908 -0.06673587 0.010208674 -0.041587252 0.059139404
0.03369057 0.042105325 -0.040728904 -0.030154066 -0.07312582 -0.03895471 0.0586181 0.02872663
-0.0079256715 -0.050151795 -0.056650847 0.024670253 0.0435487 0.06568124 0.078693315 0.045678247
0.06941929 0.08800325 0.03843572 -0.012385518 0.012389822 -0.07733264 -0.057017513 -0.04872963
-0.05797456 0.06884182 0.087699614 0.07604541 0.051715467 -0.08328785 -0.0224788 -0.09341881
0.02380193 -0.004794027 -0.079295896 0.0083555225 0.010347548 0.012646853 0.009039481 -0.06446003
-0.0316113 -0.07130091 0.07210259 -0.11066637 0.051405653 -0.014022822 -0.0114179235 0.051280648
-0.067378156 0.08008569 0.0675614 -0.04135911 -0.08058655 0.031995136 0.06502161 0.05593609
0.09628481 -0.013140039 0.039144743 0.016038759 -0.08140509 0.022809068 0.0355654 -0.044642653
0.066918455 0.0065098447 -0.041943155 -0.037502896 -0.06710039 0.094496936 -0.092101924 -0.030963516
0.05941516 -0.032328404 -0.04189626 0.07404396 0.06644231 -0.067917205 0.020811507 0.056973066
-0.031061264 0.05225151 -0.05764767 0.028042683 -0.0057837605 -0.056982487 0.060918443 0.016127225
0.011579861 -0.092866585 -0.033512816 -0.020702709 -0.0625875 -0.032745574 -0.07771448 -0.021610167
-0.117922075 -0.10200525 -0.087156415 -0.061808404 0.010398855 0.07054648 0.051883135 0.078519836
0.06756685 -0.041412618 0.004171023 0.10896246 -0.028089793 0.027677523 0.089471094 0.017314171
0.0049454123 -0.063313514 -0.056373063 -0.07283842 -0.07152522 0.043866556 0.035569172 0.07985794
-0.053610995 -0.018447572 -0.030216865 -0.052139144 0.024102218 0.014391632 0.02995788 -0.07212501
-0.0589399 0.0030413263 -0.019907715 -0.008216316 0.12633629 0.06423189 -0.007947074 -0.05326526

decoder.decoder.8.bias f4 [16]
00000000: 0383 8937 bf01 15b8 3610 e1b7 3c63 3038
00000010: 86e3 7337 8b1d 56b8 8ef8 afb6 d46f 0538
00000020: 2344 efb5 78c2 0538 ee6a cc36 a1e4 f236
00000030: 5c51 9a36 3a0d cfb5 3db3 c236 72bb 32b8
1.639268e-05 -3.5525994e-05 -2.6829639e-05 4.205409e-05 1.4536903e-05 -5.104909e-05 -5.244342e-06 3.181382e-05
-1.7826718e-06 3.1890784e-05 6.092122e-06 7.238778e-06 4.599029e-06 -1.5426551e-06 5.8025166e-06 -4.261308e-05

decoder.decoder.9.weight f4 [16]
00000000: 6030 743f 2b35 7c3f e381 783f 713b 793f
00000010: c5da 803f 50f0 803f 3a06 7e3f de76 823f
00000020: 8d03 803f 7b5b 853f 90d8 813f 7a86 813f
00000030: ee4f 783f 2768 6e3f 9e78 833f 60f9 7c3f
0.95386314 0.9851863 0.9707319 0.97356325 1.0066763 1.0073338 0.9922825 1.0192525
1.0001084 1.0418543 1.0144215 1.0119164 0.96996963 0.93127674 1.0271184 0.98818016
