assignment_3/AE_model_params.pth (torch, 63913 bytes, 18 tensors)

encoder.encoder.0.weight f4 [16, 1, 3, 3]
00000000: 04c8 353e 203a 57bc 03a4 0dbe b172 3a3e
00000010: 7c77 193d 8d24 87bc 48c8 e4bd c806 4e3d
00000020: b155 d43d a14d cebd 1871 4ebd 51d3 d73d
00000030: 1c24 25be 262f 0b3d c092 cf3c 94f0 953d
00000040: ccc5 843c 81ba 5c3d e598 263e 18b4 a13d
00000050: 737c 07bd d74e d1bc 7ae6 dfbd 8fc4 fcbd
00000060: 089e 9ebd 2322 cb3d d8ca cebd 1b15 c03d
00000070: 0eec 8b3b 01e8 c93c 4513 c5bd 03a0 4ebc
00000080: aacc 34bc 9a7a 733b 8611 243c 3dee 0b3e
00000090: 3022 66bc 2eba 0fbb 7e05 4cbc a95d cd3b
000000a0: b267 3dbc 41b5 2e3d ccaa d0ba 2f48 013d
000000b0: a8de d13d cff3 3dbe 4d86 91be 924d 83bd
000000c0: 9e12 64bd a9d6 883e 4516 8c3d fc2d 183c
000000d0: 555b edbd 2ff8 373e 14c1 8a3d 83d0 77bd
000000e0: 9d21 843e 7fad 4c3e cba2 35be 29b3 78be
000000f0: 028f d03c 57b7 153e e3b8 23be e67d 883d
00000100: 8ff6 42ba 4d36 96bc 80ae 013b 4265 dc3d
00000110: d218 9a3d b6c3 cdbd a4a5 69bd 57f7 b5bc
00000120: 6314 a03d 51ae 2f3c 4b92 9c3c b983 fb3d
00000130: 38ab 99bd a050 eb3d 8ff5 9c3d d72a cabd
00000140: b1db 4f3d 6e8b a6bb 8a3a 86bc 5853 833c
00000150: 0cd7 c3bb ecf3 883d 786b ed3c d745 5b3d
00000160: b603 a83c 2307 1ebd 8ed0 c8bc 10e0 3b3e
00000170: 0bda b0bd ac95 40be e987 70be 5565 38be
00000180: 4cf3 733e c63d 593d 9666 79be a38a 9bbd
00000190: cbb0 4e3e 2051 ec3a 948a 7c3d f99b d5bd
000001a0: 6922 8cbe 003f af3d 9225 54be c967 8ebe
000001b0: f943 55be ac80 e73d c07c 40be 8f4f 30bc
000001c0: 2998 803e 8fb2 18be d1a3 ad3d 2dae 7ebe
000001d0: 1f9c f03d 5274 683d 17ca d13c 6133 883c
000001e0: 1c78 0b3d d7ac 283e 8233 703d dae8 363d
000001f0: 16a3 283c 3cc0 d2bd d8d7 e0bc 7062 1c3e
00000200: c6ed 7fbd 618d 66bc 8a9c e0bd 9fd1 64bc
00000210: af97 f6b9 d64d 043b 11f7 593b 2675 c43d
00000220: 60e2 593d f431 8d3c 9e3d be3d 17fc 3ebb
00000230: 74e3 a33b 5e83 083d 2947 48bd 20bc 083d
0.17752081 -0.013136417 -0.13832097 0.18207814 0.037467465 -0.016496921 -0.11171013 0.050299436
0.10367907 -0.100734 -0.050400823 0.10538352 -0.16127056 0.03398051 0.02533853 0.07321277
0.016207598 0.0538888 0.16269262 0.07895678 -0.03307767 -0.02555029 -0.10932632 -0.12342178
-0.07744986 0.099186204 -0.10097283 0.093790255 0.0042700833 0.02464676 -0.09622816 -0.012611392
-0.011035124 0.0037151934 0.010013944 0.136651 -0.014046237 -0.002193104 -0.012452481 0.0062672687
-0.011560367 0.042653326 -0.0015920042 0.03156298 0.102475464 -0.18550037 -0.28422776 -0.0641128
-0.055681817 0.26726273 0.06840185 0.009288307 -0.11589686 0.17965768 0.06775108 -0.060501587
0.25806895 0.19988059 -0.17737882 -0.24287094 0.025458816 0.1462072 -0.15988497 0.06664638
-0.0007437253 -0.01833644 0.0019787848 0.10761501 0.07524265 -0.100470945 -0.057042733 -0.022212667
0.078163885 0.010722713 0.019112727 0.122809835 -0.075033605 0.114899874 0.07664024 -0.09871452
0.050746623 -0.0050825393 -0.016385335 0.016030952 -0.0059765633 0.066871494 0.02898191 0.0535334
0.020509582 -0.038581025 -0.02451351 0.18347192 -0.086353384 -0.18807095 -0.23489346 -0.18007405
0.23823279 0.053037427 -0.2435554 -0.07594802 0.20184629 0.0018029548 0.061655596 -0.1043014
-0.27370003 0.08556938 -0.20717457 -0.27813557 -0.20826711 0.11303839 -0.18797588 -0.010761156
0.2511609 -0.14911865 0.08478511 -0.2487113 0.11748528 0.056751557 0.02560906 0.016626062
0.034050092 0.16472183 0.05864287 0.04465566 0.010292789 -0.10290572 -0.027446672 0.15271926
-0.062482618 -0.014071793 -0.109673575 -0.013965993 -0.0004703379 0.0020187995 0.0033258835 0.09592657
0.053194404 0.017235734 0.09289096 -0.0029141956 0.0050014798 0.033328407 -0.04889599 0.033382535

encoder.encoder.0.bias f4 [16]
00000000: d27e ea3d b88d 8a3c c1f7 0e3e 0112 65bd
00000010: 1670 34be b30b 593e aca9 4f3e 760e 07be
00000020: ae8c 7bbd bf2b 88bd 0987 d8bd bbdd 573e
00000030: de5c aa3d c4a3 9ebd d0ee 93bd d170 063e
0.1144997 0.01691328 0.13961698 -0.055925373 -0.17620882 0.21195869 0.20279568 -0.1318911
-0.06141346 -0.06648969 -0.10572631 0.21080677 0.08318494 -0.077460796 -0.07223284 0.13128974

encoder.encoder.3.weight f4 [16, 16, 3, 3]
00000000: c443 16bc e307 543c b87e 24bb 8c89 f3bb
00000010: e700 ed3b 1b17 52bb 73df 3cba d537 213b
00000020: 4d1a 36bb f69d 11b9 3468 1539 47f3 e1bb
00000030: 6820 b5ba 8990 e8bb 600e 123d 86aa b33c
00000040: fd46 403c 5320 afbc 48f7 ef3c b720 57bd
00000050: ffe3 03bd 3a2b 413d 801c aa3c e84c 793c
00000060: 89ee 64bc bf55 d3bc e5eb 88bb 6fa0 6fb9
00000070: 0418 22ba ddd9 4c39 ac87 a736 1f88 d4b7
00000080: 1dc8 553a cd72 41b5 4564 ffb6 b4b6 8d3a
00000090: 15f7 0733 5208 9134 d8a2 4d30 d106 cb2e
000000a0: 7367 053a 2706 87b8 b1c2 92b8 2d0e 3339
000000b0: 0076 e3b5 9bff 14bd 2fe2 af3b 47b4 e33c
000000c0: 8b53 283d 56b2 b7bc 25b4 553d 245c f13c
000000d0: 3f71 a8bc a14a 1fbc ade9 94bc a6a2 96bc
000000e0: 4569 3439 f04b 8bbc 61cf 0439 e077 b2b9
000000f0: 6ca2 03bc c3b7 afbb 098b b63b 2d4e 0f3a
00000100: 7616 43bb 0105 6d39 1634 e5b7 b393 a6b5
00000110: cbde ecb6 585a d7b6 7e8a a5b8 4650 d937
00000120: 3043 26bb 389c 8d3c 496d f13a a970 f0ba
00000130: 73d8 44ba ed8c e03b 55a4 90ba b6fa a4bb
00000140: 3af0 c5ba 3b63 783a 1b58 b9b6 f67c 04ba
00000150: d4c2 a531 2850 853a 4d86 df3a 4063 4639
00000160: c3ac 4dbb f53e 73bc fe53 3d3c 09bc 19bd
00000170: d87d 20bb d59a c3bc f04d 16bd 3839 cb3c
00000180: 8906 21bc 61b3 143c cc9f dcbc 03b1 7abd
00000190: 2fad 653d 3440 d1bb 6a4d 993b e2d1 cc3c
000001a0: 9f34 0cbd 5cb8 a9bb 22fc e63c ade3 f9bc
000001b0: 8bde 34bc 8025 5d3c c624 b33b cd06 62bb
000001c0: aa4c 7b3c 4295 933c 1ea9 9dbc 563e 003c
000001d0: e7ee 6dbb 962c d23c bb74 f6bb 8473 0a3b
000001e0: 6444 ec39 7fa0 ab39 bf38 24b8 e978 d9ba
000001f0: 2231 8ebb 9757 9fbc bd08 9222 90af 3a1c
00000200: 0cb9 6aae d83c 18ba 34c0 b03a f4dd 8239
00000210: 636c 5f39 4290 3f38 7830 37b3 e70a aa3c
00000220: 752a 9fbc b029 073c a68d 0bbb ce91 2bbb
00000230: 10e1 37bc dcb6 b23b edda 91bb 3416 3d3b
00000240: ede7 14ba b2cf 0eb9 3be1 8cb8 44b9 7e3b
00000250: c592 11ba 99a4 1aba 448f 22b9 42a7 543a
00000260: b783 c638 1915 3ab9 15e2 8c3a abb6 1db7
00000270: b0ba 623a fb91 8eb9 a6b6 3a39 150b aeb8
00000280: 1579 5ba6 6d4f a8a1 2e65 5c39 8759 b0b7
00000290: 0614 19ba 087d 97b8 c263 de35 2a39 c93a
000002a0: 77a3 2239 d526 0d3b c468 3fba c51b fca3
000002b0: 192e eb2c e579 54aa 8534 8d28 ae8c 6fa5
000002c0: f268 5721 2e48 da9b cc73 35ac 3b3b 9724
000002d0: e9a8 b721 10cb 62a6 9cc7 541a 1267 58b1
000002e0: 116b dfa5 cc2f 84a1 153f d437 70fa ebb5
000002f0: 2354 8d30 7f9a 4eba b47f d5b9 2adc 40ba
00000300: 960b 85ba 3af1 973a 480b a5ba 076c 0d2d
00000310: f98c b723 d5b6 7730 62bd bf37 eb7e f6b4
00000320: f3e1 bd39 3d8e 90b6 6550 7ab8 eeb8 9eb9
00000330: 6190 50b8 bd83 18ba d196 d9b9 3eb2 161b
00000340: 9ba0 632d ee99 7299 4515 a735 180d 42a0
00000350: f5f5 18b6 c4a4 cf37 fe9b b0b7 81d0 abb8
00000360: 813f 8834 75a7 0139 bb8d 0cb6 56a1 203a
00000370: fc09 a53a b0a6 b138 7d52 3538 4857 3e39
00000380: ca72 7e39 99a6 0928 0266 7fb5 26d6 5bb7
00000390: b478 39b7 8567 2f37 17e9 2833 c661 47b7
000003a0: c7d1 aab7 129b e437 1241 0239 b4b8 9cb9
000003b0: a712 15b8 32a8 4e9c ca52 99b5 9957 ffb8
000003c0: 8606 9ab9 f466 0239 2741 d4b8 b87e c3b8
000003d0: ef2e 4c3a c107 43b9 1795 56b5 56f8 17b9
000003e0: 83c2 b6b9 1902 863b 8561 bf3b a72c 723b
000003f0: 85b5 5fb8 611e 8835 3467 f837 ede6 87b4
-0.00917143 0.012941333 -0.0025099944 -0.0074321683 0.0072327736 -0.003205723 -0.00072049274 0.002459993
-0.0027786673 -0.00013887123 0.00014248566 -0.006895456 -0.0013818862 -0.007097308 0.03565824 0.021931898
0.011735675 -0.021377718 0.029292718 -0.052521434 -0.032199856 0.047160365 0.020765543 0.01521609
-0.013972887 -0.025797723 -0.0041785114 -0.00022852582 -0.0006183388 0.00019536116 4.992782e-06 -2.5335756e-05
0.00081551244 -7.206516e-07 -7.611265e-06 0.0010811896 3.1656857e-08 2.7014408e-07 7.480998e-10 9.232582e-11
0.00050889625 -6.4384476e-05 -6.9980866e-05 0.00017076051 -1.694716e-06 -0.036376577 0.0053675394 0.027795924
0.041095298 -0.022423904 0.052173752 0.029462881 -0.020561812 -0.009722383 -0.018177832 -0.018388104
0.00017205354 -0.017003983 0.00012665756 -0.0003404012 -0.00803433 -0.0053624823 0.0055707735 0.0005466666
-0.0029768026 0.00022603945 -2.7323182e-05 -1.241095e-06 -7.0592846e-06 -6.4180167e-06 -7.893609e-05 2.5905796e-05
-0.0025369637 0.017286405 0.001841941 -0.0018344122 -0.000750906 0.006852737 -0.0011035303 -0.00503477
-0.00151015 0.0009475236 -5.5236865e-06 -0.0005054021 4.8242814e-09 0.0010170983 0.0017053575 0.00018919725
-0.0031383492 -0.014846553 0.01155567 -0.03753284 -0.0024489071 -0.02387754 -0.03669542 0.024807557
-0.009828218 0.00907597 -0.026931666 -0.061203968 0.056073364 -0.0063858274 0.004678418 0.025002424
-0.03422987 -0.005179448 0.028196398 -0.030504072 -0.0110393865 0.01349771 0.00546703 -0.0034488917
0.015338102 0.018015508 -0.01924568 0.007827362 -0.0036305727 0.025656026 -0.0075212396 0.0021125982
0.00045064383 0.0003273524 -3.9153496e-05 -0.001659182 -0.004339353 -0.019450946 3.958263e-18 6.1769147e-22
-5.3369795e-11 -0.0005807406 0.0013485015 0.000249609 0.00021307314 4.56723e-05 -4.265209e-08 0.020757152
-0.019429425 0.008249685 -0.0021294146 -0.0026179436 -0.011223093 0.0054539274 -0.004451147 0.0028852345
-0.00056803116 -0.00013619548 -6.717673e-05 0.003886775 -0.00055531814 -0.0005899161 -0.00015502895 0.00081120816
9.4659095e-05 -0.00017746202 0.001074853 -9.40046e-06 0.00086490344 -0.00027193115 0.00017806384 -8.299031e-05
-7.6144985e-16 -1.1405147e-18 0.00021018527 -2.1022524e-05 -0.00058394705 -7.22353e-05 1.6569322e-06 0.0015352119
0.0001551042 0.0021538038 -0.0007301683 -2.7333656e-17 6.6842196e-12 -1.8871673e-13 1.5676921e-14 -2.077761e-16
7.298373e-19 -3.611172e-22 -2.5785927e-12 6.558615e-17 1.2445272e-18 -7.86847e-16 4.4001816e-23 -3.1490726e-09
-3.8756885e-16 -8.95732e-19 2.5301744e-05 -1.7581751e-06 1.0283013e-09 -0.0007881298 -0.00040721672 -0.0007357026
-0.0010150548 0.0011592277 -0.0012591863 8.038909e-12 1.9900604e-17 9.0117896e-10 2.2857163e-05 -4.5913416e-07
0.00036217234 -4.308093e-06 -5.9679518e-05 -0.00030273892 -4.9725528e-05 -0.00058179704 -0.00041501832 1.2465302e-22
1.2939118e-11 -1.2542193e-23 1.244866e-06 -1.6436772e-19 -2.279293e-06 2.4753048e-05 -2.1053474e-05 -8.192752e-05
2.537818e-07 0.00012364781 -2.0944124e-06 0.00061275566 0.0012591477 8.471066e-05 4.3230586e-05 0.00018152327
0.0002426609 7.641153e-15 -9.5143344e-07 -1.31032775e-05 -1.1054963e-05 1.0454915e-05 3.9327542e-08 -1.1884089e-05
-2.0363264e-05 2.7251928e-05 0.00012422007 -0.00029892253 -3.554174e-05 -6.837707e-22 -1.1423483e-06 -0.00012175664
-0.0002937803 0.00012436119 -0.00010121083 -9.321928e-05 0.0007788976 -0.00018599538 -7.9938167e-07 -0.00014492995
-0.00034858668 0.0040896055 0.0058404827 0.0036952884 -5.3336396e-05 1.0141631e-06 2.9611962e-05 -2.531373e-07

encoder.encoder.3.bias f4 [16]
00000000: cb7f 88bc 7558 afbb 1e8a bc3c ba49 883d
00000010: d7b6 353d 653b 973a 68ba 7bbd bdad 4cbd
00000020: 8845 b239 09ec d23c bbb0 40bd 079c 2f3d
00000030: cdc0 bf3c 282f 3abd ffac eb3c 0507 6c3d
-0.016662499 -0.005351121 0.023015078 0.06654687 0.044363823 0.0011538087 -0.061457068 -0.049970377
0.0003400261 0.025747316 -0.047043543 0.04287341 0.023407364 -0.045455128 0.028769014 0.05762388

encoder.encoder.6.weight f4 [16, 16, 3, 3]
00000000: d988 953c 7d40 0bbc 44b2 f9ba 81f0 553b
00000010: 9491 21bc 14d1 d3ba 5dc2 0c3c ef37 6ebb
00000020: a89e 1dbb dfd0 a434 9050 19b8 6602 ca38
00000030: e521 4c32 1660 c1b5 a433 0f36 3a21 4c2e
00000040: 39d9 f2b4 f05e 132d 368e 7d3c 25e5 9dbc
00000050: 7104 163d 6821 f0bc 7f0f 15bb d28f 48bd
00000060: d2af 1a3d cbff 9a3c b6e4 b53c 9299 1bbd
00000070: 88e6 fabc 084d 86bc 07fb 09bd bcd0 dabc
00000080: 9f24 73bc c46b 3d3d afa1 433c 7080 92bc
00000090: cda9 6439 0ae7 fabb 6d94 7c3b ca12 12b8
000000a0: b355 9239 9968 04bb 19d4 913a 889e 22bb
000000b0: 7866 033c ca07 be3c 1b62 17bd 77e1 31bb
000000c0: cc1e 22bd 592d 41bc 942d a33c 3039 c6bc
000000d0: 2bfd cebc 25a3 603c 27f4 6d3c a027 a23c
000000e0: 46f8 5fbb 24a5 97bc 5fde e53b 9820 823b
000000f0: 67ac f2ba ae06 d3bb 830d 9f3b 069e 0abc
00000100: 3c18 593b 954a c43c 940f 6f3b af06 9c3b
00000110: 1152 07bc ee65 dd3c 4326 5d3d d31d 2a3d
00000120: 2390 20bd 610b 483c ef85 243c 69c2 0fbb
00000130: 2fd4 353c 730c 443d e442 d1bc 24b1 30ba
00000140: 2ca3 6c3d 062a 0abd 2e93 a8bc 805b 643c
00000150: f097 3a3d 15b0 09bc 05e7 7bbc cf9b 703d
00000160: f52a d93b 317e 7bbc 5c6c 773c b900 3f3c
00000170: 5fa4 d6bb d419 2cbd 84a7 743d 5799 503d
00000180: 6f63 ebbb 811c c73c 8d39 1abd d197 15bc
00000190: 385c e2bc dbb7 b8bc b6bc 513d 070f 413d
000001a0: 1551 043d ecab 82bc b190 85bc b027 e03c
000001b0: aabc ce3c 8f9a 103c 6078 0c3d bc3f e1bc
000001c0: ac0d 543d 6a62 60b9 6d9e 6f3c 935a 673c
000001d0: b6eb 1d3d 6f42 39ba affa 763b eaed bfbb
000001e0: 9ba5 3dbc a85a babc 1dbc bc3c b6ed cd3b
000001f0: 731f 7c3c c04f 2c3b 6fdb aa3c f472 dd3c
00000200: 1e12 b8bc 111b 0c3d 1b20 943c ce0f 75bc
00000210: 8660 883b c7a4 5fbc 8ff4 ca3c f063 42bd
00000220: 73e7 7b3c c357 56bc a648 c1ba 7ab2 3ebc
00000230: 1d0d 24bc 7553 f33c 984b 303d 4088 013d
00000240: 260e b1ba fa5e 85ba 14c7 acb6 ebc0 19bb
00000250: 521b 1a3b 5167 1bbb 53d9 97b9 8234 413a
00000260: 37d0 8839 43fd 0b38 c4bc 8bb4 e7c2 4d36
00000270: 36c1 0bb6 c858 07b3 0151 2738 8684 0932
00000280: bf9e 93b0 924c 71b3 8a9d 96bc f950 46bd
00000290: d28f 32bd 98e7 09bd 4e97 aebc a06f 473d
000002a0: c5e8 363d bad3 8fbc 2b6b 3cbd 72e6 1dbd
000002b0: 6bfe 033d 6176 0fbd 1c59 06bd 701f 26bd
000002c0: c21f 53bb 4df2 163d a254 3fbd 8f1a bcbc
000002d0: 4bc6 7db2 b277 ac39 c747 cc38 6de9 b2b7
000002e0: 4f9e 77b5 696f f4b8 a5a9 1735 edae 18b9
000002f0: 421a b838 b135 62ba 9fad 20bc e8d1 c73b
00000300: 7ef7 d33b 33e9 9abc f007 bfb9 291e afbb
00000310: 4b78 ff3b e005 a1bb 2618 89ba 633b 51bb
00000320: bbd5 933a dd1e ebbb cdd5 8a3a 34f3 da3a
00000330: d722 013b 4c30 083c c09f b4bb 4f3f 893b
00000340: 3d7d a8bc d023 64ba 54d8 43b9 300f 2d3c
00000350: d9d8 8abc 2262 be3b b065 373b fe4a 83b9
00000360: 6d9f e23b 3ef4 ab3c df51 d43a e78e bbbc
00000370: 2259 66bc 599f 3a3c 1fb8 cb3c 3e29 3c3d
00000380: 2833 c7bc 1a7f 0cbc eb7d 66ba 24f3 30bc
00000390: 86cd af3b c00f 03bc 177b 133c 7863 0dbb
000003a0: 14ef 99bb 4502 053d 5e39 1d3d e37c f33c
000003b0: b50e 553d 6db3 f9bc 9b2d 96bc d332 483c
000003c0: cd49 de3c 0a92 38bd e56a bf3c 0a0c 33bb
000003d0: ed30 0dbc e6d5 95ba 9453 09bc 9954 143c
000003e0: 64b7 2d3b 181e 0f3c f0da baba 69dc 22b9
000003f0: a0ce e9bb 2cda c93b 16b1 643b cf5b 2d3c
0.01825373 -0.008499262 -0.001905032 0.0032644572 -0.009861369 -0.0016160333 0.008591262 -0.0036349257
-0.0024050865 3.0699354e-07 -3.6553072e-05 9.632557e-05 1.18820696e-08 -1.4407585e-06 2.133872e-06 4.641374e-11
-4.5234063e-07 8.377063e-12 0.0154758 -0.019274304 0.03662533 -0.029312804 -0.0022744832 -0.048965283
0.03776533 0.0189208 0.022203784 -0.037988253 -0.030627504 -0.016394153 -0.033686664 -0.02671086
-0.014840274 0.04624535 0.011940404 -0.01788351 0.0002180703 -0.0076569365 0.0038540617 -3.482661e-05
0.0002791114 -0.0020203947 0.0011125832 -0.002481373 0.008020036 0.023197073 -0.036958795 -0.0027142444
-0.03958015 -0.011790597 0.019919194 -0.024197191 -0.025267204 0.013710772 0.0145235425 0.019794285
-0.0034175082 -0.018511362 0.007015034 0.0039711706 -0.0018514515 -0.0064400053 0.0048539056 -0.008460527
0.0033126017 0.023961345 0.003647779 0.004761539 -0.008259312 0.027026143 0.053991567 0.04153235
-0.03919996 0.012209744 0.010041698 -0.0021935946 0.011097952 0.047863435 -0.025544591 -0.0006740263
0.0577728 -0.033731483 -0.020577993 0.013937831 0.045555055 -0.008403798 -0.015374904 0.05874234
0.0066274353 -0.015349911 0.0151015185 0.011657887 -0.0065503563 -0.04201682 0.059730068 0.050927486
-0.0071834843 0.024305584 -0.03765254 -0.009130434 -0.027631864 -0.022548607 0.05120536 0.04713347
0.03230389 -0.01595112 -0.016304346 0.027362674 0.025236446 0.008825912 0.034294486 -0.027496211
0.05177085 -0.00021398967 0.014625174 0.014120716 0.03855487 -0.00070670893 0.003768604 -0.005857219
-0.011575128 -0.022748306 0.023038918 0.006284441 0.015388357 0.0026292652 0.020856587 0.027032353
-0.022469576 0.0342055 0.018081715 -0.014957381 0.004161897 -0.013650126 0.024774818 -0.04745859
0.015375006 -0.013082447 -0.0014746382 -0.011639232 -0.010012892 0.029702881 0.04304084 0.03162408
-0.0013508245 -0.00101754 -5.149175e-06 -0.0023460935 0.002351482 -0.0023712704 -0.00028962884 0.000737019
0.00026095074 3.337605e-05 -2.6028113e-07 3.0660829e-06 -2.0825078e-06 -3.1512883e-08 3.9891343e-05 8.004582e-09
-1.0740776e-09 -5.6181825e-08 -0.018385667 -0.048417065 -0.04359419 -0.03366813 -0.021312382 0.04869044
0.04465558 -0.017557014 -0.04600064 -0.038549848 0.032225054 -0.035025004 -0.032799825 -0.040557325
-0.0032214974 0.03685217 -0.04671157 -0.022961883 -1.4771625e-08 0.00032895576 9.7408476e-05 -2.132795e-05
-9.224504e-07 -0.000116555784 5.649875e-07 -0.00014561015 8.7786946e-05 -0.00086292165 -0.0098070195 0.006098021
0.0064687124 -0.018910026 -0.00036436273 -0.0053441715 0.0077963225 -0.0049140304 -0.0010459467 -0.0031926266
0.0011278907 -0.00717531 0.0010592282 0.001670456 0.0019704604 0.008312296 -0.0055122077 0.004188455
-0.02056753 -0.0008702846 -0.00018677238 0.010562703 -0.016949104 0.005810038 0.0027984194 -0.0002504214
0.0069159777 0.020990487 0.0016198716 -0.02289529 -0.014059337 0.0113905305 0.02486807 0.04593777
-0.024316385 -0.008575225 -0.0008792567 -0.010800157 0.0053650765 -0.007999361 0.009001515 -0.002157418
-0.00469769 0.032472868 0.038384788 0.029722637 0.05201598 -0.030481065 -0.018332293 0.012219149
0.0271348 -0.04506115 0.023366401 -0.0027320408 -0.008617622 -0.0011431545 -0.008381743 0.009053373
0.0026507014 0.008735202 -0.0014255922 -0.00015531633 -0.0071352273 0.0061600413 0.003489559 0.010580971

encoder.encoder.6.bias f4 [16]
00000000: 62b2 e73c a275 8b3d a3bc f7bb 1a7d 9d3d
00000010: 667f 5fbd 9c41 0a3c f442 a53c 951e b23b
00000020: 1e78 303c 3caa 47bc 4f19 c03c fe48 493c
00000030: 5cd6 4e3d 4fa3 f5bc 959e 06bc 501f 1cbd
0.028283302 0.06809546 -0.007560329 0.07689877 -0.054564856 0.008438494 0.020173527 0.0054357746
0.010770826 -0.012186583 0.023449568 0.012285469 0.050497398 -0.029985098 -0.00821652 -0.0381158

encoder.encoder.9.weight f4 [16, 16, 3, 3]
00000000: bf1d 02bd 9f86 3ebd c052 e1bc 1fe1 7bbd
00000010: 7330 c4bc fb35 e53c 2c30 b93c b4a9 c83c
00000020: 10af 1abd 5b01 75bc 56e4 3b3a 2a0d 323a
00000030: 1a4a 183d 593a d43b b986 aa3b a602 f6bc
00000040: 6996 95b9 2f81 84bb 85f8 583d 1626 d4bc
00000050: e0b2 38bd 63e6 9cbd 1f50 36bd 106d 753c
00000060: d6f1 823d d023 253d 14e8 4e3d e7e2 5cbc
00000070: e4d9 4cbd 724a e63a 85c7 4bbd f961 2a3d
00000080: aeee 133d dd06 a1bc 1088 8c3d 06cd 3c3d
00000090: ebef 203d 0ced 883d 20da 963b 4309 803d
000000a0: 9a6c 6abd fce6 14bd 84cb cf3c c832 8dbb
000000b0: d6fe bbbc 843a 203d 5606 27bd 04e6 abbb
000000c0: e51f 4a3d 14b9 90bd 9bb9 01bd a577 64bd
000000d0: 24d2 313d 3479 1a3c 1763 8c2b 2da5 ccad
000000e0: 9ad3 001d 28ef bc37 431a 2537 58eb 4b22
000000f0: b566 c0bc 0aa1 acbc be45 da3b 039f 52bb
00000100: 6628 da3b a837 b3b1 e858 13bc 03c0 c0bb
00000110: 4523 4738 e839 1e3d 044b e0ba 46ea 3fb9
00000120: 2b62 a437 f5d8 0e99 2682 e196 28a7 5db3
00000130: b0b4 242b 6c49 b119 5477 0b36 30a9 6a31
00000140: 788b 8eb0 f3ef 543c bbad 57bc e8f5 20bd
00000150: 7014 acbc f534 dabc c5f5 bc39 0528 fd3b
00000160: 9cda 663d 95f8 6fbd 9479 f2ae 05a9 54ae
00000170: 9e80 c038 79a8 d536 0a71 d9b6 aeeb d3b6
00000180: 5ec9 d9b9 7992 d23b 22d2 fc39 a30e dd35
00000190: 1882 823c eff8 14ae 6c17 9736 799a 88bb
000001a0: 2fa6 43bc 7f30 c019 fcf9 3d36 ecdb 86b0
000001b0: f308 633b 12e4 8cbc 1fc5 00bd b442 2fbd
000001c0: 4c17 52bd b133 83bd a20e 86bc 37e2 dfbc
000001d0: 37fb 7a3d f9e1 bfb9 4a02 c89f fa58 87a1
000001e0: 52ef b53a 239e 4031 8c75 0139 acb7 623b
000001f0: a195 fb34 5b55 5b39 caee a8bc 7e97 08bc
00000200: fa35 84bd beda b73b b562 433d 7da6 5d3d
00000210: 4a36 673d ded9 84bb bfda 8ebd 5686 223b
00000220: 81db 3038 dd6c a72d f644 cc3b 2682 88b8
00000230: 1bcf e628 b264 943b 3b63 45bb a268 fa39
00000240: e6e7 c7ba 530b 723a 45eb 003c 1fe2 30bc
00000250: 474b 6abb 38d6 253a b622 a7bc 1a70 6e3b
00000260: e1da ffb9 e1b7 fe36 0981 0639 ca8a 43ba
00000270: 891d 573b ae4f 0833 db07 71b7 a423 aeb8
00000280: 333c caac 5149 84b7 e90e 773b 4223 b53c
00000290: 89ec debc 9764 ec3c 3386 983b 7a2d dfbc
000002a0: 0977 7fbb 41b7 093d 24f9 4ebb 67b6 233b
000002b0: fa77 d0bc c168 4f3c 351c 5abc 109e 873c
000002c0: e4ac 41bc 3b82 cdbb 799b 2d3d bed1 11bc
000002d0: ee52 89bc 725a babc dc88 9ebc 7a66 1e3d
000002e0: 6c52 013d b454 f4bc e3e7 3f3d d16b 423d
000002f0: 92cc 893b 7cd8 7c3c baa3 6c3c cff9 133d
00000300: 05ff fc3c 45d1 83bb e937 813b 3771 38bc
00000310: 566b 00bd 9456 39bc 7153 ed35 d967 1935
00000320: 16db 6cab 3b7b 38bc c243 fa3b 4324 c6bb
00000330: d655 dc3b f8bf 2bbc bc16 233c 2ce0 d533
00000340: d516 b835 b3bf 7239 a5bc 3bb6 ae36 9f39
00000350: 603c 1d3a 17a4 ab3a ce7b db2f 9c21 f9b5
00000360: 3698 5e9b 8a3e 7e98 4d21 e133 08bb 15a6
00000370: 5482 38b9 65b2 0634 a926 5224 d762 159c
00000380: a8db 619a 217c 31bb 94a2 ef3b dc89 c1bc
00000390: 872f 53bc 14e7 b73b d5c7 15bc 5b95 62bc
000003a0: 9f45 36bc 4623 9039 879b d92c 32b9 5537
000003b0: ab93 ca39 f462 293a 3e25 5d36 8ede 59ba
000003c0: 1e57 89b4 03c9 493a f3d4 89b7 b447 4a1c
000003d0: d086 6c3b 9b82 d939 801a 041d 1ea9 d2ba
000003e0: d0f3 0133 da32 dc17 18cf 7b98 a1f1 7135
000003f0: d25a 8e3c cc36 88bc 86d5 f9b9 04a6 82bb
-0.03176665 -0.046515103 -0.027505279 -0.06149399 -0.023948884 0.027979841 0.022605978 0.024494983
-0.03776461 -0.014953936 0.00071675086 0.0006792123 0.037180044 0.006476682 0.0052040485 -0.03003056
-0.0002853156 -0.00404372 0.05297138 -0.025897067 -0.045092463 -0.0766113 -0.044510003 0.014979616
0.06393783 0.040317357 0.050514296 -0.013481832 -0.050012484 0.0017569794 -0.049750824 0.04159734
0.036116295 -0.019656593 0.06861889 0.046093963 0.039291304 0.06685838 0.0046036392 0.062517665
-0.057232477 -0.036353096 0.025365598 -0.004309032 -0.022948664 0.039118305 -0.040777527 -0.005245926
0.049346823 -0.07066551 -0.031671148 -0.055778164 0.043413296 0.009428311 9.975101e-13 -2.3265468e-11
1.7050054e-21 2.2522712e-05 9.840881e-06 2.763622e-18 -0.023486475 -0.021072883 0.006661146 -0.0032138235
0.006657648 -5.215913e-09 -0.008993365 -0.0058822646 4.7478145e-05 0.038629442 -0.00171122 -0.00018302453
1.9596037e-05 -7.385042e-24 -3.6432846e-25 -5.16076e-08 5.851526e-13 1.8331026e-23 2.0782072e-06 3.4147654e-09
-1.0371499e-09 0.0129966615 -0.013163979 -0.039297014 -0.02100584 -0.02663658 0.00036041267 0.007725718
0.056360826 -0.058586676 -1.10264825e-10 -4.835334e-11 9.17923e-05 6.3675075e-06 -6.4802634e-06 -6.3157268e-06
-0.00041539496 0.0064261523 0.00048221747 1.6470043e-06 0.015931174 -3.38724e-11 4.5028773e-06 -0.004168805
-0.011941477 1.9871922e-23 2.8308705e-06 -9.812289e-10 0.0034642785 -0.017198596 -0.03143799 -0.042788222
-0.05129175 -0.06406344 -0.0163644 -0.027329547 0.061274733 -0.00036598722 -8.470708e-20 -9.171508e-19
0.0013880527 2.8029568e-09 0.00012346188 0.003459434 4.6861263e-07 0.00020917265 -0.020621676 -0.0083369
-0.06455608 0.005610793 0.047701556 0.054113854 0.05644826 -0.004054292 -0.06975316 0.0024799309
4.21661e-05 1.9034047e-11 0.0062338067 -6.5092274e-05 2.5624947e-14 0.0045286054 -0.003011896 0.00047761673
-0.0015251606 0.0009233255 0.007868593 -0.010796099 -0.0035750435 0.00063261716 -0.020402294 0.0036382736
-0.00048800468 7.591196e-06 0.00012827305 -0.0007459341 0.0032824 3.1737436e-08 -1.4366548e-05 -8.303605e-05
-5.7478688e-12 -1.5769767e-05 0.0037698096 0.022111539 -0.027212398 0.028856559 0.0046546697 -0.027243365
-0.0038980863 0.03362203 -0.0031581605 0.0024980546 -0.025447834 0.012659253 -0.013312389 0.016554862
-0.0118210055 -0.006271628 0.0423846 -0.008900104 -0.016763177 -0.022748206 -0.019352369 0.038671948
0.031572744 -0.029825546 0.046852004 0.047466103 0.004205295 0.015432473 0.014443332 0.036126908
0.030883322 -0.0040227496 0.0039434326 -0.011257461 -0.031352364 -0.011312146 1.7682161e-06 5.714806e-07
-8.4148086e-13 -0.011259849 0.007637472 -0.006046803 0.0067240996 -0.010482781 0.009954151 9.959362e-08
1.3715713e-06 0.00023150332 -2.7974977e-06 0.00030367583 0.0005998071 0.0013095167 3.9923836e-10 -1.8561727e-06
-1.8412592e-22 -3.2860305e-24 1.0483436e-07 -5.1948234e-16 -0.00017596158 1.2544622e-07 4.5569238e-17 -4.942771e-22
-4.6706346e-23 -0.0027082043 0.007313082 -0.023625307 -0.012889749 0.0056122635 -0.009141882 -0.013829554
-0.011124997 0.000274921 6.184778e-12 1.27389085e-05 0.00038638464 0.00064615835 3.2953244e-06 -0.00083110563
-2.5581625e-07 0.00076974946 -1.6430835e-05 6.692887e-22 0.0036091097 0.00041486774 1.7483755e-21 -0.0016072129
3.02569e-08 1.4230004e-24 -3.2545545e-24 9.013111e-07 0.01737729 -0.016627692 -0.00047652068 -0.0039870758

encoder.encoder.9.bias f4 [16]
00000000: c39a 7c3d 752f cabc 90ae b53c 66bb 0b3c
00000010: 26e7 17bd 6f87 9cbc 1b8b d1bc cda9 4f3d
00000020: df2d 5fbc a973 6e3d 10b8 453d 7a06 58b7
00000030: 9ab1 53bc 51b9 233d c562 833d dc21 2e3d
0.06167103 -0.024680832 0.022177964 0.008528566 -0.037085675 -0.019107549 -0.025579026 0.050699044
-0.013621776 0.05821577 0.04827124 -1.2876111e-05 -0.0129207615 0.039971653 0.06415323 0.04251276

encoder.encoder.12.weight f4 [1, 16, 2, 2]
00000000: 29e4 4fbd fb55 af3d b1ed 2e3b 568f 533d
00000010: 6ce6 1939 b350 613d 1498 2dbd eced 23bc
00000020: 9955 6e3d 1a5c b13d a45b 173d f07d 983c
00000030: c35e 03bc 5c64 f2bb e55e a23d 0d22 b8bd
00000040: 49f2 ca3d a463 a8bc be69 f9bb 1571 02be
00000050: 0267 0c3c dece b83d 57b3 a3bd f2fb 0f3d
00000060: cc04 8db9 daac 0d3a cfa7 c8ba 0fb3 133b
00000070: e446 89bd 31d8 383d a3cb b6bd 4084 fbbb
00000080: 2a1c 94bc ca7e 923d 0dac b7bd 1c77 febd
00000090: 9e1d 923d 0bcd ea3d 9a74 e83d 9ccb bb3d
000000a0: ac3e a8bd 2930 23bd 4a0a 973c 5044 32bd
000000b0: 8710 873d 8705 37bd af0f abbd 2b75 093d
000000c0: f6fb 583d ce49 81bd 6888 333d d9af 903d
000000d0: d4cc 12bd 7cd3 00be e4fd 263d dc32 d83d
000000e0: cfeb 0f3c 9600 82bc 8b23 b6bc 0aa4 78bd
000000f0: b920 91bd e1a2 9bbd ebdc 8eba 231c b53d
-0.0507547 0.08561321 0.0026691968 0.051650368 0.00014677056 0.0550086 -0.04238136 -0.010005455
0.0581871 0.08660145 0.03695263 0.01861474 -0.008018198 -0.0073972177 0.07928256 -0.0899087
0.099094935 -0.020555325 -0.0076114824 -0.1273845 0.008569481 0.09023832 -0.07993191 0.035152383
-0.0002689719 0.000540448 -0.00153088 0.0022537147 -0.067029744 0.04512805 -0.08925559 -0.0076756775
-0.018079836 0.07153089 -0.08968363 -0.12425062 0.07134555 0.1146489 0.11350365 0.09169695
-0.08215079 -0.03984085 0.018437523 -0.04352218 0.06594949 -0.044683006 -0.08352601 0.033559006
0.052974664 -0.06312905 0.04383126 0.0706479 -0.03583987 -0.12580675 0.040769473 0.10556576
0.0087842485 -0.01586942 -0.022233745 -0.060703315 -0.070863195 -0.07599426 -0.0010899579 0.08843257

decoder.decoder.0.weight f4 [1, 16, 1, 1]
00000000: 4893 9d3c 19eb 59bd 708a 11be bf10 02a3
00000010: a89a 8e2d 40ea 0898 dd77 f43c ac7d 1b3c
00000020: 0da6 c53d da4e 6ebe 3460 763e 0f5c 42ba
00000030: 0471 eabd 7e8a 3424 2f03 3d3e 5b07 063d
0.019235268 -0.053202722 -0.14212966 -7.05086e-18 1.6212212e-11 -1.7695854e-24 0.029842312 0.009490412
0.09650812 -0.23272267 0.24060136 -0.00074142305 -0.11447337 3.9148586e-17 0.18458246 0.03272186

decoder.decoder.0.bias f4 [16]
00000000: 68c4 4c3e 8929 5b3e 0131 033e 311c 8bbb
00000010: b090 04b5 6ce4 0cb6 c38c 01bc a256 1fbc
00000020: cc99 223e 98b7 873e 7441 8a3e d182 69b9
00000030: d6cf 703e 4a7b 80ba 7d4f 583e 0c82 0fbd
0.19996798 0.21402563 0.12811662 -0.004245304 -4.938438e-07 -2.0994585e-06 -0.007907095 -0.009725245
0.15878981 0.26507258 0.27003062 -0.00022269344 0.23516783 -0.0009802368 0.21124072 -0.03503613

decoder.decoder.3.weight f4 [16, 16, 3, 3]
00000000: 2771 d73d 00f1 68bd 18d5 903d 5dca 3fbc
00000010: 8c18 6e3d f055 5dbc 03f7 b33c be0e 1f3d
00000020: 0549 24bd 4a12 d19d 8b91 1236 88ed 0b97
00000030: 1294 2ba0 b6ec d633 5cac f633 68b7 97b7
00000040: 8c04 db1c 4177 3e37 4898 943d d812 f3bc
00000050: 1041 6329 3f2f 4f3d afd1 473c 63df 31bd
00000060: bcb8 de3a 6d92 453d bece 213c 95d2 509b
00000070: 6039 229d e81b aa37 24d9 5696 b0be 9034
00000080: 594d 7599 2e72 cf33 dd06 5b33 fe8e 5429
00000090: 92fc 043d b85e 823d 55c6 02bd ddb8 efbc
000000a0: 6e49 adbc 19d5 3e3d 973a aabb 9b0b a63d
000000b0: ed50 ce3c d7cd 973d 03aa 4abd fef9 2b3d
000000c0: e773 5b3d a1fe a7bc 2561 3e3c 9e03 c33c
000000d0: a944 63bc 0df4 17bd 819d 611c d1b9 9abd
000000e0: 26dd 283d 190a 241c cd8c 423b 5a64 adbc
000000f0: b1aa fa9a 927b fd98 197e 9498 1898 273c
00000100: 28ce a53d 1318 d23d ede6 873c cc0d 373c
00000110: 83d9 c6ba 45e8 7f3d 4db7 183c e1ad 8a3d
00000120: af75 923d 23f0 9c3d cb38 73b1 0dd8 2c3d
00000130: 1883 b5bd 706b 0618 f858 b5b6 2cc7 4c97
00000140: 8eed 0c37 3bc1 4e3b 0817 843c 11f9 a7bc
00000150: 564a 063d ae7b e13c 9ae1 693d 7b3d 96bd
00000160: d76d 47bd 0143 aaba a46f d93c 4f8a 613c
00000170: addd d3bc 54dc 7a3c 49c5 08bc a79d a93d
00000180: 28e8 9c3d 2e22 bd3c 4a57 863b 1d8d 023d
00000190: 593b b43d 34ba 76b9 3573 3fbd 086d 8c3c
000001a0: f427 13bd f832 51bd e288 8ebd 50a3 d8bc
000001b0: 4865 853d 80e9 d73c 7cf9 eb3c fe75 9f3d
000001c0: 295c 493d c583 583d 6bac 9b3c 2319 ae3c
000001d0: c631 4d3c 234b 8521 9205 692f 46fe e934
000001e0: 2954 1129 7005 321b 0471 8cb4 2ad4 621e
000001f0: 7746 b218 52e5 169e 7885 e433 b09f 93b4
00000200: fa87 78b3 b45d 5cbd 00d9 ac3c 5029 8dbc
00000210: e199 a33c 9384 abbb a928 d8bc 7ba2 3f33
00000220: 1d31 bc3c d0d4 1fbd 3fad 5eae f3d0 363c
00000230: 1788 b63d 718b b9a1 e0aa 933c dd2b 7fbc
00000240: 36c4 cf3d fa06 9a3d 3798 8b3d 2a95 3ebd
00000250: dcb1 21bd a83f 3e3d e587 96bc 5d7d 9a3d
00000260: 5f35 70bb f572 c22b 5208 d0b3 81ec 58b6
00000270: 5ab8 da37 f0ea 18a4 9ab0 3519 c0c8 0cb4
00000280: 26bb a9a2 4361 4935 e27d 44bd 7f22 bbbc
00000290: 41bb fe1a ca97 83bd a2b9 ba3c 87ea 903d
000002a0: 58e4 9a3c bfb3 ca3c d9f6 b23c 5f49 9420
000002b0: d772 b8b3 d3d3 88b5 3fa7 6217 63d7 bbb1
000002c0: eee2 ebb2 c9c7 29b5 6201 10b4 8021 37b7
000002d0: 68be 843d ec82 b43d c83f 173d 9c60 c6ba
000002e0: b83b 8c3d 6ff4 c73d 427b 2fbd e484 5bbd
000002f0: 7ac7 c53d 7029 333d b689 58bd 68c1 0a3d
00000300: 9eac 613d 8821 9d3d 331e 78bd cd1b 6fbc
00000310: 9248 b73d 1480 053d 8ae8 bda6 9003 46bd
00000320: acd5 3abd 47d4 1fb5 ecc2 c13c 65af 203d
00000330: ad66 65b1 3eac 9998 6434 c1b7 9292 bb3d
00000340: b136 5e3d 9b90 82ba 1483 45bd 6787 813d
00000350: 79e1 5ebd a932 5e3d 1a89 913d 8c6f 2bbd
00000360: 6dc3 f03c b682 ebbc e572 9937 8cfc 66bd
00000370: 3208 7d3d 9401 ad34 84e8 9b31 97a4 bab6
00000380: 3dcf 8829 7448 ed3c c4a8 313d b6b0 3fbd
00000390: de67 2f3d 7dc9 d7bc 6f7b f93c 877a 19bd
000003a0: d0c2 b5bc f4ce 5a3c ce94 dd3c d606 e73c
000003b0: 210d 24bd f73a cc3d bc33 8bbc fd5c b03c
000003c0: a62c 6f3d 211b cd3c fa3f 5abd 3fd6 3f3c
000003d0: 9b28 c83d d8bb d33b b1be 86bc 404d 543d
000003e0: 3a55 9abb 1cf4 a6bc 005d 9e3b 8b83 823d
000003f0: 5154 c63d e2fe bf3c 4398 72bb dfcd 0d3d
0.10519629 -0.05687046 0.070718944 -0.011705962 0.05812888 -0.013509259 0.02196837 0.03883242
-0.0401087 -5.534075e-21 2.1840413e-06 -4.521313e-25 -1.4533256e-19 1.0008209e-07 1.148662e-07 -1.8086008e-05
1.449338e-21 1.13526485e-05 0.07255608 -0.029672071 5.0460558e-14 0.050582167 0.012195989 -0.04342593
0.0016992311 0.048235346 0.009875951 -1.72734e-22 -2.1470184e-21 2.0278574e-05 -1.73553e-25 2.6960834e-07
-1.2681823e-23 9.659958e-08 5.0996153e-08 4.7197482e-14 0.032467432 0.063657224 -0.031927425 -0.029262954
-0.021153178 0.046589945 -0.0051949727 0.08107682 0.025185073 0.07412308 -0.049478542 0.041986458
0.05357733 -0.020507159 0.011619841 0.023805436 -0.01387135 -0.03709798 7.4649824e-22 -0.07554973
0.04122653 5.42761e-22 0.0029685975 -0.021166015 -1.03673343e-22 -6.552374e-24 -3.838443e-24 0.010229133
0.08095962 0.10258498 0.016589606 0.011172723 -0.0015171025 0.06247737 0.009321046 0.06771446
0.071513526 0.0766299 -3.5393437e-09 0.04219823 -0.08862895 1.7373336e-24 -5.4045777e-06 -6.6167345e-25
8.39996e-06 0.003154828 0.016124263 -0.020504506 0.032785736 0.027524795 0.057099916 -0.07335945
-0.048688736 -0.001298994 0.026542492 0.0137658855 -0.02586254 0.015311319 -0.008347818 0.08282023
0.07661468 0.023087587 0.004099761 0.031872857 0.08800382 -0.00023529754 -0.04674073 0.017141834
-0.035926774 -0.051074 -0.06959702 -0.026445061 0.065134585 0.026356459 0.028805487 0.07786177
0.049160156 0.05286004 0.019003114 0.02125222 0.012524074 9.032319e-19 2.1193206e-10 4.358464e-07
3.2269465e-14 1.4725572e-22 -2.6159262e-07 1.2008215e-20 4.6083073e-24 -7.988356e-21 1.0641355e-07 -2.7497072e-07
-5.786567e-08 -0.0538003 0.021099567 -0.017231613 0.019970836 -0.00523431 -0.026386576 4.4618428e-08
0.022972638 -0.039021313 -5.063083e-11 0.011158216 0.08912676 -1.2572997e-18 0.018025815 -0.015574423
0.10144846 0.07520862 0.06816142 -0.046528973 -0.03947626 0.046447426 -0.018375346 0.075434424
-0.0036652905 1.3816436e-12 -9.687268e-08 -3.2324172e-06 2.607347e-05 -3.3158746e-17 9.393145e-24 -1.3111548e-07
-4.6005693e-18 7.501987e-07 -0.047971614 -0.022843597 1.0535446e-22 -0.06425436 0.022793595 0.070759825
0.01890771 0.024743913 0.021846222 2.5120728e-19 -8.589057e-08 -1.0194439e-06 7.3235633e-25 -5.466903e-09
-2.7460796e-08 -6.324813e-07 -1.3411548e-07 -1.091545e-05 0.064816296 0.08814034 0.03692606 -0.0015134993
0.06847328 0.09763419 -0.042842157 -0.05359353 0.09657188 0.04374069 -0.052865706 0.033875853
0.05509626 0.07672411 -0.060575675 -0.014594031 0.089493886 0.032592848 -1.3177539e-15 -0.04834324
-0.04561393 -5.954102e-07 0.023652516 0.03922977 -3.338225e-09 -3.9723493e-24 -2.303179e-05 0.091588154
0.054251377 -0.0009961309 -0.04822071 0.06324654 -0.054414246 0.054247532 0.07106228 -0.041854426
0.029390061 -0.028748851 1.8292523e-05 -0.05639319 0.061775394 3.222491e-07 4.5375277e-09 -5.5623927e-06
6.0755634e-14 0.028965212 0.043373838 -0.046799384 0.042823665 -0.026341194 0.030454366 -0.037470367
-0.02218762 0.0133550055 0.027048495 0.028201502 -0.040051583 0.09972184 -0.016992442 0.021528715
0.05839219 0.02503735 -0.05328367 0.011708795 0.0977337 0.0064616017 -0.01644835 0.051831484
-0.004709867 -0.020380072 0.004832864 0.06372746 0.09684051 0.023436967 -0.0037017025 0.034620162

decoder.decoder.3.bias f4 [16]
00000000: 40a7 b53d d7d7 b5b7 af6c 8e3b e018 0fb6
00000010: ea0e a33d 294d cf3d f14b 743c cdf0 7dbc
00000020: 28a7 66bd 12ee 2d3d 291e 9ebb 2bfb 713d
00000030: 1642 4f3d 8689 bdb7 971e 403d 8f81 7abd
0.08869791 -2.167739e-05 0.004346452 -2.132314e-06 0.07961829 0.10122139 0.014910684 -0.015499306
-0.056311756 0.04246337 -0.0048253727 0.059077423 0.050600134 -2.2594595e-05 0.046904173 -0.061158713

decoder.decoder.6.weight f4 [16, 16, 3, 3]
00000000: e5f3 4cbd 9336 13bd 9da4 53bd 6fb4 efbb
00000010: 0c96 a53c faa4 a23d 06b2 493d c78d 863d
00000020: d78d 773d 47f1 933c 885b c63c ad0b 803d
00000030: f626 81bd 4b01 7d3d ea65 a53c cca9 fbbc
00000040: 441f 89bc 9a17 b9bc 51a2 b43d b9ff ac3a
00000050: 0944 c13d e332 593d ed27 313d f62c 12bc
00000060: 9af1 d63c b769 afbc fbf6 693d 9bac b53c
00000070: 2d6b 753b ef63 333d 42f8 16bd c191 d0ba
00000080: b3e5 30bd 2858 853c ab28 a1ba 52aa acba
00000090: d965 943d ac87 39bd 775d 9a3d 2a21 d83b
000000a0: 1096 b33d 2829 c0ba 319f 05bd 8a9b 803d
000000b0: 6a00 98bb 9f16 a0bc 2455 583d 3d69 7e3d
000000c0: afbc 99bd 8a3e 2ebd 6c6e 2fbd 126a 7b3d
000000d0: c4b0 60bd 28b4 1f3d a290 193d e7aa b13d
000000e0: 0881 a3bb 1c9e b63d 90cf 033d 755f abbc
000000f0: c29a d43c 96b9 ae3d 88c7 1e3d a1b6 efb9
00000100: 23a8 46bd 8a09 f4bc b959 94bc 9a2c 883d
00000110: 37a3 9c3d aa23 553c fb31 c03d cd31 bf3d
00000120: d471 a4bd ec77 babd 1161 673d fb77 67bd
00000130: 2d1f afbd d26c e03c ac8b 3ebd 895b 283d
00000140: 0124 35bd 251d 2ebd 3cf4 113d 06c5 903c
00000150: f9dd 2b3d fe7a c43d 130c 443c 24d0 8abc
00000160: 46f4 9a3c 479c 96bc 328e ac3c 88c2 cc3d
00000170: e39e bdbc ae55 9eb9 6f8f 3abd 6418 3dbd
00000180: 40c1 8a3d 28df c03d ea12 253d 4bad 50b6
00000190: 3673 52b2 1a5a 8bb6 6a89 7e98 a1ad a334
000001a0: 2a0f 90b6 bcda b031 4e26 f0b7 f754 e136
000001b0: 4354 db93 6054 fd17 5ed7 b031 dd1d 58b2
000001c0: 966d 7918 1641 ee98 2c2e a628 4e60 0797
000001d0: 1ebc f01d 5234 763d e158 863d 71d0 653d
000001e0: 0808 3d3d 72cf d73c 4b70 e8bb 3a1e 3dbd
000001f0: 9974 13bd 8563 993d 17f7 13bd 7a17 3dbd
00000200: 8b83 093c 71be a13b f68f 4abd 2df8 babc
00000210: 46fc 3a3d 3cba 343d 040f 9e3c 827e c33b
00000220: b132 173b 43e9 193c 89d6 aa3d 5818 d93d
00000230: 1118 cb3c 21c8 3e3d f2b3 733d 484a 233c
00000240: 4895 e4b1 f45c 1da3 a3ec bcb5 d73f b337
00000250: 1e1c b923 7f15 18b0 e8e4 3e17 2dba 1218
00000260: 8da0 a69b a0e9 0d26 85de f035 b17e c91a
00000270: 3cd7 c79b 6d1a 67b6 7dea 0129 9c51 d41a
00000280: 7e1d 98b1 2a36 b831 b210 f7b0 e8c2 c798
00000290: 0531 b21b 100d f896 3323 cab7 d2ff f2b4
000002a0: 2738 3c1d d74a ffb0 98ca 8716 ad39 879a
000002b0: 595d a2a6 743d 8f9f 0517 f4b6 6a6a 7017
000002c0: 32af 95b6 ca5b 8830 26c2 4a24 0a7a 1499
000002d0: c26c 5e98 19ac 2a9a 2fb0 64b4 582e 781c
000002e0: 929c b49b 146d a923 1446 3e31 e4eb 4b19
000002f0: d5a8 8d37 109b 479b 48d9 9016 661a 4298
00000300: c21f 70b7 5e2f c3a3 170a 2aa1 945b 55ae
00000310: 9101 d09a ce77 0c99 bcfc c79b 29ae 51a1
00000320: 18ff 0137 3ba4 0736 aeb7 0035 96f8 0119
00000330: 9ef1 0d36 930b e3b7 a3f3 54a6 ed11 8c17
00000340: 8111 6ea0 cdfe ac1d 7bf6 d735 3f99 efac
00000350: 2cfe cc9a b19e 0836 4e8e 7ca0 b99d 902d
00000360: 88e6 a9b1 bff0 501b 530a 9535 29aa 95a2
00000370: a29f 6617 497f ed17 5a51 84b6 726d ccaa
00000380: 5ebf 522d dad1 d397 eafc 4f30 4564 c5a6
00000390: 301f 599c fe68 8b19 80df ff15 0d95 8337
000003a0: b90c 0032 2750 baa6 c686 009a 4b26 bfaf
000003b0: 1128 c235 9fb2 ad18 c61f dc96 eb7c 97ad
000003c0: d446 3824 9a59 7a31 ed22 0ab2 cd55 4a1b
000003d0: 7540 c715 104b d214 cb79 19b7 9f49 da22
000003e0: 4325 cc36 10b5 6135 39f2 83b1 6c84 ad37
000003f0: 8cf1 aaad 8947 4b98 68ed 9537 6f86 ca98
-0.050037283 -0.035940718 -0.05167066 -0.0073152105 0.02021315 0.07941623 0.049242042 0.06570011
0.060438003 0.018059386 0.024213567 0.06252227 -0.06306259 0.06176881 0.020190198 -0.030720614
-0.016738541 -0.022594262 0.08820022 0.001319877 0.09436805 0.053027045 0.043250967 -0.008921852
0.026238251 -0.021412713 0.057120305 0.022177031 0.0037447915 0.043796476 -0.03685785 -0.0015912579
-0.04318781 0.016277388 -0.0012295445 -0.0013173318 0.072459884 -0.045295402 0.07537358 0.0065957503
0.087688565 -0.0014660703 -0.03262252 0.06279667 -0.0046387212 -0.019542037 0.05281557 0.06211208
-0.07506692 -0.04254011 -0.042829916 0.061380453 -0.054856077 0.03899017 0.03749145 0.08675175
-0.004989747 0.08916876 0.03218037 -0.02091954 0.0259527 0.085314915 0.038764507 -0.00045721701
-0.04850019 -0.029789705 -0.01810919 0.06649132 0.07648318 0.013008991 0.09384533 0.093356706
-0.080295235 -0.091049045 0.056489054 -0.056510907 -0.08550868 0.02739564 -0.04651992 0.04110292
-0.04422379 -0.042508263 0.03563331 0.017672073 0.041959736 0.095937714 0.011965769 -0.016944952
0.018915307 -0.018385066 0.021063898 0.099980414 -0.023147052 -0.00030199945 -0.045546945 -0.04616584
0.06775141 0.09417564 0.04030124 -3.1095285e-06 -1.2249805e-08 -4.153012e-06 -3.2898107e-24 3.0487448e-07
-4.2932998e-06 5.1471414e-09 -2.8628067e-05 6.7154137e-06 -5.536646e-27 1.6371041e-24 5.1467586e-09 -1.2579645e-08
3.2237822e-24 -6.158728e-24 1.8449726e-14 -4.3742406e-25 6.372198e-21 0.06010849 0.06559921 0.05610699
0.046150237 0.026344035 -0.0070934645 -0.046171404 -0.035999868 0.07489685 -0.036124315 -0.046164967
0.008393179 0.0049360325 -0.049453698 -0.022823418 0.045650743 0.04412292 0.01929427 0.0059660086
0.0023070986 0.009393993 0.083417006 0.10600346 0.02479175 0.046577577 0.05949778 0.0099664405
-6.6526447e-09 -8.530671e-18 -1.4075962e-06 2.136819e-05 2.0069648e-17 -5.5327826e-10 6.168123e-25 1.8964052e-24
-2.756615e-22 4.9235823e-16 1.7946155e-06 8.333633e-23 -3.306088e-22 -3.4437064e-06 2.884714e-14 8.781299e-23
-4.427135e-09 5.3612625e-09 -1.797636e-09 -5.16371e-24 2.9479308e-22 -4.0074805e-25 -2.4096667e-05 -4.5262146e-07
2.4910623e-21 -1.8574963e-09 2.193828e-25 -5.592787e-23 -1.126631e-15 -6.066452e-20 -7.2744465e-06 7.7682496e-25
-4.4609415e-06 9.92139e-10 4.3966218e-17 -7.676066e-24 -2.8747736e-24 -3.5294195e-23 -2.129825e-07 8.2116215e-22
-2.9879683e-22 1.8369213e-17 2.7688474e-09 1.0542492e-23 1.6887128e-05 -1.6510998e-22 2.3401578e-25 -2.508724e-24
-1.4312509e-05 -2.1162003e-17 -5.7611594e-19 -4.851193e-11 -8.6029314e-23 -7.262025e-24 -3.3085114e-22 -7.1042453e-19
7.748393e-06 2.0212162e-06 4.7951005e-07 6.719345e-24 2.1151277e-06 -2.7065898e-05 -7.3882465e-16 9.051813e-25
-2.0165176e-19 4.579148e-21 1.6090484e-06 -6.8098023e-12 -8.478306e-23 2.035795e-06 -2.1392315e-19 1.6440948e-11
-4.9447557e-09 1.7283146e-22 1.110437e-06 -4.0566695e-18 7.4518493e-25 1.5347897e-24 -3.943377e-06 -3.6313622e-13
1.197961e-11 -1.3688529e-24 7.5665574e-10 -1.3696799e-15 -7.1839586e-22 1.4414669e-23 1.033463e-25 1.5685824e-05
7.453473e-09 -1.2928068e-15 -2.657865e-23 -3.4769906e-10 1.4465787e-06 4.4899813e-24 -3.556297e-25 -1.7222187e-11
3.9958634e-17 3.643072e-09 -8.040598e-09 1.6736772e-22 8.0477155e-26 2.1234188e-26 -9.147868e-06 5.9166968e-18
6.0840116e-06 8.408251e-07 -3.8401393e-09 2.068487e-05 -1.943403e-11 -2.6273251e-24 1.7872735e-05 -5.235152e-24

decoder.decoder.6.bias f4 [16]
00000000: 6847 603d de69 5d3c 0316 293c 712f d6bc
00000010: 7624 fdbb de68 173d f1dd 163d c592 793d
00000020: ee27 1f3d 13aa 443d 6c56 b63d 7c40 8bb7
00000030: eb1f 96b4 202c 273d be6b 6d3c 7cd8 ae3d
0.0547556 0.01351401 0.010320189 -0.026145669 -0.0077252937 0.036965244 0.036832754 0.060930986
0.03885644 0.048013758 0.089032024 -1.660012e-05 -2.79629e-07 0.040813565 0.01449102 0.08537385

decoder.decoder.9.weight f4 [16, 16, 3, 3]
00000000: fa1d 6f3d 29e3 f5bc 5332 8f3d 768f d8bc
00000010: 8978 8fbd 3955 833d f28c 89bd c1d5 0e3d
00000020: e20f 2f3d 7ee6 0fbc 4017 a23b 2b3e d9b5
00000030: 1220 833b 5ede e0b9 1e0e 0036 6f0a a4b2
00000040: e47d 109c c2a0 b935 097e 953d fb5c 0fbd
00000050: 4025 63bd ed80 473c 16db adbd c38e 093d
00000060: ca3f 643b 96a2 81bd 4ce6 833d 210b 883d
00000070: 4acc 5fbd 2dbb 633d 3a2c 55bd af59 033d
00000080: fd36 83bc dc9f 2bbd a19a 883c 3bf3 60bd
00000090: 943f b9a6 f23b db97 8ff6 1e29 1997 84a1
000000a0: d6ef 841b 7936 269a d931 e19c f0b2 8299
000000b0: 8790 bcad 4b1c f1bb 4090 793d 3769 3fbc
000000c0: dcf7 6cbc dfb9 5ebd 16de 71bd 9313 4da7
000000d0: 5904 0e19 03a6 6329 8cf7 9b3d 0923 0a3d
000000e0: e56a 2ebd b175 f1bc 1a76 14bd 0c8a 40bd
000000f0: f7aa 4ebd 8e21 983c daf1 81bd 3840 cdba
00000100: de30 703a 351b 5039 a309 cdb6 7ac8 4ab6
00000110: 48f4 0cb7 5bb0 80af 8b4b 07b7 f44a aab5
00000120: 3e6d 9c3d 438c b0bc b4b3 d3bc cb83 37bc
00000130: d030 9c3c b3fc 4e3d f5b9 ee3c bc50 983d
00000140: ff09 833c ceb6 d83c 25b3 dd3c 0182 ed3c
00000150: 199f 61bc 278f de3c 9d68 eebc 83ac cabc
00000160: bf1b d83c f1f3 04bd 25d5 b13d 73ba 33bd
00000170: acc9 1bbd 7dd3 973d a636 b13d c739 64bd
00000180: f330 a83b de07 1ebd 75ed 35bd dc81 9aba
00000190: e8d5 af3d cf83 063b 5f7c be3c 5513 823d
000001a0: 4fbd 593b 86cf aaba 1680 e93b c7d3 c0b8
000001b0: dea9 9e3d 03aa 523d b416 673d bef0 523a
000001c0: 14f9 043d 98a5 243d 3cfd 41bd 5618 13bb
000001d0: 07c0 59bc 9f71 b3bd 6d15 92bd d447 1e3d
000001e0: 8f6d e03c 90d2 103b 89e7 6e3d 4732 133d
000001f0: 6bde a8bd ac7c b83b 907f b797 92c5 31b2
00000200: b8f2 0ba9 6b88 203d e6bc c9bc 5d8a 65bd
00000210: 8681 6dbd 11ca 1c3d 4c78 023c a70c 3abc
00000220: 0744 8b3b 1127 dabb a094 31bb 4601 01bc
00000230: ef62 72bc a949 05bd ec33 88bb 7e64 40ba
00000240: 42cf 42bd 3f2b 453c f074 ad3c baf5 b6bc
00000250: 785f 2fbd 3436 e8bc ca93 153d 0277 3c3d
00000260: 4c14 633d 5da4 a83c 645f 9e3c 687c d3a1
00000270: aeb4 ffba 73d0 953c 3e18 f7ac 152b f39b
00000280: 4719 a71d 8f32 b133 79df 703d 317a 973d
00000290: ac52 b3bc be81 f93c 04c3 46bd 8515 7d3d
000002a0: a7ed 6c3b 4e47 a33c b818 523d 6be0 163d
000002b0: f818 c23d d8e6 903d 8aa2 dbbc c320 14bd
000002c0: 4d66 c13d 8499 ac3c 6ce1 eebc c0d2 5cbd
000002d0: 83bc 58b3 b8de b537 fb42 7d18 ca1a b49b
000002e0: c8f3 9ab5 3066 8bb7 5a51 3435 f88e 0630
000002f0: de87 8a2a 690a 7c3c 3e87 cabb 1e75 763d
00000300: 7de6 43bc 0c1a 1c3b 19ca 0b3d 292f 2529
00000310: 954a 3319 c52d f634 0966 353d f806 3abd
00000320: aeb4 1abd e9d2 f93c 3fce 4dbd 44e0 26bc
00000330: c3b6 7bbd 353d bbbd 1eda 10bd 0097 e5bc
00000340: 278b 1ebb 7443 923c cb0b b33b 0c77 bdba
00000350: e3e1 c9bb cdbb d1a6 68f5 0cb3 0424 2d99
00000360: 57f5 053d 5495 d63c 2209 e0bc a73e 873d
00000370: 2bf5 d43c 5d27 0b3d 3648 f23c c8be 45bd
00000380: bf39 793d 29ce df3c 12d7 e73c 561d 7e3c
00000390: 0fe7 ba3d b9ee b03d 49c0 9f3c 6437 073d
000003a0: 50ae a43b c73d 30bb 91b5 5e3d 4343 d6bc
000003b0: aeed 2537 57b6 173c 9046 4ebd e32c 2dbc
000003c0: 9dd2 81bc 49cb 573c 6f7e fdbc 50e1 7f3d
000003d0: db13 fe3c 9e3a 663c 717a f33c 0f09 5e3d
000003e0: 4896 203b ade8 fdbc bea1 3cbc 4c01 7abb
000003f0: 0089 153c 1185 12bd 3149 ebbc 098f 463d
0.058378197 -0.030015545 0.069920205 -0.026435595 -0.07005412 0.06412739 -0.06716336 0.03487182
0.042739756 -0.008782981 0.0049466193 -1.6185853e-06 0.004001626 -0.00042890286 1.9081704e-06 -1.9096857e-08
-4.7808313e-22 1.3830361e-06 0.0729943 -0.035000782 -0.055455446 0.012176734 -0.08489053 0.033583414
0.003482806 -0.06329839 0.0644041 0.06642748 -0.054638185 0.055598427 -0.05204413 0.03206795
-0.016017431 -0.0419005 0.016675295 -0.054919463 -1.2854187e-15 -1.4167676e-24 3.5296903e-14 -8.984663e-19
2.1992559e-22 -3.4371998e-23 -1.4902136e-21 -1.3513957e-23 -2.1437309e-11 -0.007358109 0.060928583 -0.0116828
-0.014463391 -0.05437648 -0.05904969 -2.8460076e-15 7.342106e-24 5.0548118e-14 0.07615575 0.03372482
-0.04258241 -0.029475065 -0.036245443 -0.04700665 -0.050456014 0.018570688 -0.06344958 -0.0015659397
0.0009162555 0.00019846561 -6.110598e-06 -3.0217038e-06 -8.401526e-06 -2.3408372e-10 -8.064216e-06 -1.2687801e-06
0.07638024 -0.021551257 -0.025842525 -0.0112008555 0.019066244 0.05053396 0.029141406 0.07437274
0.015995977 0.026454356 0.027062962 0.028992655 -0.013770842 0.02716787 -0.029102618 -0.024740463
0.026380418 -0.032459203 0.08683232 -0.043878984 -0.038034126 0.07413385 0.086530015 -0.055719163
0.0051327883 -0.03858172 -0.04441591 -0.0011787969 0.08585721 0.0020525341 0.023252664 0.063513435
0.003322441 -0.0013031818 0.0071258647 -9.19472e-05 0.07747243 0.051431667 0.056418136 0.00080467376
0.032464102 0.040196985 -0.047360644 -0.0022444925 -0.013290412 -0.08761906 -0.07132993 0.03864272
0.027395992 0.0022098161 0.058326278 0.03593662 -0.08245548 0.0056300964 -1.1858299e-24 -1.0347678e-08
-3.1074725e-14 0.0391926 -0.024626207 -0.056040157 -0.05798485 0.038278643 0.007963251 -0.011355556
0.004250053 -0.006657489 -0.0027096644 -0.007873839 -0.014794095 -0.03254095 -0.00415658 -0.0007339193
-0.047560938 0.012034236 0.021173924 -0.022333968 -0.042815655 -0.028346159 0.036517896 0.046011932
0.05543928 0.020586187 0.019332595 -1.4330846e-18 -0.0019508803 0.018287873 -7.0228537e-12 -4.022882e-22
4.423067e-21 8.251401e-08 0.05880687 0.07396353 -0.021890007 0.030457374 -0.048525825 0.0617881
0.0036152394 0.019931462 0.051293105 0.036835115 0.09477419 0.0707528 -0.026810903 -0.036164057
0.094433405 0.021069296 -0.029160224 -0.053911924 -5.046287e-08 2.1680593e-05 3.27333e-24 -2.9795814e-22
-1.1544844e-06 -1.6617676e-05 6.717361e-07 4.8952087e-10 2.4608e-13 0.015383341 -0.006180673 0.060170285
-0.011956808 0.0023819236 0.034128282 3.6678265e-14 9.269145e-24 4.5854372e-07 0.04428676 -0.045416802
-0.037769966 0.030496078 -0.05024552 -0.010185305 -0.061453592 -0.09142534 -0.035364263 -0.028026104
-0.0024191828 0.01785443 0.0054640523 -0.0014455034 -0.006160961 -1.4553192e-15 -3.2819486e-08 -8.951164e-24
0.032704677 0.026194252 -0.027348105 0.06603747 0.025995811 0.033973087 0.029575448 -0.048277646
0.060846087 0.027319985 0.028300796 0.015509924 0.09126102 0.08639283 0.019500868 0.03301181
0.0050256625 -0.002689229 0.054372374 -0.02615512 9.8901055e-06 0.009259782 -0.050360262 -0.010569784
-0.015847499 0.013171026 -0.030944077 0.062470734 0.031015327 0.014052061 0.02972147 0.054207858
0.0024503637 -0.030994738 -0.011513172 -0.0038147746 0.009126902 -0.035771433 -0.028721424 0.048476253

decoder.decoder.9.bias f4 [16]
00000000: 6c0c 663c ddbc 37bd 2ea5 8d3a b0c2 7f3d
00000010: 0d77 a128 30c8 9abc 608b 3c3d 3369 33bd
00000020: be89 bebc 5328 e6bc bc51 9dba dcf1 75bb
00000030: 0a12 49bb 0597 c03c 8d3d 3dbd 17d3 87bd
0.014041048 -0.04485785 0.0010806674 0.062441528 1.792622e-14 -0.018894285 0.046031356 -0.043801498
-0.02325904 -0.0280954 -0.0012002508 -0.0037528193 -0.0030680918 0.023509512 -0.046201278 -0.06632059
