assignment_3/AE_model_params.pth (torch, 82259 bytes, 50 tensors)

encoder.encoder.0.weight f4 [16, 1, 3, 3]
00000000: ed20 8d3c fd30 9cbe 3cd5 de3d 1508 943d
00000010: 0eb6 573e 2cc0 81be 8c63 703e 7147 eebb
00000020: 0316 0fbd c77b 113e cfe2 47be beba 62be
00000030: 5e48 57be 1dea 26be 0d9e 903e d16f 35be
00000040: 86a2 a9bd 2661 60be aac5 2bbe e93a d63d
00000050: 0724 053e d2df 463e 7534 7d3c 6313 813d
00000060: beb8 91bc a779 7c3e f8a4 99bd 7c9f 17bd
00000070: d59f de3d cbc2 103e 6a28 833e c9cf 413d
00000080: f23a 70be f390 cb3a 2427 113e da98 81be
00000090: 7d6c 34be b5b5 98be abdb 113a 3ee0 05be
000000a0: 89b5 19be 7620 6f3e 1abd 85be 1d1a 30bd
000000b0: 3e58 5a3e 7606 873e 2e31 af3d dbcc 41be
000000c0: 804a 253e 6ed9 33be 13a0 78be f594 1bbe
000000d0: cba7 993d a8c4 9cbe ad78 82be 98c9 eebd
000000e0: 512c 39be f23f a0bd 4a65 613c 4adf 323d
000000f0: 7eb5 4b3e 0fb9 053e 6f8d 093e 2e31 88be
00000100: b46e a63e e8a2 dabd 0f82 8f3e 82ac 6abe
00000110: 6d52 993e 0aa9 59be 481d 77be f6a5 97be
00000120: 8934 c33d a87b cbbd 8e64 e0bc e305 9d3e
00000130: 5752 68be 7b9f 903e e9d8 0ebe 4636 37be
00000140: bdd0 733e 3eed 82be 33bf d1bd 9104 e53d
00000150: 6727 90be 0851 693e fc14 233e f4cb 263e
00000160: 16d5 92bd ad1b 833d 8955 723e 228a 5b3e
00000170: f32b 833e f375 36bd 1420 dbbd 226e 72be
00000180: c673 7fbe ae98 c7bc e03b cfbd f99c 64be
00000190: f5e3 54ba d55f 4cbe 63c7 513d f1e1 92be
000001a0: 966d 6a3c 6d77 813d 0ca8 bd3e 29da a3be
000001b0: 470f a53e dfb1 88be 7453 3f3e 0831 08be
000001c0: 11a7 5dbe aa8f cdbd f893 f5bd cfd9 fabd
000001d0: 294c 633d 74b7 1f3e 644f 0abe ff05 773e
000001e0: bce3 25be 5219 3d3e b127 863e 7dad 8b3e
000001f0: 3b61 2bbe a542 863e fede 17bd c69d 153e
00000200: 9564 6fbe beb9 38be 05f2 9bbe bda4 9ebe
00000210: 9439 a33d 88cf 333d 8e98 023c 57d6 b43d
00000220: 98c6 99bd f626 9e3e 7ee2 37be d119 c53d
00000230: e30e 92bd b64f 83bd 7d48 993b 8097 59be
0.017227614 -0.30506125 0.10880515 0.07228104 0.21065542 -0.25341928 0.23475474 -0.0072717
-0.0349331 0.14207374 -0.19520114 -0.22141549 -0.210237 -0.16300245 0.28245583 -0.17718436
-0.08282952 -0.21912059 -0.16774622 0.10460455 0.13002025 0.19421318 0.015454401 0.06302526
-0.017788287 0.24655782 -0.075021684 -0.03701733 0.10870329 0.14136808 0.2561677 0.0473173
-0.23459986 0.0015530869 0.14175087 -0.2531193 -0.1761951 -0.2982613 0.0005564044 -0.13073823
-0.15010656 0.23352227 -0.26120836 -0.042993654 0.21322724 0.26372117 0.08554302 -0.18925802
0.161417 -0.17563412 -0.24279813 -0.15193541 0.07502707 -0.30618787 -0.25482693 -0.11659545
-0.18083312 -0.078246966 0.013757059 0.043669976 0.19893453 0.13058876 0.13432859 -0.2660002
0.32506335 -0.10675603 0.28028914 -0.22917369 0.29945698 -0.2125589 -0.24132264 -0.29618806
0.09531505 -0.09935695 -0.027391698 0.30668554 -0.2268766 0.28246674 -0.13949932 -0.17891797
0.23810096 -0.25571626 -0.102415465 0.111825116 -0.28155062 0.22784817 0.15925974 0.1628874
-0.07169549 0.06401763 0.23665442 0.21439412 0.25619468 -0.04454608 -0.10699478 -0.23674825
-0.24946508 -0.024364796 -0.10118842 -0.22325505 -0.00081211264 -0.19958432 0.05121554 -0.28688005
0.014308354 0.06321607 0.37042272 -0.3200238 0.32238218 -0.26698205 0.18684179 -0.13299954
-0.21645762 -0.10037167 -0.119911134 -0.12248575 0.055492554 0.15597326 -0.13506848 0.24123381
-0.16200155 0.1846669 0.26202157 0.272808 -0.16736309 0.2622272 -0.037077896 0.14610967
-0.23378213 -0.18039605 -0.30458084 -0.3098506 0.079699665 0.04389909 0.007970942 0.088299446
-0.07508582 0.308891 -0.17957494 0.09624065 -0.07131746 -0.06411688 0.0046778307 -0.21249199

encoder.encoder.0.bias f4 [16]
00000000: df97 4fbc 2423 3a3c 2beb d53d b5a9 273d
00000010: 2059 c7bb 36d1 033c 30de 403c d482 bcbc
00000020: 2dcd f1bd 1c3a bdbd 0da3 8fbc 2a16 20bd
00000030: 62d9 c9bc 68b9 95bd 8e8e 393d 2769 f23d
-0.012670486 0.011360917 0.10445245 0.04093333 -0.0060836226 0.008045485 0.011771724 -0.023011602
-0.11806712 -0.09239599 -0.017533803 -0.039083637 -0.024639789 -0.07310754 0.045301966 0.118364625

encoder.encoder.1.weight f4 [16]
00000000: 1e38 5f3f e999 663f aed9 753f ea0b 613f
00000010: 947a 7c3f 4f60 6f3f 53a5 733f 1b67 653f
00000020: b633 603f 0143 5d3f 75c3 653f aa4b 7b3f
00000030: 5fdc 7c3f 8309 673f c8ed 693f 1fb6 643f
0.87195003 0.900786 0.9603528 0.87908804 0.9862454 0.9350633 0.9517414 0.8961045
0.87578905 0.86430365 0.8975137 0.9816233 0.9877376 0.9024889 0.9137845 0.89340395

encoder.encoder.1.bias f4 [16]
00000000: 2ddf 9abc 28af 053c 28cb 283d 75c6 a9bc
00000010: db93 99ba 3a51 3fbc 28c7 1f3c ea48 59bc
00000020: 7d36 263c 3672 313c 7f76 0ebc 7b09 8fbc
00000030: dea0 24bc 3ef7 52bc 8194 6b3c 6424 b4bc
-0.018905247 0.008159436 0.04120937 -0.020724514 -0.0011717038 -0.011677081 0.009752072 -0.013262013
0.010144827 0.010830453 -0.008695244 -0.017460575 -0.010048119 -0.01287633 0.014378668 -0.021990009

encoder.encoder.1.running_mean f4 [16]
00000000: 7cc3 51bd 13a5 1c3f b91b 15bf 69b7 f8bd
00000010: 224e 083f 8d4d e13e a9ec 073e 787b b43e
00000020: d275 bbbe cb38 c1bd 7497 793d 77e5 c23e
00000030: 0830 e03e 7683 6fbf 3b2f 1f3f 632b 733e
-0.05121182 0.61189383 -0.58245426 -0.12144358 0.5324422 0.4400448 0.13273872 0.3525045
-0.36613327 -0.094346605 0.060935453 0.38065693 0.43786645 -0.9355997 0.6218144 0.2374702

encoder.encoder.1.running_var f4 [16]
00000000: 7743 a93c 69c6 493e 98f2 853e 1e29 7d3d
00000010: 4727 603e ed8f 283e 0749 823d 17ce c03d
00000020: 0176 613d 35a8 893d b1e1 c33d 635c cb3d
00000030: b96a f83d b0a8 db3e d8a0 4c3e 17dd cd3c
0.020662053 0.19704594 0.26161647 0.06180679 0.21889983 0.16461153 0.06361585 0.094143085
0.055044178 0.06721536 0.095645316 0.09929731 0.12129731 0.42902136 0.19983232 0.025129838

encoder.encoder.4.weight f4 [16, 16, 3, 3]
00000000: ac95 b7bd 2f7e 4dbd 1155 48bd 62df b4bd
00000010: 7366 4a3c 4b84 86bb 4b54 013c 84ca 173d
00000020: 719c ae3c a0e0 39bc abbe 3a3d e026 fcbc
00000030: 213d 963d 147f 07bc 4b14 a83d 61b5 b33c
00000040: cae7 d1bc e7e3 6c3d 797b 90bc 865d 133b
00000050: fad4 98bc 4542 313d ae30 0c3d dbe4 cd3d
00000060: fce1 f33c a861 833b 64cd 7d3d 0247 cfbd
00000070: 3502 23bd c83c 81bc e48a 1cbe 969f ecbb
00000080: 0de7 1abb 51c9 cbbd 44ec 59bd e56b 553d
00000090: f036 853d 772a e63c 8f63 5d3d eb26 523d
000000a0: dad0 533d eb22 1b3c ff47 013c 6112 c9bc
000000b0: aa97 c93d fb1a 903c 2d33 703d 3e3f a43c
000000c0: 5888 59bd 2253 ddbc eae8 c73d 8cd1 15be
000000d0: 377a 383d b0d0 203e 6e1c 9e3d 6d27 22bd
000000e0: a0b4 44bc 3fbb b0ba 2501 edbc 9ad0 00be
000000f0: 6730 51bb d97b 0e3a 18ec 693d c60f 60bc
00000100: c563 a7bd 777f 3c3c b292 753d e0cf 9abd
00000110: 7316 f4bb c76f cfbc f106 823d d5bd 343d
00000120: c387 52bd cfdb 69bd 4a85 e13d 9109 fabc
00000130: f78d a43b fda6 b63d 226f a8bc 296c 3c3b
00000140: 28be 9c3d ae85 7abd c6db 063d 5edf c83c
00000150: 1db8 7c3c 1f79 b03d d489 6d3d ae5d 793b
00000160: b031 afba e5c5 853d 8265 0cbc bb8b 1cbd
00000170: c0da 333d db82 dc3d bfee 3a3d 9df5 5ab9
00000180: c2e6 b3bc 638f 37bd ed5c debc a98e 2c3a
00000190: 2c4e 3a3d f3ed bfbd 22f2 073e 3fdb 8b3d
000001a0: 3505 97bd 1363 bf3c 1644 633d 4202 e1bc
000001b0: de19 ddbd ee1d 9f3d 5f80 bf3d a22b 26bc
000001c0: d74d 9a3d b48e 753c a8c7 053e 7f1a c1bd
000001d0: 45bf 293e 4b96 943c f3bc 4d3d b819 933b
000001e0: 28f1 72bd 9937 a1bc c0fb ba3d ca7f ff3c
000001f0: 7aca 543d 03bd 093c 8c1a a4bc bc55 40bd
00000200: 82ef 7abd 5abc f93d e6e4 36bd 7bff 263d
00000210: c6c1 9d3d e397 28bd 7fb1 a43d cc4d 4ebd
00000220: 18cd 8bbc 6016 583d 4b39 f93d 7bb3 f1bc
00000230: e424 34bc ea88 023b 7a7a 80bc b8b6 893b
00000240: df88 a6bc a6bc 273d 3549 67bd cb23 023d
00000250: 8d04 203c 6712 223d 9180 653d 75e4 a6bc
00000260: 00e3 7ebc 5e2c 2dbd 62bf b6bd d1d4 4e3c
00000270: 5089 f1bc 6cf0 273d 831e 8a3d d040 24bd
00000280: dabd a5bd 4dbc cebc b3c3 5abc 9e43 f93c
00000290: 8232 163d 6d12 8bbd 7e60 973d 9a89 1b3c
000002a0: 22c5 503d f5d7 c33d a6f3 47bd 2982 a8bc
000002b0: df43 14bd 2c53 993c 772b 84bc 7656 5e3d
000002c0: 842b 75bc 1f5d c93d b8b7 8a3d 0ee3 553c
000002d0: 97e5 dbbd db80 09be c6d4 0abd f4d6 1fbd
000002e0: cfa3 723c 2469 57bd 8e52 5b3d 2f20 2f3d
000002f0: 2489 b1bd 91c6 2dbd 8ede b13c 316b 653b
00000300: 4a6e 833d 352c 923d 76b9 473d 8ff0 2b3d
00000310: 7a1e b33d dc38 583c f476 a23d 0da7 b9bd
00000320: b83f c8bd 00bb c73c 1317 36bd 85e2 e9bd
00000330: c780 903d f6c5 abbb 187c 09bd 9524 80bd
00000340: 4532 b2bd 01c8 70bd 074a 99bd e30e 0cbd
00000350: fa3c 113d 146f 08be 6d3a 9b3a 7109 f53d
00000360: 1781 45bc 8de5 adbc b56f 3fbd 21af 083c
00000370: 0c6e c43c 04ac 9ebd 7c27 b5bc d1c5 063d
00000380: 2580 c4bc d0ff ac3d 91d8 1f3c 355d 31bd
00000390: e3cb 733d dc58 d43c bf39 fdbd 5a09 9f3d
000003a0: 2d9b 963d 129c 08be de18 b03c 50f7 6dbd
000003b0: 8896 38bd 7caa babd f71b 0cbd 882f 803d
000003c0: 37c4 24bd d593 0e3c 359f df3c 0b11 8abd
000003d0: e506 58be 654d b7bd fc64 15bd 1551 3fbe
000003e0: 29f0 d23d a119 35bd af37 473d 8805 463d
000003f0: d81c 06be 991e 09be 7036 143c 439e a0bd
-0.089640945 -0.050169166 -0.04890925 -0.088316694 0.012353527 -0.004105126 0.007893632 0.03705837
0.021314831 -0.011345059 0.04559199 -0.030780256 0.07335878 -0.008270044 0.082069956 0.021937074
-0.025623221 0.057834532 -0.017637001 0.0022486164 -0.018656243 0.04327609 0.034226112 0.10053416
0.029770844 0.0040094443 0.061963454 -0.101209655 -0.039797027 -0.015776053 -0.15287358 -0.0072211726
-0.0023636252 -0.099505074 -0.053203836 0.05210485 0.06504619 0.02809642 0.054050025 0.051306646
0.05171285 0.009468774 0.0078907 -0.024544897 0.09843381 0.01759099 0.058642555 0.020049687
-0.053108543 -0.02701718 0.09761222 -0.14630717 0.04503843 0.15704608 0.07720266 -0.03958838
-0.012005955 -0.0013483538 -0.02893121 -0.12579575 -0.003191972 0.0005435325 0.057109922 -0.013675636
-0.081733264 0.011504999 0.059954353 -0.0755918 -0.007448965 -0.025321854 0.0634898 0.04412635
-0.051399004 -0.05709439 0.11011751 -0.03052214 0.0050218063 0.08918569 -0.020560805 0.0028750992
0.07653457 -0.061162643 0.032924436 0.024520572 0.015424755 0.08616852 0.05799277 0.0038050222
-0.0013366248 0.06531886 -0.008569123 -0.038219195 0.043909788 0.10767146 0.045637842 -0.00020881598
-0.02196062 -0.04481448 -0.02714392 0.00065825373 0.045484707 -0.09371557 0.1327596 0.06828927
-0.0737404 0.023362672 0.055484854 -0.027466897 -0.107959494 0.077693805 0.09350657 -0.010142239
0.07534378 0.014987636 0.13064444 -0.09428882 0.1657687 0.018138072 0.050229024 0.00448915
-0.059312016 -0.019679831 0.09130049 0.031188864 0.05195091 0.00840688 -0.02003219 -0.046956763
-0.06126357 0.12194128 -0.04465189 0.04077099 0.07702975 -0.041160475 0.08041667 -0.05036716
-0.01706557 0.052755713 0.12169131 -0.029504528 -0.010995124 0.0019918033 -0.015683401 0.00420269
-0.020328937 0.040951394 -0.0564663 0.031772416 0.00976671 0.03956833 0.056030814 -0.020372609
-0.015557051 -0.04227864 -0.08923222 0.012623982 -0.029484421 0.04100077 0.06744101 -0.040100873
-0.08092852 -0.025236273 -0.013352322 0.03042775 0.03666926 -0.06790624 0.07391451 0.009493256
0.05096925 0.09562675 -0.048816346 -0.020569878 -0.03619754 0.018716417 -0.016134007 0.054281674
-0.014963988 0.098322146 0.06773323 0.013054622 -0.1073715 -0.1342806 -0.033894323 -0.039023355
0.014809563 -0.052590504 0.053545527 0.042755302 -0.086687356 -0.042425696 0.021712568 0.0035006518
0.0641752 0.07137338 0.048760854 0.04197746 0.08746047 0.01319715 0.07932845 -0.090650655
-0.097777784 0.02438116 -0.0444556 -0.11420158 0.07055812 -0.0052421046 -0.03356561 -0.062569775
-0.087009944 -0.05878449 -0.07484823 -0.034193885 0.035458542 -0.13323623 0.0011842974 0.119646914
-0.012054703 -0.021227622 -0.04673739 0.008342535 0.023978256 -0.07747653 -0.022113554 0.032903496
-0.023986885 0.0844723 0.009756223 -0.04330178 0.059520613 0.025921278 -0.1236453 0.077654555
0.07353816 -0.13340786 0.021496233 -0.058097184 -0.045065433 -0.091145486 -0.034206357 0.06259066
-0.040226188 0.008702238 0.027297596 -0.06741532 -0.2109638 -0.08950309 -0.03647326 -0.18683274
0.10299713 -0.044213895 0.04863709 0.04834512 -0.1309694 -0.13390578 0.009046182 -0.07842686

encoder.encoder.4.bias f4 [16]
00000000: 32ef 993c 9736 ecbb 6bd8 00bc cbf6 343c
00000010: f2bb a0bc fe74 883c 52d6 f93c dc04 1e3d
00000020: 2ee7 d0bb af83 10bd 55bf ec3c 7620 0fbc
00000030: 3f19 a93c 2cee 8c3c 333a 033d d65c 3d3d
0.018790815 -0.007208656 -0.007864098 0.011045168 -0.01962087 0.016657349 0.030497704 0.038578853
-0.006375215 -0.035281833 0.028899828 -0.008735767 0.020641921 0.017203413 0.032037925 0.046231113

encoder.encoder.5.weight f4 [16]
00000000: 2f96 5c3f 4d9b 6f3f 6b5c 6d3f bf66 7c3f
00000010: 1b86 6d3f f2ad 7f3f 5496 673f f5d6 793f
00000020: 418a 583f 9c9e 643f 5cf9 663f b0d9 7b3f
00000030: 52de 6b3f 7f33 653f 0dcb 613f 41f6 5b3f
0.8616666 0.93596345 0.92719144 0.9859428 0.92782754 0.99874794 0.9046376 0.97593623
0.8458596 0.8930452 0.9022424 0.9837904 0.9213611 0.895317 0.88200456 0.8592263

encoder.encoder.5.bias f4 [16]
00000000: 3f1a b13c 4897 db3b aaaa 063c d36d 0b3d
00000010: 9c1a cdbc e722 6d3c 0cac 223d 7ed0 673d
00000020: 7862 ac3c 8543 bbbc 0057 573d 315c d7bb
00000030: 61e3 263d 408a 073d e638 313d 91ad a43d
0.02161896 0.0067013837 0.0082194 0.034040283 -0.025037102 0.014473653 0.039714858 0.056595318
0.021043047 -0.022859344 0.052573204 -0.0065722694 0.04074419 0.03309083 0.043267153 0.08040918

encoder.encoder.5.running_mean f4 [16]
00000000: 97aa c83e 64c6 bbbd 1035 74bd 56db e3be
00000010: b11d a5be db88 36bf 75b9 533e 7e79 c9bd
00000020: 2578 cc3c b872 9dbe f592 ac3d 5f9c 61bf
00000030: 10d2 ab39 8b6e 6dbe 68a8 103e 9fba ce37
0.3919265 -0.091686994 -0.059620917 -0.44503278 -0.32249215 -0.71302575 0.20676215 -0.09837626
0.024959633 -0.30751586 0.08426467 -0.8812923 0.0003277217 -0.231867 0.14126742 2.4644016e-05

encoder.encoder.5.running_var f4 [16]
00000000: c45b 733e 70a7 9e3e 9505 483e 2a71 1f3e
00000010: d4d2 153e 96ca dc3e 0b3a 563e 21a5 633e
00000020: 6977 323e 6d90 2a3e 3d1f 2f3e ae38 0f3e
00000030: 0251 5d3e 9cec 2c3e 2f40 e93d b54e 5b3e
0.23765475 0.3098712 0.1953338 0.15570512 0.14631206 0.4312331 0.20920579 0.2223096
0.17428364 0.16656657 0.1710176 0.13986465 0.21612933 0.16887134 0.11389195 0.21416743

encoder.encoder.8.weight f4 [16, 16, 3, 3]
00000000: 80d8 1a3d 6fce 763d 26e4 7e3d ddb9 e9bb
00000010: 1286 b2bd 30db 9abd 1092 af3c c850 b8bc
00000020: 9c69 9fbd ca61 99bc 1332 6abd 29fe 4c3d
00000030: c77c 8d3d 2869 6b3d 450b 61bc 26f7 a83d
00000040: 97da a7bd d15b ffbc d8da ee3c 5837 ecbc
00000050: d1de 333d b124 c13c 95d8 8aba 96a1 383c
00000060: 3750 0c3d 7bf7 8c3d aae0 513d 0314 723d
00000070: 9785 cabc 6ea3 2c3e 9fe1 e0bd 89a1 32bd
00000080: 80c5 43bc b517 8a3c be91 f83b bd15 aa3d
00000090: 38a3 ad3c 23d8 3dbd c400 593c 5da1 fbbd
000000a0: d23a 31bc 8e74 303d d98c 70bd 51b2 e4bc
000000b0: 86ec 483d 1423 8f3d 9d62 0e3d c62d baba
000000c0: f2ae b33c a211 e63d 443e 383d b830 dc3d
000000d0: be56 f13b 8c00 83bd e2fa bb3d 3143 b53d
000000e0: 6936 963d 8f6b 09bd 871d 7bbd f57d 953d
000000f0: 5e0f 913c 0d37 90bc 5b94 c3bc dc1a d33c
00000100: 1e66 b73d dac7 01bd bbe0 033c a4ed 77bc
00000110: 9e0f 323d be87 543d 83d1 033e 03fe 5cbc
00000120: d0b8 07be bad2 803c 2905 b33b 875d b83c
00000130: 2c12 8e3b 0b40 8cbc 97bd fbbc b303 96bd
00000140: 4653 2e3d 6a4d 57b9 8edf 10bd 2773 973c
00000150: 9d1b 373d cf4c 323d 6f9c c43c e889 7a3c
00000160: db65 e9bc b7db 8f3c 29b6 c1bd 076d fa3b
00000170: d05a b43d ef33 263d 0aad 983d c735 dbbc
00000180: 166e 35bc 7c3f ec3d f85e 583d d97d b5bb
00000190: f6d2 7cbd 2677 723d 9158 f1bb 1256 853b
000001a0: fbb7 b13c f811 e4bd 05e3 25be fa38 cd3d
000001b0: 837f 8d3c b5e8 0ebd 391e d6bd 798a d33c
000001c0: d98e 413c a153 dd3b 2958 2ebd 33ae 8d3d
000001d0: bad8 223d 0223 77bd a27f 603c b64b d6bd
000001e0: 3d6f 823c d4b8 acbc 3222 7abd 6c67 bd3d
000001f0: 4c19 f43c 71e4 b43c d0da cabd b84b 19bd
00000200: 74d9 053d e5d0 20bd 2b19 2e3c b5a7 3d3d
00000210: 1d9f febc 35af 4b3d 478a 563d d09e 293d
00000220: df39 fd3c 397a 08bd 0c9f c83c 8f7d 82bc
00000230: 35bd 80bd 2764 823d 6998 65bb 83d4 d33c
00000240: 51b7 05bc e5ee 33bd de7f 2dbd 43cb 653d
00000250: 8cc7 34bd 1eb7 f7bd afe4 79bb 01fd a03d
00000260: ff39 fabd d637 a53d 71e8 8d3b 4706 a73b
00000270: b1a1 a23d 6ddc 1fbc 4796 8ebd 70d8 27bd
00000280: c4ec 5a3d c5fe fa3c f88c 9cbc f83d a43c
00000290: db7a a7bc d229 0fbd 103c ddbc 1ecd 25be
000002a0: 7329 093c 2792 c8bc a1fe a7bd 60fb 4bbc
000002b0: fd69 f6bd 8ed1 8ebd 58db a1bb 1711 93bb
000002c0: db6e 1a3d 17ae 4fbd a3f6 09be 2b85 89bd
000002d0: 9e66 983d 3969 94bd 4015 673c 1a0b 983c
000002e0: 9b99 7ebd 2a31 11bd af0b dc3d 97be bbbd
000002f0: edcc 63be 948c 77bd 04c1 663a b469 c13d
00000300: 47d5 163d 36c6 563d ac3c fc3c 918f 6fbd
00000310: e158 a63c e9d5 053e c79f a43d b6a5 c7ba
00000320: 670c 1a3c 532d 8537 60e0 20bd 07d2 cabd
00000330: 0ce1 e93d 586f 393c dc61 a23b dd71 03bb
00000340: d5e7 dabc 1a6b 333a 4051 fe3b 5594 813d
00000350: 2877 2e3c be1b 403d 881d b33d 399b c93d
00000360: dcdf cf3c 64f8 683c aa11 31bb 4b26 333d
00000370: 5af0 963d acf8 eb3c 8641 49bd 9aca efbb
00000380: 9e50 003d 0bbd 993c c52f 043d 4c71 5dbd
00000390: 210c a8bd af13 56bd e11e febc f4c9 343d
000003a0: 9e9a f4bb cfab 73bd 4cba 903d 56da 8bbb
000003b0: dc5f 273d c502 bf3c 6e98 4c3b b3ba cb3d
000003c0: b131 b5bc 4ed4 413c 107e b63d 49b3 debc
000003d0: 0f99 a4bd 4e43 2a3d bce0 45bd d1f2 4dbe
000003e0: 3972 05be d263 29bb 4417 03bd c7d7 023d
000003f0: dc89 0dbd 203f 503d aa17 c5bc 2236 00bc
0.037804127 0.060255464 0.062229298 -0.0071327523 -0.08716978 -0.07561338 0.021431953 -0.022499457
-0.07783815 -0.018723387 -0.05717666 0.050047074 0.06908565 0.05747333 -0.013735597 0.08250265
-0.081959896 -0.031171711 0.029157087 -0.028834984 0.043913666 0.023577066 -0.0010593111 0.011268994
0.034256186 0.06883141 0.051239647 0.059101116 -0.024721904 0.16859218 -0.10980534 -0.043611083
-0.011948943 0.016857008 0.007585733 0.083049275 0.021195993 -0.046348702 0.013244811 -0.12286637
-0.0108172465 0.043079905 -0.058728073 -0.02791706 0.04905369 0.069891125 0.034762014 -0.0014204315
0.021934006 0.11233832 0.044981256 0.1075148 0.007365077 -0.06396589 0.091787115 0.08850706
0.07334597 -0.03354984 -0.061307456 0.07299415 0.017707523 -0.017604375 -0.023874452 0.025769643
0.08955024 -0.031684734 0.008049185 -0.0151323415 0.043471925 0.051887266 0.12872891 -0.0134882955
-0.13254094 0.015725482 0.0054632616 0.022505535 0.0043356624 -0.017120382 -0.030730052 -0.07324924
0.042559884 -0.00020532837 -0.03536945 0.018487526 0.04470407 0.04353028 0.024000375 0.0152916685
-0.028490951 0.017560823 -0.094585724 0.0076423916 0.088063836 0.04057687 0.074548796 -0.026759041
-0.01107361 0.11535546 0.052824944 -0.005538684 -0.061724626 0.05919566 -0.0073652943 0.0040690983
0.021694174 -0.1113624 -0.16199882 0.10020633 0.017272716 -0.034889895 -0.10454983 0.025822865
0.011813843 0.006754354 -0.042564545 0.069179915 0.039757468 -0.06033612 0.013702305 -0.104636595
0.015922183 -0.021084227 -0.061067767 0.09248242 0.029797219 0.022081586 -0.099050164 -0.037425727
0.032678083 -0.039261717 0.010626118 0.046302516 -0.03108173 0.049727637 0.052377965 0.04141122
0.030911384 -0.033319686 0.024489902 -0.015929012 -0.062860884 0.06366759 -0.003503347 0.02585817
-0.008161382 -0.043929 -0.04235827 0.05610205 -0.044135615 -0.12095474 -0.003813069 0.07860757
-0.12218093 0.080672905 0.0043306877 0.005097184 0.079409964 -0.009757143 -0.06962257 -0.040977895
0.053448454 0.030639062 -0.019110188 0.02004908 -0.020444324 -0.034951992 -0.02700618 -0.16191527
0.008371699 -0.024483753 -0.082028635 -0.012450069 -0.120319344 -0.06973563 -0.004939478 -0.0044881213
0.037703376 -0.050703134 -0.1347299 -0.06714853 0.07441448 -0.07246632 0.0141041875 0.018559981
-0.06215821 -0.035447277 0.10744416 -0.091672115 -0.22246142 -0.0604368 0.0008802565 0.094439894
0.03682449 0.052435122 0.03079065 -0.058486525 0.020306053 0.13069881 0.080382876 -0.0015231881
0.009402371 1.5875941e-05 -0.03927648 -0.09903341 0.114198774 0.01131805 0.0049555134 -0.0020056881
-0.026721874 0.00068442675 0.0077611506 0.0632712 0.010648526 0.046901457 0.08745867 0.098440595
0.0253753 0.014219377 -0.0027018585 0.04373769 0.07370062 0.0288051 -0.049134754 -0.007317853
0.031326883 0.0187669 0.03227212 -0.054063126 -0.082054384 -0.052264865 -0.031020584 0.04413791
-0.007464721 -0.05949002 0.07066783 -0.004267971 0.040862903 0.02331675 0.0031218785 0.099477194
-0.022118421 0.011830403 0.08910763 -0.0271851 -0.08037006 0.041568093 -0.048310027 -0.20112158
-0.13031854 -0.002584685 -0.03200461 0.031944063 -0.0345553 0.05084145 -0.024059135 -0.007825406

encoder.encoder.8.bias f4 [16]
00000000: 5bbe 613c d524 9a3c 1791 11bc 315f 213c
00000010: 8309 19bc 6c64 683d 21cd 4b3c 8999 00bd
00000020: 5d0a 9fbc 9e84 8f3c b23e 063b 18c2 6a3b
00000030: 0e18 653c 0c3b 0fbc 311e f93a 13d2 acba
0.013778294 0.018816391 -0.00888469 0.009849356 -0.009340647 0.056736395 0.012439043 -0.031396423
-0.019414121 0.017519291 0.0020484147 0.0035821255 0.013982786 -0.008742105 0.001900619 -0.0013185166

encoder.encoder.9.weight f4 [16]
00000000: 7678 6f3f ed98 5b3f af04 6f3f f83d 7a3f
00000010: b777 613f a553 733f 51f3 733f 9e2a 643f
00000020: 5ecd 933f d379 5e3f 28bd 623f 2cf0 623f
00000030: bd7c 5e3f 0f3c 6e3f c751 523f 2fa9 6a3f
0.93543184 0.8578022 0.9336652 0.97750807 0.88073295 0.95049506 0.95293146 0.8912753
1.1547048 0.8690464 0.8856988 0.88647723 0.86909086 0.9306039 0.8215603 0.91664404

encoder.encoder.9.bias f4 [16]
00000000: 6eef 883d 933e ad3c 0ee0 573c 00e3 ea3c
00000010: 57a8 fb38 c0ca 913d 4557 163d f290 a6ba
00000020: 636b 0fbb 72ed 2d3d aeae be3c 9f70 9b3c
00000030: 53fd 933d 68f8 143c 1dcf ff3c 5a61 773a
0.066862926 0.021148002 0.013175977 0.028672695 0.000119999684 0.071187496 0.03670432 -0.0012707992
-0.0021884076 0.042462774 0.023276653 0.0189746 0.07226052 0.009092428 0.031226689 0.0009436809

encoder.encoder.9.running_mean f4 [16]
00000000: e801 3a3f 7386 2d3f 152e 14bd 96b9 2e3f
00000010: 3ee8 ce3e f138 3fbf 6601 80be 6a75 d03e
00000020: ad2d 25be fd28 e83e 2eb3 743e 39cb 1fbe
00000030: bec7 f13e adcb a9be 878d 533e 0aca 65be
0.7265916 0.6778328 -0.03617676 0.6825193 0.40411562 -0.7469626 -0.25001067 0.4071458
-0.16130705 0.45343772 0.23896477 -0.15604867 0.47222704 -0.33163205 0.20659457 -0.22440353

encoder.encoder.9.running_var f4 [16]
00000000: c150 203f 1de0 163f da9c 063f a82b fe3e
00000010: 60a9 063f 7bb7 973e 9716 973e b310 b13e
00000020: f4c2 723e 70bf 8a3e 96a1 fe3e 04db 4d3e
00000030: 4910 f83e ea15 e83e 40b6 063f ad81 c93e
0.6262322 0.5893572 0.52583086 0.49642682 0.52602196 0.29632172 0.29509422 0.34583053
0.23707181 0.2709918 0.49732655 0.20103079 0.48449925 0.4532922 0.5262184 0.39356747

encoder.encoder.12.weight f4 [16, 16, 3, 3]
00000000: 2c8f 783d 3609 d83c 2292 9fbd edee 113b
00000010: 9a6f 913c 2adb bebc 3a91 f7bb 73ed 45be
00000020: ffdf 343c 626a c0bb 8f43 ff3c 7aa4 16bd
00000030: ec92 87bd bc72 15be 22f9 cdbd 1208 01be
00000040: 907f d6bc 9152 91bc c054 edbb a991 9e3d
00000050: 45f7 b2bc ac4d 413d 37cd aebd 3fa1 80bc
00000060: bef7 01bd 4137 a23d 1e01 943d 5a5e 123c
00000070: 606e febc 3249 253d 752e 123d a5fc be3d
00000080: 6fea 33bd 700f 73be 4ea7 64bd 4792 673d
00000090: a22c 12be 80c6 0fbd bc76 203c dccf 973d
000000a0: 4207 873b 45e4 bb3b 41a2 16be 0181 b2bd
000000b0: 6d95 af3d 3ef3 c73c e27e 2a3d a9cf 44bd
000000c0: 363c 36bd c493 483d 9d4c 893d 63de adbe
000000d0: 320f ff3c 7109 62bc 8a64 50be 5809 1fbd
000000e0: 87ba 8abc f94a 05bc ee3f 87bd 82d9 0f3e
000000f0: 6267 8dbd e1cb 2e3d e84a 7c3d 9516 8c3b
00000100: aa7a bb3c 8e20 21be 3078 a0bc cde6 e73c
00000110: dab4 90bc 694d 46bd c39e e93c 5456 65bc
00000120: 3ba9 c23d 21f8 57bd 8dc2 893d 94b5 e6bd
00000130: d1a6 55bc 2548 2b3d cf91 cc3d 902d 6abc
00000140: 321b 0fbd 9d17 7f3d fd18 b43b d2b1 a13d
00000150: f687 d7bd 53c4 1b3d 40e7 763d 5567 07bd
00000160: 8f4f ff3c a314 a23c 58d9 04bd 9577 393d
00000170: 3b3d 98bd ea4f 36bd 8a6f 183d 8067 afbd
00000180: 9a64 4ebd 9422 6d3d 62f1 55bc 0003 40bd
00000190: d7ef 29bc b398 b1bd f73a 99bc e9e6 85bd
000001a0: 7799 7f3d 109b 8dbe 803f 873c 5f1e 393d
000001b0: 272f 573d 3a29 ad3d 8f88 463d 5143 de39
000001c0: 041f 81ba bce6 10bd 322d 68be b425 253d
000001d0: b38f 833d 5ae9 0cbd 92fb 6abd 1c37 183d
000001e0: db07 46bd 6e8b 2a3d 1d0f 6dbd 1477 8bbb
000001f0: 9006 143d bb7c 01bd 4087 a2bd 65fd f4bc
00000200: a1f0 7abb 52b0 f9bc 9e85 dc3c 63a6 13bd
00000210: 3385 8cbe aaf0 e5bc 25d3 1e3c 09db 933d
00000220: ee4d 2c3d 2976 403d befd ea3c 5b94 e63c
00000230: 2566 8eba 19f9 0bbd 09d3 b8bc 9c6d c2ba
00000240: cf59 b63d ea17 c3bc b42c 803d 393a 18be
00000250: 136f 10bd d1b4 04bd e749 4abd 6784 833c
00000260: 6af6 4f3d 8690 51be e35d a73c 2f26 7f3d
00000270: 55b9 16be ce67 313d 5ea0 753d 4157 2fbd
00000280: 4911 3d3c 27f0 17bd cc8d 6cbd 5f81 b8bd
00000290: f003 cd3b 8b45 a63d 301b 0a3c 72e7 c93d
000002a0: bf08 0a3e 0492 883d b7f6 5dbd b48f 543d
000002b0: 140d 1ebc 8677 aebb 24dd d5bc 743d 8b3d
000002c0: cad2 713d 0d84 603d fc14 813d 5c43 903a
000002d0: effa bebd 50ab 0d3d b4ec d53c 91cc 19bd
000002e0: 3c13 78bd 29df 003c 8755 16be c6dd 383d
000002f0: b86d 953d 7996 8f3d a340 2b3d 71f9 57bc
00000300: 7c27 27bd f5c4 0ebe aeb2 01be 9136 f6bc
00000310: 252f 643b 4e1b 8a3c 5925 9c3d 91d1 823a
00000320: c3e5 efbc c4ec ea3c 2308 f0bd 9cab 203d
00000330: fdd3 4aba e11c 233d a036 8cbd 49bf 4d3d
00000340: d8e5 7dbc 3eac eabd b7ab 00bd 11b7 abbd
00000350: f7e6 1bbb 3f04 41bd 9090 d53b 803a 323d
00000360: 0f9f 443d 7a28 09bc d0d1 013c 2f87 24bd
00000370: 150e 8c3d 0f15 1d3d b090 c93d d4fb 05bf
00000380: e32c 313d ab03 553c 4d77 833d 6cab d2bc
00000390: 8e5d 9f3d b2d5 853d 5060 19bc 022f 193e
000003a0: 49fc 7ebc 42fd a8bb c7dc 983d 6ffa 25be
000003b0: 87dc a5bd a91e 913b 4de2 6abe de7f 98bc
000003c0: e0a3 95bd b293 2e3d 2287 903b 6cee 423d
000003d0: a7b7 34bb 7e57 34bc 0ce0 4dbd 0882 b2bb
000003e0: 9539 96bc 798a b63a a11b 8a3c 7e1a 0c3d
000003f0: 9741 823d 499e 1a3d b638 82bc 1f15 71bd
0.060683414 0.02637158 -0.077915445 0.0022267655 0.017753411 -0.023297865 -0.007555154 -0.19328861
0.011039733 -0.005872057 0.031160144 -0.03677795 -0.0661982 -0.14594549 -0.10057284 -0.12600735
-0.026183873 -0.017739566 -0.007242769 0.07742626 -0.021846423 0.047193214 -0.085352354 -0.015701888
-0.031730406 0.07920695 0.072267756 0.008933628 -0.03105849 0.040353008 0.035688836 0.09325532
-0.043924745 -0.23736358 -0.055823617 0.056535985 -0.14274839 -0.035101414 0.0097939335 0.07412693
0.0041207382 0.005733999 -0.14710332 -0.08716012 0.085734226 0.02440798 0.04162491 -0.048049603
-0.044491015 0.048969045 0.06704066 -0.3395873 0.031135175 -0.013796196 -0.20350853 -0.03882727
-0.016934646 -0.008135551 -0.066039905 0.14047816 -0.06904484 0.042674903 0.061594874 0.004275153
0.02288564 -0.15735075 -0.01958856 0.028308297 -0.017664362 -0.048413668 0.028518086 -0.013997633
0.095049344 -0.05272687 0.06726561 -0.11265102 -0.01304026 0.04181685 0.09988748 -0.0142930895
-0.034938045 0.06227838 0.005496143 0.07895245 -0.10523979 0.038029026 0.06027913 -0.03305753
0.031165866 0.019785231 -0.032433838 0.045280058 -0.07433554 -0.044509806 0.037215747 -0.08564663
-0.05038891 0.057894304 -0.013058038 -0.04687786 -0.010372124 -0.08671703 -0.018704874 -0.06538183
0.062402215 -0.27657366 0.016509771 0.04519498 0.052535202 0.08455129 0.048470076 0.00042393294
-0.0009851162 -0.035376295 -0.2267349 0.04031916 0.06423893 -0.03440223 -0.057368822 0.03716193
-0.048347335 0.041636877 -0.05787574 -0.0042561386 0.03613907 -0.031613093 -0.07935953 -0.029905984
-0.0038290399 -0.030479584 0.026919182 -0.03604735 -0.27445373 -0.02806886 0.0096938955 0.07219512
0.042066507 0.046987686 0.028685447 0.028146913 -0.0010864182 -0.034173105 -0.022561567 -0.0014833692
0.089038484 -0.023815114 0.062585264 -0.1486596 -0.03526218 -0.032399002 -0.049386885 0.016054345
0.05077211 -0.20465288 0.02043051 0.062292274 -0.14719136 0.043311886 0.05996739 -0.04280782
0.011539766 -0.03709426 -0.057752416 -0.090090506 0.006256573 0.08118733 0.008429334 0.09858598
0.13479899 0.06668475 -0.054190364 0.05189486 -0.009646673 -0.005324307 -0.026106425 0.06798831
0.059038915 0.054813433 0.063028306 0.0011006403 -0.093252055 0.034587204 0.026113845 -0.037548605
-0.06056522 0.0078657055 -0.14681064 0.045133375 0.07296318 0.07011122 0.04180969 -0.01318203
-0.04080914 -0.1394232 -0.12665817 -0.030055316 0.003481814 0.016858723 0.07624311 0.0009980669
-0.029284364 0.028677352 -0.11720302 0.03922616 -0.0007737277 0.039822463 -0.068463564 0.050231252
-0.015496694 -0.11458634 -0.03141376 -0.083845265 -0.0023788789 -0.04712319 0.0065174773 0.04351282
0.048003253 -0.008371467 0.007923558 -0.040167984 0.068386234 0.03835016 0.0984205 -0.52337384
0.043255698 0.013001363 0.06419239 -0.025716506 0.07781516 0.065349 -0.009361342 0.14959338
-0.015563079 -0.005157144 0.07463985 -0.16208814 -0.08098703 0.004428704 -0.2293789 -0.01861566
-0.07306647 0.042621322 0.0044106403 0.047590658 -0.0027575286 -0.011007188 -0.050262496 -0.00544763
-0.018338004 0.0013926766 0.016858878 0.034204952 0.063601665 0.03774861 -0.015896183 -0.058858033

encoder.encoder.12.bias f4 [16]
00000000: de66 13bd c6fa 78bc 84fe b4bc 8287 38bc
00000010: d8b3 ca3b 8e12 073d dbf0 26bc d6e7 e1ba
00000020: b708 863c 0018 d4bb a4cf ab3c 7b06 9b3c
00000030: 1796 17bc 705a adba 2c73 a43b 68ff 103a
-0.035986774 -0.015196508 -0.022094019 -0.011262776 0.00618599 0.03297668 -0.01018926 -0.001723523
0.016361577 -0.0064725876 0.020973034 0.018923989 -0.009252093 -0.0013225805 0.0050186124 0.00055312226

encoder.encoder.13.weight f4 [16]
00000000: a242 6f3f 0338 803f 8f9a 7c3f f422 7b3f
00000010: 4251 783f bf67 7d3f 344a 783f 007c 7a3f
00000020: 3589 843f dfa0 803f bdb5 803f 467b 763f
00000030: dfb1 743f b39b 873f 290a 7e3f d9d4 773f
0.9346105 1.0017093 0.9867334 0.9810021 0.9699899 0.9898643 0.96988225 0.9784546
1.0354372 1.0049094 1.0055462 0.9628185 0.9558391 1.0594391 0.99234253 0.96809155

encoder.encoder.13.bias f4 [16]
00000000: d214 4dbd f230 95bc d939 a9bc 011f 95bb
00000010: 1537 283d 78e5 5b3d 3e66 1cbc 1974 603c
00000020: eb6e cbbb d067 db3c 2154 8f3d d0a9 b63c
00000030: ac1e 01bd b04b 553b ba2e ce3c e90f d8bc
-0.050068684 -0.018211816 -0.020657467 -0.004550815 0.041068155 0.053685635 -0.009545861 0.013699555
-0.006208291 0.0267829 0.06998468 0.02229777 -0.03152339 0.0032546334 0.025168765 -0.026374774

encoder.encoder.13.running_mean f4 [16]
00000000: 0bbf bbbe e254 503f fcce 4f3e bb80 92be
00000010: 8ce7 b1bf 0634 c73e 6124 bfbe 5b88 94bf
00000020: 3825 a03d 22f4 4abf 849c a4bf 7364 9fbe
00000030: 8b75 03be 0cf3 4e3f f573 2fbf 6daa 023f
-0.36669192 0.8137952 0.20293802 -0.2861384 -1.3898787 0.38906878 -0.37332442 -1.1604112
0.07819599 -0.7927877 -1.2860265 -0.31131324 -0.12837808 0.8083961 -0.6853631 0.510413

encoder.encoder.13.running_var f4 [16]
00000000: d376 1a3f 32e2 103f 6718 5c3f 2233 2b3f
00000010: 0129 083f cd49 883f dbc2 1c3f 6143 133f
00000020: a894 143f d3cc 003f 972f 063f 3f80 b53e
00000030: 5e4c 013f 72f1 213f 29f2 3b3f 6331 193f
0.6033756 0.56595147 0.85974735 0.668749 0.53187567 1.0647522 0.61234826 0.5752469
0.5803933 0.50312537 0.52416366 0.35449407 0.5050715 0.6325904 0.7341638 0.59840983

encoder.encoder.16.weight f4 [1, 16, 2, 2]
00000000: 7ab8 da3d a23f 073d a560 a3bc 9d01 93bd
00000010: 1826 093e 25e4 f23b e4fe 43bd 982c a83b
00000020: 5b02 cf3d 12cc febd 4a8d 26bd 19c1 0abe
00000030: ac08 373d 7646 653d 35e7 bc3d 604a 1fbd
00000040: 6f78 9a3d 8f3c 56bd 4e33 083d e26c b93d
00000050: 715e 35be d51e 673c 86aa d2bd d4fc 593d
00000060: 0eca 2dbe 58a2 0fbd 0668 d13d 050e 953d
00000070: dbc6 933d 47e9 8f3d 7e00 f13d 5edf f3bc
00000080: 1c22 563c f78a 703d ff7f 84bd 74b5 333e
00000090: 115e b03c caf0 7a3d e74b 7b3d bc2b e53d
000000a0: 39c8 a9bd 76c7 b5bc 23c0 b73d 3bec 6d3d
000000b0: 0bbd 83bd 7389 c8bc c89d 2d3d 0241 be3c
000000c0: 5aad e93a c513 57bd 7531 00bd cea1 4abd
000000d0: 415d d43b 448a 773a b527 323c 27a8 64be
000000e0: 395f 49bd 5b91 703d 9ba2 993d f7b9 903d
000000f0: 661b 583c 0d44 27be 83b0 53bd 5f6f 95be
0.10679717 0.03301967 -0.019943545 -0.07178042 0.13393438 0.007412451 -0.047850505 0.005132269
0.10107871 -0.12441267 -0.040662088 -0.13550223 0.044686005 0.0559754 0.09223787 -0.03888929
0.07542502 -0.052303847 0.033252053 0.09053971 -0.17711808 0.014106472 -0.10286431 0.05321963
-0.16971609 -0.035066932 0.10224919 0.07278065 0.07215663 0.07026916 0.11767672 -0.029769596
0.013069656 0.058726277 -0.06469726 0.17549688 0.02152923 0.06126479 0.061351683 0.11189982
-0.082901426 -0.022189837 0.08972194 0.058086615 -0.064325415 -0.024479603 0.0423868 0.023224358
0.0017828152 -0.052509088 -0.031297166 -0.049470715 0.0064808433 0.00094429054 0.010873725 -0.2232977
-0.049163077 0.05873237 0.07501718 0.0706672 0.013190126 -0.16334553 -0.051682007 -0.29186532

decoder.decoder.0.weight f4 [1, 16, 1, 1]
00000000: bbc8 4f3c 6243 fa3d 677b 093e 49f4 af3c
00000010: 33c5 343e d437 55bd 8b2e fabd 007b 0dbe
00000020: ccb3 b6bd d9d8 14be e7d4 0fbe 3aff a73d
00000030: 4ff6 cb3d 1319 10be e0d3 29be 48ed 1a3e
0.012682135 0.122198835 0.1342598 0.021478789 0.1765335 -0.052055195 -0.122159086 -0.13816452
-0.08921012 -0.14535846 -0.1404606 0.082029775 0.09959089 -0.14072065 -0.1658473 0.15129578

decoder.decoder.0.bias f4 [16]
00000000: 82c7 083c 04de cabb ddf5 8ebd f4f8 c13c
00000010: 1845 91bc 00df 3abc 9fd2 cbbb 8078 a03c
00000020: 2957 edbc c4d7 6fbb f16b c8bb b559 04bd
00000030: 77b8 2bbd 05fb 393c 5e1a 603d 9361 b5bc
0.008348348 -0.006191017 -0.069804884 0.02367828 -0.017733142 -0.011405706 -0.0062201764 0.019588709
-0.028972225 -0.0036597112 -0.0061163832 -0.032312114 -0.041923966 0.011351352 0.054712646 -0.022141254

decoder.decoder.1.weight f4 [16]
00000000: df65 c83b 7a14 803f dfd4 2d3f 6030 6f3f
00000010: 4929 763f 40ef 6a3f f4be 6d3f ffbe 903f
00000020: 764a 603f 0ea4 643f c76c 773f 1482 943f
00000030: 4755 553f f66b 663f 1fab 6f3f 6edf 873f
0.0061156596 1.0006249 0.6790294 0.9343319 0.96156746 0.91771317 0.92869496 1.1308287
0.8761362 0.8931283 0.96650356 1.1602197 0.8333325 0.90008485 0.93620485 1.061506

decoder.decoder.1.bias f4 [16]
00000000: 2735 99bc c03c 06bd 41bc b2bc c7e9 4fbc
00000010: c56a 1bbc 9235 64bc 2865 63bc 663d f33c
00000020: 6b95 0bbd 6f67 86bc cb1c 57bb 7a49 b4bc
00000030: afd3 94bc 7f1d 69bc 7013 6abb 0274 7abb
-0.018702103 -0.03277278 -0.021818282 -0.012690014 -0.009485905 -0.013928788 -0.013879098 0.029692363
-0.034078043 -0.016406743 -0.0032823558 -0.022007693 -0.018167345 -0.014228224 -0.0035717152 -0.0038216119

decoder.decoder.1.running_mean f4 [16]
00000000: 33dc c83c 3e18 963e 8095 a33e a9b7 503d
00000010: c252 c23e a601 29be 8d61 8abe 13e0 44be
00000020: e0a8 56be 891d 8bbe b16d 91be 0c53 ed3d
00000030: 4232 6f3e debc 8dbe 3c31 a5be fc9a 933e
0.024519062 0.2931537 0.31949997 0.050956402 0.37953764 -0.16504535 -0.2702755 -0.19226103
-0.20962858 -0.2717097 -0.28404 0.115881056 0.23359016 -0.27683157 -0.32264125 0.2882918

decoder.decoder.1.running_var f4 [16]
00000000: bbb4 1539 b174 833c cfcc e13c d852 ae38
00000010: fbc2 083d 5948 cf3b 9cba 8a3c bd70 103c
00000020: 5b72 253c 00bd a33c 0227 993c b3e8 4e3b
00000030: f170 523c f63c b93c 3e43 103d 1bed a73c
0.00014277075 0.016046854 0.02756348 8.3123974e-05 0.033389073 0.006325763 0.016934685 0.008815941
0.010098065 0.019987583 0.018695358 0.0031571805 0.01284431 0.022612076 0.035220377 0.020498803

decoder.decoder.4.weight f4 [16, 16, 3, 3]
00000000: 8e79 253c 2dc7 6e3b 0dad 36bc c89f 4a3c
00000010: 0adb 43ba 1173 debb 018c a2ba 0376 69bb
00000020: 736e 51bb 615c d33b 9c9f 61bb 6110 16bc
00000030: bc4d 5d3c c565 713c 3e54 9a3b 6d36 a93c
00000040: e812 bc3c 31eb 583c dc0f 2fbb 1cc4 2dbb
00000050: e09e e4a1 5b10 053c 00a0 043c dbf0 a013
00000060: 515b ac3b 555b ac3b 4abf 2094 2d52 f23b
00000070: 230b f33b 3f5f 7424 d335 a93b 5b96 b8bb
00000080: ec60 31bc ba09 f8bb c5d7 8dbc 5459 5cbc
00000090: 9ca2 08bb 2964 de3a 3b6c 043c fe55 8bbb
000000a0: 5458 aabb d09b b3bb 5d04 79bc 8d87 b4bc
000000b0: dfd2 71bc 6271 3da7 1427 f43a 40cd 173b
000000c0: fe9f 093c fbac e9bb 012d 26bc 1cd4 ad3b
000000d0: 108b 5ebc 7684 6bbc 67dc c7bb f3c2 76bb
000000e0: a445 213b c644 c9bb 588c ba3a ca70 aa3b
000000f0: 79a4 3d3b 04b1 83ba 9b92 52bb 065d ab3b
00000100: e740 29bc c453 71bc d057 233b 5158 82bc
00000110: 547b 9bbc 62ab 5513 3342 aa3a 0a4a aa3a
00000120: fd6a 073c 22a9 913c ad62 893c 0485 5d3b
00000130: 5647 603c 9d8b 6e3c c362 7412 67ff a03b
00000140: 63ff a03b 44a5 053b 27af 903a 2606 fcbb
00000150: 298a 90bb a727 a6bb cfe5 46bb 66bd 5ebc
00000160: 88b7 56bc ddfb 9e39 5a56 d13b 7b65 8c3b
00000170: 85b9 373a e76b 4bb9 83f9 0bbb f8dd 36ba
00000180: 64f0 6ebc c1f0 6ebc d3c7 1313 1cd7 0113
00000190: 3bd8 aa93 6fae 1c91 d921 93bb 1f59 3dbb
000001a0: 696a 7bbb d12f dabb a925 8bbb b86f 5cbb
000001b0: 0f2a 15ba 5f94 bebb 1a84 bbbb f936 2239
000001c0: b256 14b8 10bd 423a 9cdc d291 7fa9 c23b
000001d0: 8aa8 c23b 19a4 0e9b c15b 143b 10ef 133b
000001e0: bf5a 093c 3e61 003c 15da a73b a226 653b
000001f0: c426 653b 6d49 3412 0535 473b f189 3b3b
00000200: 956c 7fa2 e6d8 79ba b899 3fbb 04d6 83bb
00000210: 67e5 baba ee54 4fbb dd03 15ba 7b3c a3a4
00000220: 6274 25ba 2848 26ba c661 dda2 9307 8a3a
00000230: 96ca dc3a 10dd 6494 f71a b93a 061b b93a
00000240: cf23 4033 6f0e 23b3 8e8c 5232 2999 993d
00000250: 5c5f 913d 63e0 b2bc 57f9 0835 f97a cdbd
00000260: 92b1 cabd 2500 07be da85 c03c 1878 d43d
00000270: 6607 91bd dcf6 e3bd b61b 17bd fa75 843d
00000280: 3538 813d 537a 1f3c 446b 213d 57ed 923d
00000290: ec3a acbb 3db4 5cbd ceaa a7bd c371 19b5
000002a0: 0b99 543d b424 4a3d 049f acbb 9689 e4bd
000002b0: 7ffc a7bd 93a8 26b4 19fb 4cbe 384e 66bc
000002c0: a4f9 943d 4acb 05ba 86a6 1d3c 1d42 813c
000002d0: 43d6 8dbd cd64 f3bd 2c53 33be cfe5 46be
000002e0: 61a5 69bc 9f90 b43c 3bd1 5dbd cd92 17bc
000002f0: 884a 1f3d e40c 8e33 d506 153d 8e43 e7bc
00000300: d5df adbd a548 b3bd eee7 0d33 5331 00b3
00000310: c9a5 c6b2 b04d 8eb2 762f 033e 16ce 373d
00000320: fdb8 8f3c 9013 9d3d a899 1c3d 948a dabc
00000330: 0bd3 3f3c 4afb 2c3d 1ed8 0e3d 6196 8d3c
00000340: 9668 653d ebd9 ae3c 2f80 3f3b 6c4d 2f3c
00000350: a4d7 66bd 7653 6433 fc42 d73c 865b df3c
00000360: acc1 c6bd 86de cebd befa 8bbc 857f 6c3b
00000370: 434f fdbd fb3f 36bd 5e71 9733 e20a 12bd
00000380: e10a 12bd b7cd e5bd df38 64be 802f 5d3d
00000390: cbef 0380 d2f5 0400 830e 0480 9c01 9bbd
000003a0: 9901 9bbd c918 b4b3 8eed 763d 5f8b f6bc
000003b0: 9f72 cbbd d740 58bb c47a fc3c f558 a6bb
000003c0: 87ab b7bc 6dad b7bc c7f2 eb34 84fe 5a33
000003d0: 8d53 25b4 a9ff e733 b247 33bd cc52 c8bc
000003e0: 4993 963a 2f0e 093c 4e2f 033c 3331 f33b
000003f0: 744f dbb3 14c2 a93a 3137 ff38 b134 e7bd
0.010099782 0.0036434636 -0.011149657 0.012367196 -0.0007471299 -0.0067886193 -0.0012401344 -0.003562332
-0.0031956702 0.0064502214 -0.003442741 -0.0091591785 0.013507303 0.014733736 0.0047097495 0.020655835
0.022958234 0.013239668 -0.0026712334 -0.0026514595 -1.5491935e-18 0.008121575 0.008094788 4.062718e-27
0.005259909 0.005259911 -8.115661e-27 0.00739505 0.007417099 5.2989743e-17 0.005163887 -0.005633158
-0.010826331 -0.007569519 -0.017314801 -0.013449032 -0.0020848876 0.0016967106 0.008082445 -0.0042521944
-0.005198518 -0.005481221 -0.015198794 -0.022037292 -0.014759748 -2.6290484e-15 0.0018627369 0.002316311
0.0083999615 -0.0071312166 -0.010142566 0.0053048264 -0.01358296 -0.014374843 -0.006099272 -0.003765282
0.002460816 -0.0061422316 0.00142325 0.005201434 0.0028937145 -0.0010047262 -0.003213084 0.005229595
-0.010330415 -0.014729444 0.0024924167 -0.015911253 -0.018979706 2.6968878e-27 0.00129897 0.0012992036
0.008265254 0.017780844 0.016770685 0.0033801207 0.013688883 0.014559654 7.7114558e-28 0.004913259
0.004913257 0.0020392695 0.0011038528 -0.0076911626 -0.004411001 -0.005070645 -0.003034938 -0.013594961
-0.013105281 0.0003032376 0.0063884677 0.0042845584 0.00070085406 -0.00019399785 -0.0021358437 -0.0006975825
-0.014583681 -0.014583767 1.865253e-27 1.6388146e-27 -4.3127253e-27 -1.2359982e-28 -0.004490119 -0.0028892232
-0.0038362986 -0.006658532 -0.004246433 -0.0033635926 -0.0005690166 -0.005816027 -0.005722535 0.00015470003
-3.536669e-05 0.0007428685 -3.326812e-28 0.0059406157 0.0059405016 -1.1798988e-22 0.0022637697 0.0022572912
0.008383452 0.007835684 0.005122433 0.0034965654 0.0034965733 5.688849e-28 0.0030396592 0.0028616155
-3.4616427e-18 -0.00095309166 -0.002923591 -0.0040233154 -0.0014259041 -0.0031636315 -0.00056844746 -7.079244e-17
-0.0006311593 -0.00063431496 -6.000569e-18 0.0010530822 0.0016845043 -1.1554655e-26 0.0014122416 0.0014122433
4.473605e-08 -3.7964522e-08 1.2255567e-08 0.07499916 0.070982665 -0.021835512 5.1026785e-07 -0.10033221
-0.0989715 -0.13183649 0.023501325 0.103744686 -0.07081489 -0.11131069 -0.03689166 0.06467815
0.06309549 0.009733754 0.039408937 0.07174175 -0.0052560475 -0.053882826 -0.08186875 -5.7162487e-07
0.051903766 0.04935141 -0.0052679796 -0.11159055 -0.08202457 -1.5521282e-07 -0.20017661 -0.014056735
0.07274178 -0.000510384 0.009622222 0.015778596 -0.06925633 -0.118844606 -0.17512196 -0.19423603
-0.014260621 0.022041617 -0.054154616 -0.009251309 0.038889438 6.614735e-08 0.03638347 -0.028230455
-0.08489958 -0.0875409 3.304006e-08 -2.9847183e-08 -2.3125624e-08 -1.6566304e-08 0.12811074 0.044874273
0.017544264 0.07669747 0.038232476 -0.026677407 0.011708031 0.042231835 0.034874074 0.01728362
0.056007944 0.021344146 0.002922069 0.010699611 -0.056357995 5.3161294e-08 0.026277058 0.027265321
-0.09704909 -0.10101037 -0.017087337 0.003608675 -0.123686336 -0.04449461 7.052107e-08 -0.03565491
-0.035654906 -0.112208776 -0.2228732 0.054000378 -3.61528e-40 4.55526e-40 -3.72548e-40 -0.07568666
-0.07568664 -8.3864116e-08 0.060285144 -0.030095754 -0.099339716 -0.0032997632 0.030820258 -0.0050765225
-0.022420658 -0.022421563 4.3948805e-07 5.098856e-08 -1.5397218e-07 1.080328e-07 -0.043769546 -0.024453543
0.0011487986 0.008365198 0.008006884 0.0074216365 -1.02124346e-07 0.0012951517 0.00012169628 -0.11289347

decoder.decoder.4.bias f4 [16]
00000000: 28be bf3a 6e47 773c b38d fe3c 2d89 8d3d
00000010: 2a94 dc3c 162e 163c 4e71 81bb 5b1d 153d
00000020: 7f8e 753c e5a9 633d 40ec 123d 708e 0f3d
00000030: d0fb 973b d028 58bd 6167 47bc 549d a3bb
0.0014628815 0.015092714 0.031073427 0.0691093 0.026926119 0.009166261 -0.0039502745 0.03640495
0.014987587 0.055581946 0.035869837 0.03504795 0.0046381727 -0.052773297 -0.012170644 -0.00499312

decoder.decoder.5.weight f4 [16]
00000000: 9de6 743f 7432 693f 6a69 713f 6c6d 7a3f
00000010: 5e4e 813f f901 8b3f dcb6 703f fe36 623f
00000020: 1a90 793f 430a 843f 4266 7a3f c079 783f
00000030: 41f8 753f bed3 7e3f 9f20 7f3f a369 803f
0.9566439 0.9109261 0.94301474 0.97823215 1.0102041 1.0859977 0.9402902 0.8836516
0.97485507 1.0315632 0.97812283 0.97060776 0.9608193 0.9954184 0.9965915 1.0032238

decoder.decoder.5.bias f4 [16]
00000000: 9235 bc3c 3522 a13a af91 ea3c cb5c a83d
00000010: 1626 db3c d9b1 083d 6951 92bb 39fa c33c
00000020: a6e3 a03c 8c75 883d 5a21 603d e559 4d3c
00000030: 32fe 9fbb 3271 63bd 202e 21bc 18c4 e7ba
0.022974763 0.001229352 0.02863392 0.08220824 0.02675156 0.033372734 -0.0044652713 0.023923026
0.019639801 0.06663045 0.054719307 0.01253364 -0.0048825974 -0.055527873 -0.009837657 -0.0017682342

decoder.decoder.5.running_mean f4 [16]
00000000: 07f8 553c f42c b8b8 761c 53be 55e2 e4bd
00000010: b5af 46bd 563e 43be 52b0 8f3d 5ac6 a33d
00000020: 7fae fa3d 5269 bd3d c921 82be 8619 2b3e
00000030: e566 74be 565f e53d 9394 293e d4b8 90bc
0.013059623 -8.782177e-05 -0.20616326 -0.11175982 -0.04850741 -0.19066748 0.07016052 0.07996817
0.12240314 0.09248604 -0.254164 0.16708955 -0.23867376 0.111998245 0.16560583 -0.017666258

decoder.decoder.5.running_var f4 [16]
00000000: d6b2 6b3d 5a1b 833d 5fb1 363d 55c6 183d
00000010: 459b a63d 476a 333d 7916 323e 264f 8f3d
00000020: ea53 3f3e 976b fc3d 0a67 813d 1e75 243d
00000030: efaf 4c3d b1f5 a53d a51c f23d 0f2e 933d
0.057543598 0.06401701 0.044602748 0.03729852 0.08135084 0.043802526 0.17391385 0.06997518
0.18684354 0.12325209 0.06318481 0.040150754 0.04997247 0.081035025 0.1182187 0.07186519

decoder.decoder.8.weight f4 [16, 16, 3, 3]
00000000: fbdb fb3c 8c4f 3dbd 4ca2 683d 3f9e 223d
00000010: 2132 ae3c 739f b6bb dec3 84bd 7571 953b
00000020: 747c 2a3d 1ab1 0f3d 0465 b2bd f077 8bbd
00000030: 4619 453d 95d0 6b3c e590 ad3c 6d94 67bd
00000040: 5a93 5bbb 944f e1bc 32cd eabc 3ed1 d4bc
00000050: 2d43 123b eb2e b7bc eb1f 0fbb 8c66 033d
00000060: a855 5d3d 86a2 b33d 1cf9 22be de4c 6c3d
00000070: 94f2 813d c105 83bc 7114 cd3c c64d 05be
00000080: 8803 f73c 530c f53d ea0e 2ebb 6258 ac3d
00000090: 8a9d 6abd 11d9 f83c dd40 a83d 93de 013d
000000a0: d5e2 a0bb e525 aebd 2ac2 1dbd 66f8 8c3c
000000b0: b7d6 a0bd 7a2e 6bbd 3c3f e2bb ee87 afbd
000000c0: 04f6 213d 81fd 903c aeb7 efbd f173 003d
000000d0: e7b0 31bd 7790 82bd e9d2 34bd 1bfa 713d
000000e0: 20d2 ddbd 1746 853c 9382 033e 354c a03d
000000f0: 5c92 a43d 4f71 2b3c 86bb 28be 7a5e 19bd
00000100: d039 543d a294 0e3d 609a a83d 3d2a 4bbd
00000110: 00c8 e33c 3c83 9cbd d0cc 03be 5998 b9bd
00000120: ebae 573d 41f0 ccb9 a88b 753d 3fc6 a8bd
00000130: 3db0 e13c 6f23 7fbb 526c 013c 1414 763c
00000140: c055 8abd f437 f1bd cf23 4ebd 10e9 7bbc
00000150: c2f6 5f3c 7032 1bbd fa79 c3bd 9c74 433d
00000160: 9c52 c6ba 68d1 e33d 8826 bebd a306 2ebe
00000170: 48f6 d53c cac4 62bd 180e 94bd 18a3 37bd
00000180: 4ad2 8a3c 1876 de3c 1889 4dbc 5a17 07ba
00000190: b792 f43d dd17 d5bd a2c8 ecbb 9a35 bc3d
000001a0: f46f 71bb d0d6 c53a 1333 7ebd 32c4 c7bd
000001b0: af38 9bbd 2c28 dc3c 13cf 903b 0635 5abd
000001c0: ff8c a63d e88b 813d b254 80bc d37d 96bd
000001d0: 70b9 15be b47c 663c 6c71 6cbd 2614 513d
000001e0: 1cdb 87bc aa8c e73d 304e 90bc e6ea 04be
000001f0: cd6a b53b 2b42 babd d28d 4cbc 0440 acbb
00000200: d31f ddbb dff9 a4bd b826 c2bd 2419 04bc
00000210: 85c5 563c 2515 c43c 0439 5a3c abfc 143c
00000220: 1f7a bb3d 2c40 0d3d ec59 7e3d 9031 53bc
00000230: 558d 2d3d c9cc 9e3c 5fce bfbd be0a 38bd
00000240: 082b 37bd 02c3 6b3c 2764 0f3d 5f5b e83d
00000250: 1fb3 383d a5ff dfbd ce33 a8bd 3538 50bd
00000260: 3ccf 0d3d 8141 cc3d c9e3 90bd 0e18 d5bc
00000270: 9f86 613d 7deb 06bd 3907 c03c b8e6 0bbd
00000280: 01df 59bd d622 febc 5e75 4d3c f8b6 fdbb
00000290: 943d 163d 6d5f 33bd 4cce 25bd f031 e53c
000002a0: ac78 04bd 7f06 243d 222a 803d 4fa5 bdbd
000002b0: fcab e4bd 81cf d43c ec80 15bd 9690 a63c
000002c0: 0646 fe3c 49b3 5ebd d030 b73a 6ce0 4ebd
000002d0: dc17 52bc 9fb5 663d 3ff5 163d 3828 a23c
000002e0: b08c 203d 5876 b13c d308 8dbc 5a4e 14bd
000002f0: 3507 20bd e975 dc3c 7914 e7bd 13f6 6cbb
00000300: ec6e 64bd 9fcf eebd 8994 533c c060 983c
00000310: 80eb 003d 21a1 a0bd bbd4 6dbb ef0c 893d
00000320: 9995 153b 5270 973d 66b1 a0bd 20bb a2bb
00000330: dca6 91bc 8905 f9bd e7c8 123d cd83 863c
00000340: 38c3 65bc 9008 80bd 43cc c1bc d883 103d
00000350: 5b2f b83c 21f3 36bd 1a5b 36bd da65 20bd
00000360: 0144 d2bd 0700 68be 05bc 72bc a695 be3c
00000370: 6895 70bd 4a85 823d fe5d 373d ca70 acbc
00000380: 4581 6a3d 9e35 fdbd a1ed 39be 6be3 053d
00000390: fa86 c2bb 397e b43c f48c ea3c 6cd6 423d
000003a0: bbcb 743d 5e77 27bd 8c12 e1bd a2ff aabd
000003b0: fad3 7ebd 201b 793d 31ae 62bc ca03 9d3d
000003c0: 23a4 a9bd f81f d63c 39e9 953c 4a51 0cbd
000003d0: c561 bdbd b0fc 94bc fb5a eebc 303f a5bd
000003e0: a32d f9bb b1fa 3abd 8ea2 0dbd 50b6 cc3b
000003f0: 10e7 6f3d d5c3 39bd bdd6 08bd a5bc eabd
0.030744543 -0.04621844 0.056795403 0.039701696 0.021264138 -0.005573207 -0.06482671 0.0045606443
0.041622594 0.035081007 -0.087106735 -0.06809986 0.048119806 0.014392992 0.021187255 -0.056538034
-0.0033504576 -0.027503766 -0.028662298 -0.02597868 0.0022317872 -0.02236124 -0.0021839093 0.03208022
0.054036766 0.08771233 -0.1591534 0.057690494 0.06345096 -0.015993955 0.025034161 -0.1301795
0.030153051 0.11965241 -0.0026559182 0.08415295 -0.057279147 0.030376943 0.08215497 0.031706404
-0.004909853 -0.085033216 -0.038515247 0.01720829 -0.078534536 -0.05741737 -0.006904511 -0.085708484
0.03954126 0.017699005 -0.11704956 0.03136057 -0.043381598 -0.06375211 -0.044146452 0.05907641
-0.10831094 0.016268773 0.12842779 0.07827035 0.08035728 0.010464027 -0.16477785 -0.037443615
0.051812947 0.034809716 0.0823257 -0.04960083 0.027805328 -0.076422185 -0.12871099 -0.09062261
0.05265705 -0.00039088915 0.05994764 -0.082409374 0.027549857 -0.0038931032 0.007899361 0.015019435
-0.06754637 -0.1177825 -0.05032712 -0.015375391 0.0136696715 -0.037889898 -0.095447496 0.04771863
-0.0015130821 0.111239254 -0.09284693 -0.16994719 0.026118413 -0.055363454 -0.07229251 -0.044833273
0.016945977 0.02715592 -0.012544893 -0.0005153321 0.11942046 -0.10404942 -0.0072260657 0.09189911
-0.003684041 0.0015093926 -0.062060427 -0.09754218 -0.07579171 0.026874624 0.0044192164 -0.053273223
0.081323616 0.06325513 -0.015665386 -0.07348218 -0.1462152 0.0140678175 -0.057725355 0.051044606
-0.016583972 0.113061264 -0.017615408 -0.12980232 0.0055364133 -0.09094652 -0.0124849845 -0.0052566547
-0.0067481785 -0.08055472 -0.09480041 -0.008062635 0.013108616 0.023935864 0.013319258 0.009093444
0.09154152 0.034485027 0.062097475 -0.012890235 0.042371113 0.019384759 -0.09365534 -0.04493212
-0.044718772 0.014389755 0.035007622 0.11345553 0.0450927 -0.10937432 -0.08213006 -0.050834853
0.034621462 0.099734314 -0.070746966 -0.026012447 0.055060025 -0.032939423 0.023440944 -0.034155577
-0.05319119 -0.03102247 0.01254019 -0.007742759 0.03667982 -0.043792177 -0.040479943 0.027977914
-0.032341644 0.040045258 0.06258036 -0.09260046 -0.11165616 0.025977852 -0.036499903 0.020332616
0.03103925 -0.0543702 0.0013976339 -0.050506994 -0.012823071 0.05632555 0.03685498 0.019794568
0.03919667 0.021662876 -0.017216122 -0.036207534 -0.039069373 0.026911693 -0.11283202 -0.0036157414
-0.055769846 -0.11660694 0.0129138315 0.018600821 0.03147459 -0.07843233 -0.0036290127 0.0669192
0.0022824763 0.0739447 -0.07846336 -0.0049661547 -0.01777976 -0.12159259 0.035836127 0.01642027
-0.014023595 -0.06251633 -0.02365697 0.035281986 0.022483518 -0.04466546 -0.044520475 -0.039159633
-0.10266877 -0.2265626 -0.014815335 0.023264717 -0.058736235 0.06373079 0.044767372 -0.021049876
0.057252187 -0.12363742 -0.18157054 0.032687586 -0.0059365006 0.022032844 0.028631665 0.04756777
0.059764605 -0.04088532 -0.10989866 -0.08349539 -0.062213875 0.060816884 -0.013835476 0.07666738
-0.0828326 0.02613829 0.018299686 -0.03425721 -0.09247164 -0.018186897 -0.029096117 -0.08068693
-0.0076043173 -0.045649234 -0.034578852 0.0062473193 0.058569968 -0.045352776 -0.033407915 -0.11461762

decoder.decoder.8.bias f4 [16]
00000000: 68b2 f53c a937 4738 5986 b0bc c070 5e3d
00000010: 05c9 153c 085d e4bc 5e4e 273c e3e8 9c3c
00000020: 4359 0ebd 2be0 243d 217f b53c 65ca dabc
00000030: e488 50bd 8c35 093d b96e 893c 14d1 b03b
0.029992297 4.7497135e-05 -0.021548437 0.054306746 0.009142165 -0.027876392 0.010211555 0.019154018
-0.034753095 0.040252846 0.022155346 -0.026707837 -0.0509118 0.033498332 0.01677643 0.005396018

decoder.decoder.9.weight f4 [16]
00000000: 04dc 593f b774 5e3f 4ea0 743f f703 7e3f
00000010: 7bb4 7e3f ade2 7c3f 8b27 7d3f 5227 803f
00000020: a25b 5f3f 963f 823f 583b 823f 76df 713f
00000030: d62d 833f 2379 863f bedc 6e3f 570b 7c3f
0.8510134 0.8689684 0.95557106 0.992248 0.9949414 0.9878338 0.9888846 1.0012
0.87249196 1.0175655 1.017436 0.944816 1.0248363 1.0505718 0.93305576 0.98454803

decoder.decoder.9.bias f4 [16]
00000000: bb36 853c b075 1bbd c834 1cbd 6ce2 973d
00000010: d3af 863c d7fc 29bd 8bad 60bc 8adf 8d3c
00000020: 9aef 76bb 3ff3 5d3d b529 233d f109 42bc
00000030: 9a18 83bd 4c3b 333d 5ce1 5f3d 506b ae3c
0.01626145 -0.037954032 -0.038136274 0.074162334 0.016441261 -0.041500892 -0.013713251 0.017318506
-0.0037679435 0.054187056 0.039834697 -0.0118431905 -0.06401177 0.04375772 0.05465828 0.021291405
