AE_model_params.pth (torch, 92557 bytes, 56 tensors)

encoder.encoder.0.weight f4 [16, 1, 3, 3]
0.0106273815 -0.30973154 0.11538121 0.07930266 0.26151988 -0.25161746 0.18820508 0.01822309
-0.035974797 0.17084266 -0.18295692 -0.22939366 -0.19456778 -0.17462601 0.27221555 -0.14301696
-0.08074222 -0.2241898 -0.16008312 0.12609673 0.18145238 0.23440628 -0.0046896487 0.09639646
0.021827428 0.24619442 -0.009605503 -0.07229767 0.08330123 0.20625067 0.25530028 0.045133866
-0.20181258 -0.03805474 0.1173995 -0.25329363 -0.16808406 -0.29356062 -0.030057024 -0.11728732
-0.15503232 0.19843517 -0.20119281 -0.026225567 0.18340743 0.19155788 0.12224828 -0.12450521
0.06057838 -0.17377989 -0.21863692 -0.27786157 0.09330637 -0.2931396 -0.2415492 -0.12685956
-0.11807811 -0.038183667 0.0048358813 0.05133599 0.20685703 0.13179854 0.08605045 -0.23852424
0.2886643 -0.1256596 0.3150664 -0.27439034 0.30690908 -0.20185845 -0.27850294 -0.26958194
0.09584007 -0.09306775 -0.012009997 0.29761437 -0.20890024 0.27687445 -0.1708539 -0.17141426
0.2098079 -0.2681708 -0.13606167 0.059596937 -0.3009891 0.24171518 0.14568797 0.2254644
-0.03385863 0.07521715 0.20891532 0.2678935 0.26696992 -0.057998642 -0.09955811 -0.22899993
-0.2501057 -0.010822195 -0.079067685 -0.20659345 0.012707354 -0.18307646 0.09050098 -0.29436183
0.043525793 0.045159258 0.35331532 -0.28586206 0.22420792 -0.3239793 0.12799032 -0.11542632
-0.23503911 -0.13792072 -0.09172579 -0.13418747 0.024569724 0.118173696 -0.11431507 0.26429892
-0.1768427 0.2247352 0.24622403 0.33285877 -0.10154358 0.25468406 0.014996172 0.1563798
-0.21090178 -0.13555303 -0.31651232 -0.3028305 0.10940331 0.022111008 -0.016669706 0.11834355
-0.078649856 0.28124076 -0.20354521 0.07400163 -0.11608475 -0.058639154 0.03244338 -0.22919486
00000000: 781e 2e3c 2295 9ebe fc4c ec3d 6f69 a23d
00000010: efe5 853e 01d4 80be d5b8 403e 9748 953c
00000020: 4f5a 13bd 61f1 2e3e 0f59 3bbe 2ce6 6abe
00000030: c73c 47be 29d1 32be d65f 8b3e 0a73 12be
00000040: 2d5c a5bd 0392 65be d4ec 23be 801f 013e
00000050: a7ce 393e 3308 703e a0ab 99bb 826b c53d
00000060: 6fcf b23c 641a 7c3e 6660 1dbc cd10 94bd
00000070: d699 aa3d 6033 533e b8b6 823e 4ade 383d
00000080: f5a7 4ebe 49df 1bbd 266f f03d b4af 81be
00000090: 3a1e 2cbe 944d 96be 263a f6bc 5634 f0bd
000000a0: cbc0 1ebe 9732 4b3e 7d05 4ebe 00d7 d6bc
000000b0: 28cf 3b3e c027 443e 4e5d fa3d 96fc febd
000000c0: 0921 783d 5bf3 31be 5be2 5fbe df43 8ebe
000000d0: 6917 bf3d 6516 96be ac58 77be 79e7 01be
000000e0: f0d2 f1bd 7a66 1cbd 5076 9e3b b045 523d
000000f0: 54d2 533e 32f6 063e 383b b03d b33f 74be
00000100: cfcb 933e e9ac 00be 6250 a13e e47c 8cbe
00000110: 3023 9d3e fbb3 4ebe f097 8ebe a506 8abe
00000120: cc47 c43d 4e9a bebd 94c5 44bc e960 983e
00000130: f2e9 55be 7dc2 8d3e 53f4 2ebe 3887 2fbe
00000140: e2d7 563e af4d 89be c053 0bbe eb1b 743d
00000150: 3e1b 9abe 2f84 773e 3a2f 153e 24e0 663e
00000160: 59af 0abd 730b 9a3d e6ed 553e 5629 893e
00000170: 48b0 883e fc8f 6dbd 1fe5 cbbd f57e 6abe
00000180: db0d 80be 934f 31bc 3dee a1bd 3c8d 53be
00000190: 8132 503c 6578 3bbe 9458 b93d 98b6 96be
000001a0: 1a48 323d eaf8 383d bfe5 b43e 835c 92be
000001b0: c396 653e 9de0 a5be e50f 033e a264 ecbd
000001c0: 18ae 70be 173b 0dbe bbda bbbd 7168 09be
000001d0: 7246 c93c 0d05 f23d 051e eabd 3052 873e
000001e0: 4116 35be fc20 663e 2722 7c3e 776c aa3e
000001f0: 15f6 cfbd f365 823e 81b2 753c 0722 203e
00000200: a3f6 57be 6ace 0abe e70d a2be 990c 9bbe
00000210: d80e e03d 2522 b53c e88e 88bc 1a5e f23d
00000220: 2d13 a1bd cafe 8f3e 286e 50be 2b8e 973d
00000230: d7bd edbd 9c2f 70bd 5ae3 043d 0fb2 6abe

encoder.encoder.0.bias f4 [16]
0.0023828764 0.009652803 0.10813662 0.035523064 -0.016693123 -0.0029906773 0.002888163 -0.0125746075
-0.119100414 -0.10693052 -0.0068850988 -0.039527435 -0.005122785 -0.10481036 0.03983876 0.10104238
00000000: 082a 1c3b ca26 1e3c bb76 dd3d a280 113d
00000010: 04c0 88bc 3dff 43bb 5647 3d3b ba05 4ebc
00000020: ebea f3bd 63fe dabd 659c e1bb 85e7 21bd
00000030: 09dd a7bb d0a6 d6bd f82d 233d 4fef ce3d

encoder.encoder.1.weight f4 [16]
0.93449533 0.9682411 0.9673971 0.89762634 0.98009753 0.95502216 0.97059786 0.9626568
0.9213125 0.943138 0.9381763 0.97766966 0.96201104 0.9268366 0.91827255 0.9534191
00000000: 163b 6f3f a6de 773f 56a7 773f d7ca 653f
00000010: ace7 7a3f 557c 743f 1a79 783f ad70 763f
00000020: 23db 6b3f 7e71 713f 522c 703f 8f48 7a3f
00000030: 5b46 763f 2a45 6d3f e913 6b3f 4613 743f

encoder.encoder.1.bias f4 [16]
0.010204856 -0.0035337498 0.015379224 -0.025852684 -0.009791204 -0.009555329 0.0006679151 -0.015773129
0.011795879 -0.0059683435 -0.010362995 -0.0104836635 0.0061472217 -0.04311252 -0.0067987023 -0.03160401
00000000: 4532 273c 7c96 67bb 24f9 7b3c 02c9 d3bc
00000010: 496b 20bc f48d 1cbc 0617 2f3a a636 81bc
00000020: 8143 413c 1892 c3bb 8dc9 29bc acc3 2bbc
00000030: a26e c93b c196 30bd a6c7 debb 3573 01bd

encoder.encoder.1.running_mean f4 [16]
-0.053650424 0.58401996 -0.59307706 -0.10827168 0.48987982 0.4821133 0.089173995 0.40650645
-0.3235673 -0.10108713 0.021550195 0.31781963 0.49069193 -0.9500937 0.62946004 0.28273922
00000000: 8cc0 5bbd 5582 153f e6d3 17bf 8bbd ddbd
00000010: 87d1 fa3e 8ed7 f63e dba0 b63d 9d21 d03e
00000020: 9daa a5be c506 cfbd 098a b03c 41b9 a23e
00000030: f93b fb3e 5739 73bf 4b24 213f 32c3 903e

encoder.encoder.1.running_var f4 [16]
0.022008665 0.18189082 0.27226025 0.059745062 0.19968979 0.18416002 0.05927941 0.11492888
0.04377761 0.06856686 0.09334998 0.07715031 0.14845188 0.44577077 0.20526949 0.0303193
00000000: 844b b43c 9641 3a3e b265 8b3e 3db7 743d
00000010: 7b7b 4c3e 7294 3c3e f7ce 723d d55f eb3d
00000020: 2750 333d c86c 8c3d 462e bf3d fb00 9e3d
00000030: c503 183e 113c e43e 2a32 523e 2e60 f83c

encoder.encoder.4.weight f4 [16, 16, 3, 3]
-0.0696105 -0.0072950074 -0.019218603 -0.04462622 0.002282389 -0.007894221 0.041671894 -0.018940846
0.04917227 -0.03755346 0.046972103 -0.028311463 0.06677768 0.026858652 0.092646495 -0.01433405
-0.013152098 0.04918259 0.024686763 0.02521386 -0.009878754 0.05709177 0.057276443 0.058906175
0.07468699 0.01571372 0.09072585 -0.04819088 -0.0025628333 -0.022752982 -0.037214536 0.042496994
0.017434642 0.013838993 -0.016229268 0.05747286 0.0670211 0.08169274 0.043517884 0.06875908
0.07638552 -0.014501339 0.037724894 0.006542032 0.10817421 0.079843275 -0.048100844 -0.018356089
0.01661731 -0.054184906 0.0833296 -0.03041089 -0.045099236 0.09175446 0.08099063 -0.052931216
-0.0013525005 -0.027279595 -0.021770908 -0.04328473 0.00044011432 -0.034621112 0.044510458 0.053132184
-0.048326705 0.011289837 0.038529288 -0.15158853 -0.10016567 -0.046470527 0.069043495 -0.01454883
-0.030064048 -0.030198283 0.016059712 -0.06550782 0.0033754592 0.016596753 0.00134392 0.05272916
0.07734841 0.0050277715 0.0044224714 0.0056689586 0.058229685 0.12571985 0.061441578 0.03174842
0.078081064 0.025590565 0.04059943 0.006245067 -0.00056449114 0.057355735 0.05084063 0.04577349
-0.06769486 -0.0075717843 -0.08233807 0.07763578 -0.02773229 -0.035776507 0.007626863 -0.06426546
-0.04562678 -0.060699377 0.024359921 -0.0091858385 0.06977763 0.0026407128 -0.0042527867 0.017042978
0.03423957 -0.018425586 0.025270324 -0.0021474003 0.098197706 0.029087195 0.04549298 -0.062218778
-0.038602 -0.04086603 0.02426387 0.078393474 0.047325943 -0.0138242515 -0.014146898 -0.051571805
-0.06633915 0.060501035 -0.053539652 0.06413872 0.06736843 -0.038886417 0.06446742 0.008635849
-0.009360171 -0.041306946 0.041969437 -0.053843778 -0.064148635 -0.07002866 -0.05795539 -0.03034932
-0.03664165 0.027927907 -0.022596966 0.019030223 0.015074303 -0.008731981 -0.057849325 -0.056995884
0.0051353234 -0.018481309 -0.053535145 0.025264077 -0.09560446 -0.015487083 0.024761867 -0.033183984
-0.024437293 -0.037743755 -0.04237125 0.038259305 0.06986204 -0.071308844 0.08740762 0.05247658
0.016713388 0.088258155 -0.008307326 -0.02548955 -0.03817032 -0.026260316 -0.0030939977 0.050746586
-0.04432808 0.070654094 0.04010582 0.044866666 -0.02879589 -0.09177662 0.0078388285 -0.03767445
0.022370497 -0.03444426 0.030221928 0.08706025 -0.061456736 0.045174118 0.028195508 -0.022629043
0.022568356 0.05324483 -0.008897901 0.10017322 0.10869567 0.014481653 0.046696287 -0.058853325
-0.05298124 0.054634407 -0.048169106 -0.00917817 0.00064252055 -0.08679268 -0.013309751 -0.020694608
-0.070008464 -0.010484575 -0.026757592 0.0049104807 -0.050125424 -0.047695227 -0.08587693 0.057912424
0.040671766 0.004825732 -0.022385372 0.04796963 -0.014590275 -0.0038900054 -0.025360845 0.021091586
-0.038175896 0.05399766 0.053763658 -0.051779523 0.010958596 0.0055232174 0.01399766 0.03226999
0.103722595 -0.07498108 0.06939054 0.009899804 0.012824802 -0.068925925 0.031205477 0.055213306
0.01798349 -0.025475513 0.024368715 -0.037579726 -0.05986291 -0.012145663 0.0040109856 -0.12522334
-0.0077287355 -0.06403658 0.025825175 0.0022739146 -0.09742865 -0.09516524 0.041985955 -0.019603208
00000000: f38f 8ebd f50a efbb 5570 9dbc fcc9 36bd
00000010: 2294 153b c356 01bc 26b0 2a3d d529 9bbc
00000020: dd68 493d a8d1 19bd d265 403d 71ed e7bc
00000030: bcc2 883d ad06 dc3c 72bd bd3d 5dd9 6abc
00000040: e67b 57bc af73 493d e53b ca3c 4c8d ce3c
00000050: 7fda 21bc 0fd9 693d b49a 6a3d 9a47 713d
00000060: 7ef5 983d 0fba 803c 79ce b93d cd63 45bd
00000070: 35f5 27bb 7664 babc 456e 18bd 5411 2e3d
00000080: 18d3 8e3c f2bc 623c 3ef3 84bc a968 6b3d
00000090: 5c42 893d 864e a73d cf3f 323d 8fd1 8c3d
000000a0: 0370 9c3d 0697 6dbc 6b85 1a3d 8b5e d63b
000000b0: 718a dd3d df84 a33d 6405 45bd 825f 96bc
000000c0: 0621 883c fef0 5dbd b6a8 aa3d 4220 f9bc
000000d0: fab9 38bd c3e9 bb3d 6ade a53d 67ce 58bd
000000e0: 6346 b1ba 7579 dfbc e758 b2bc 544b 31bd
000000f0: 25bf e639 dece 0dbd 9950 363d 22a1 593d
00000100: 39f2 45bd 02f9 383c e3d0 1d3d 063a 1bbe
00000110: a923 cdbd e157 3ebd ad66 8d3d 375e 6ebc
00000120: e148 f6bc 6462 f7bc a88f 833c f728 86bd
00000130: cf36 5d3b eaf5 873c 7926 b03a 88fa 573d
00000140: d868 9e3d 01c0 a43b 61ea 903b acc2 b93b
00000150: 4082 6e3d b4bc 003e 2aaa 7b3d a20a 023d
00000160: f7e8 9f3d 4ea3 d13c 974b 263d 6ba3 cc3b
00000170: 5cfa 13ba d9ed 6a3d 443e 503d fc7c 3b3d
00000180: 9aa3 8abd bb1c f8bb dda0 a8bd 82ff 9e3d
00000190: d42e e3bc 638a 12bd c4ea f93b 9c9d 83bd
000001a0: 25e3 3abd e99f 78bd 758e c73c 3380 16bc
000001b0: 93e7 8e3d cf0f 2d3b f65a 8bbb b79d 8b3c
000001c0: cb3e 0c3d 41f1 96bc b603 cf3c 66bb 0cbb
000001d0: e11b c93d 4548 ee3c d956 3a3d 1ed9 7ebd
000001e0: 211d 1ebd 2363 27bd 06c5 c63c c28c a03d
000001f0: d9d8 413d 1d7f 62bc 64c8 67bc f53c 53bd
00000200: d2dc 87bd efcf 773d 654c 5bbd 295b 833d
00000210: 76f8 893d 5d47 1fbd 7f07 843d 607d 0d3c
00000220: 675b 19bc 7931 29bd 25e8 2b3d 4b8b 5cbd
00000230: 5c60 83bd 306b 8fbd a262 6dbd 239f f8bc
00000240: 8e15 16bd 11c9 e43c 461d b9bc 45e5 9b3c
00000250: 36fa 763c 9510 0fbc 6af3 6cbd 8474 69bd
00000260: 3746 a83b 1d66 97bc ab47 5bbd 9cf6 ce3c
00000270: 45cc c3bd 89bd 7dbc 66d9 ca3c eeeb 07bd
00000280: b830 c8bc 3299 1abd 7a8d 2dbd cab5 1c3d
00000290: d413 8f3d 5f0a 92bd c402 b33d aff1 563d
000002a0: 84ea 883c b1c0 b43d 731b 08bc 76cf d0bc
000002b0: 7b58 1cbd e01f d7bc abc4 4abb a7db 4f3d
000002c0: 5c91 35bd 18b3 903d 0046 243d 1cc6 373d
000002d0: 5ce5 ebbc 61f5 bbbd 6e6e 003c 8650 1abd
000002e0: 5542 b73c 6d15 0dbd fa93 f73c a54c b23d
000002f0: 0fba 7bbd 7f08 393d 44fa e63c 8b60 b9bc
00000300: 46e1 b83c 4017 5a3d 80c8 11bc 9e27 cd3d
00000310: d69b de3d 7544 6d3c 9b44 3f3d 2f10 71bd
00000320: db02 59bd 54c8 5f3d f84c 45bd 0960 16bc
00000330: d36e 283a 5cc0 b1bd 2411 5abc bd87 a9bc
00000340: 9960 8fbd 7fc7 2bbc bd32 dbbc 19e8 a03b
00000350: 5150 4dbd 125c 43bd 3ee0 afbd 9435 6d3d
00000360: 7097 263d 2d21 9e3b 8761 b7bc ce7b 443d
00000370: 0c0c 6fbc 76ef 7ebb 8cc1 cfbc 43c8 ac3c
00000380: 545e 1cbd a62c 5d3d 4837 5c3d c416 54bd
00000390: af8b 333c 1bfc b43b 7156 653c 892d 043d
000003a0: 836c d43d ae8f 99bd a11c 8e3d ca32 223c
000003b0: 1e1f 523c 0929 8dbd a1a2 ff3c 5927 623d
000003c0: 1d52 933c 06b2 d0bc e6a0 c73c 33ed 19bd
000003d0: d032 75bd 9afe 46bc 966e 833b 8c3a 00be
000003e0: 5541 fdbb 9c25 83bd 518f d33c f505 153b
000003f0: ac88 c7bd fee5 c2bd 77f9 2b3d e896 a0bc

encoder.encoder.4.bias f4 [16]
0.03965963 -0.0031848869 -0.0070748683 -0.0041659568 -0.016897112 0.001556644 0.008802785 -0.0019990138
0.003563869 0.010125417 -0.008940673 0.01639104 0.018796645 -0.0023031733 -0.021681303 0.0065052654
00000000: 2372 223d 89b9 50bb 4cd4 e7bb 9482 88bb
00000010: d06b 8abc 4e08 cc3a 8e39 103c e301 03bb
00000020: cd8f 693b 14e5 253c e77b 12bc 8146 863c
00000030: 6cfb 993c d6f0 16bb fd9c b1bc 1f2a d53b

encoder.encoder.5.weight f4 [16]
0.8951924 0.94797397 0.9184174 0.97302496 0.9767013 1.0030966 0.9243736 0.9672704
0.9084331 0.9531969 0.9530511 0.9848593 0.96166235 0.9737984 0.89787453 0.9734977
00000000: 542b 653f 6cae 723f 671d 6b3f 2a18 793f
00000010: 1909 7a3f 7865 803f c0a3 6c3f 089f 773f
00000020: 128f 683f b604 743f 28fb 733f bd1f 7c3f
00000030: 812f 763f da4a 793f 1bdb 653f 2537 793f

encoder.encoder.5.bias f4 [16]
0.048342586 -0.0057026804 -0.008503137 -0.016426895 -0.019231586 0.016569449 0.015594276 0.018592512
0.0052977963 0.024775648 0.008669328 0.023646966 0.014037553 0.015609789 -0.0069591845 0.026618108
00000000: e002 463d 8ddd babb be50 0bbc b291 86bc
00000010: 8f8b 9dbc a7bc 873c 227f 7f3c 534f 983c
00000020: 2399 ad3b 4df6 ca3c cc09 0e3c 48b7 c13c
00000030: c4fd 653c 33c0 7f3c df09 e4bb 380e da3c

encoder.encoder.5.running_mean f4 [16]
0.4435608 0.004682361 -0.08013645 -0.59279215 -0.2603331 -0.4848143 0.17963089 -0.26061252
-0.0792756 -0.18273519 0.14185335 -0.8498093 0.03194313 -0.17780848 0.16349974 -0.09005748
00000000: 671a e33e 7e6e 993b 941e a4bd 3ac1 17bf
00000010: 614a 85be 9439 f8be 29f1 373e 016f 85be
00000020: 3f5b a2bd ef1e 3bbe 0142 113e 1a8d 59bf
00000030: cdd6 023d 6d13 36be 7a6c 273e 0e70 b8bd

encoder.encoder.5.running_var f4 [16]
0.30008757 0.33792394 0.12965742 0.25343385 0.13790038 0.25277707 0.14806813 0.110968634
0.0976366 0.15687765 0.17530273 0.21928562 0.13523397 0.19323795 0.08198459 0.25572425
00000000: 14a5 993e 5e04 ad3e eac4 043e 15c2 813e
00000010: c235 0d3e ff6b 813e 2c9f 173e 8643 e33d
00000020: b3f5 c73d 89a4 203e 8f82 333e 698c 603e
00000030: c67a 0a3e 2be0 453e 89e7 a73d 4aee 823e

encoder.encoder.8.weight f4 [16, 16, 3, 3]
0.038747072 0.05016354 0.08431974 0.029629512 0.06577423 -0.03096361 0.018975463 -0.021726796
-0.07707492 0.03870368 0.022397593 -0.0031558862 0.08582748 0.07073624 -0.021118842 0.111622415
-0.00493194 0.04409758 0.03829825 0.02667053 0.05963301 -0.057103794 0.016278021 0.040263366
-0.006715768 0.020289673 0.023768974 -0.033468436 0.0022136883 -0.0020571055 -0.08883303 -0.028709548
0.02119811 0.020456182 0.072429776 -0.07741405 0.054389883 0.016551191 -0.027115077 -0.070507474
0.041585628 -0.040207174 -0.097158164 -0.037200294 -0.024548145 0.0024458293 -0.031024767 0.025164848
-0.03918947 0.072992146 0.07935459 -0.004450615 0.08285511 0.0033177494 0.06254866 0.026523676
0.059970453 -0.061363917 -0.0553959 -0.033734832 -0.06752153 -0.032974046 -0.0053095585 0.10759546
0.09300913 -0.036213953 0.108316846 0.04621072 -0.06924754 0.08746366 0.022318138 0.005611674
0.035581656 0.013740491 -0.019162258 -0.015752258 -0.03775997 -0.032462284 0.07365308 0.02608769
0.0714521 -0.021376936 0.02466634 0.06544512 0.067797236 0.05102831 -0.07619007 0.062163316
0.0267571 -0.012654684 -0.011483033 0.014462399 0.047665905 0.0023960231 0.06441886 -0.006217901
-0.02067227 0.061992176 0.06051809 0.044391505 -0.01180912 0.1064909 0.035745874 0.057500575
-0.047324248 -0.0785726 -0.057381704 0.044578098 -0.017051075 -0.04877402 -0.055106662 -0.029974831
-0.014247732 -0.016158111 0.015069379 0.008038229 0.022379706 0.011422255 0.001398088 0.007324785
0.04375085 0.032844383 0.02697323 0.0806295 -0.015872462 0.039440732 -0.008625626 -0.08421287
-0.025373641 -0.023763288 -0.0026518877 0.023718553 -0.017628087 0.02601116 0.07035715 0.057415444
-0.079799145 -0.088967085 -0.002559805 0.009873727 -0.018852117 0.01307506 0.0016537319 0.03622145
0.038181785 0.025019836 0.022437517 -0.009855452 -0.02808118 -0.004372744 -0.1118971 0.059691872
-0.060453303 0.07695671 0.019308051 0.028033184 0.029432599 -0.06555978 -0.058661945 0.046037108
-0.021681698 0.021685181 -0.04476358 -0.088272735 -0.06236408 -0.054636374 0.018423365 0.029234676
0.07826576 0.06652683 0.057304516 0.059341185 0.007399979 -0.18202372 0.07627293 0.0054615797
0.03213198 0.011535468 -0.014346972 -0.015077066 -0.031597294 -0.02469025 0.016527185 0.03687835
0.092264555 0.065865286 0.044170193 -0.05538608 -0.09589106 0.0007402418 0.040379405 -0.109138645
-0.039822023 0.04339588 -0.0133088855 -0.014956891 -0.01690227 0.003672632 -0.05781848 -0.07051234
-0.05657849 -0.062885605 -0.06350369 -0.038826115 0.0700595 -0.0174008 0.020598106 0.03509402
-0.030341446 0.014200091 -0.05056981 0.061902676 -0.032259602 0.003310322 0.050425738 0.05157031
0.037797593 0.025805494 -0.007811106 0.107085265 0.042330556 0.028100258 -0.029479465 0.013545411
-0.0026395342 0.05981066 -0.009076614 0.07342442 0.031015899 -0.05493162 0.011011938 -0.09584791
-0.042182125 -0.02567385 0.04378866 0.0024151113 0.07609675 -0.010282057 -0.05686695 0.032389034
-0.071386315 -0.020192828 0.0855651 0.054044053 -0.018052654 -0.015297066 -0.015572083 -0.01687222
-0.090231955 0.021893336 -0.019250803 0.04118811 -0.010778691 -0.04326964 -0.03701684 0.05474579
00000000: 40b5 1e3d 4978 4d3d d4af ac3d 97b9 f23c
00000010: a4b4 863d 66a7 fdbc 6e72 9b3c 65fc b1bc
00000020: 75d9 9dbd c087 1e3d 287b b73c fcd2 4ebb
00000030: 51c6 af3d 29de 903d 6c01 adbc 4b9a e43d
00000040: 1d9c a1bb aa9f 343d a0de 1c3d 287c da3c
00000050: be41 743d abe5 69bd 7c59 853c 33eb 243d
00000060: f20f dcbb 8736 a63c 27b7 c23c 3316 09bd
00000070: 8713 113b 81d0 06bb 17ee b5bd 4930 ebbc
00000080: a9a7 ad3c b993 a73c 1056 943d 428b 9ebd
00000090: edc7 5e3d 5d96 873c 7020 debc 3966 90bd
000000a0: b155 2a3d 47b0 24bd dcfa c6bd 565f 18bd
000000b0: 3119 c9bc 354a 203b a727 febc 8326 ce3c
000000c0: 2385 20bd e87c 953d a984 a23d 77d6 91bb
000000d0: f1af a93d 996e 593b 8319 803d 2e48 d93c
000000e0: 94a3 753d bb58 7bbd d0e6 62bd 892d 0abd
000000f0: ba48 8abd cb0f 07bd cefb adbb 025b dc3d
00000100: 927b be3d 1555 14bd 39d5 dd3d 7447 3d3d
00000110: a7d1 8dbd 2620 b33d 87d4 b63c 22e2 b73b
00000120: 12be 113d cc1f 613c 2bfa 9cbc e10a 81bc
00000130: 33aa 1abd 2cf7 04bd 6dd7 963d dab5 d53c
00000140: 7b55 923d af1e afbc 1011 ca3c 1708 863d
00000150: 47d9 8a3d 1003 513d 8a09 9cbd f69e 7e3d
00000160: b531 db3c 9755 4fbc 5523 3cbc b3f3 6c3c
00000170: 533d 433d 9906 1d3b 09ee 833d 89bf cbbb
00000180: e458 a9bc 82eb 7d3d d1e1 773d ded3 353d
00000190: 0a7b 41bc e717 da3d 446a 123d b985 6b3d
000001a0: 12d7 41bd acea a0bd 1409 6bbd 8697 363d
000001b0: b2ae 8bbc 44c7 47bd 86b7 61bd c78d f5bc
000001c0: 526f 69bc 045e 84bc 8ee5 763c c7b2 033c
000001d0: a555 b73c 6924 3b3c 0c40 b73a c004 f03b
000001e0: 1734 333d d587 063d f7f6 dc3c 1421 a53d
000001f0: f706 82bc 9b8c 213d 7f52 0dbc cc77 acbd
00000200: 62dc cfbc 3aab c2bc 4bcb 2dbb 694d c23c
00000210: c768 90bc 5b15 d53c 6917 903d 752c 6b3d
00000220: bc6d a3bd 6034 b6bd 67c2 27bb 6ac5 213c
00000230: c16f 9abc c738 563c 09c2 d83a f15c 143d
00000240: 8164 1c3d 66f6 cc3c e2ce b73c c378 21bc
00000250: 810a e6bc 3c49 8fbb 4f2a e5bd 777f 743d
00000260: e29d 77bd 7b9b 9d3d eb2b 9e3c d9a5 e53c
00000270: a21c f13c 3544 86bd 8247 70bd 6891 3c3d
00000280: d19d b1bc 1fa5 b13c 045a 37bd 56c8 b4bd
00000290: 7a71 7fbd 64ca 5fbd 99ec 963c 8f7d ef3c
000002a0: cc49 a03d 383f 883d 24b8 6a3d be0f 733d
000002b0: 867b f23b 6d64 3abe fb34 9c3d 0df7 b23b
000002c0: d39c 033d 42ff 3c3c 900f 6bbc cc05 77bc
000002d0: 2a6c 01bd 3543 cabc 0564 873c c10d 173d
000002e0: 33f5 bc3d 61e4 863d ceeb 343d 84dc 62bd
000002f0: 8862 c4bd c90c 423a e064 253d 1584 dfbd
00000300: 6b1c 23bd e1bf 313d 830d 5abc bf0d 75bc
00000310: a176 8abc 8ab0 703b 12d3 6cbd c668 90bd
00000320: d9be 67bd 2bca 80bd 390e 82bd 2208 1fbd
00000330: 5b7b 8f3d 1f8c 8ebc 5cbd a83c bfbe 0f3d
00000340: a08e f8bc 80a7 683c 4a22 4fbd a98d 7d3d
00000350: a522 04bd fdf1 583b 388b 4e3d 643b 533d
00000360: a6d1 1a3d 0b66 d33c 4ef4 ffbb 854f db3d
00000370: ce62 2d3d 8332 e63c eb7e f1bc 92ed 5d3c
00000380: 09fc 2cbb 06fc 743d 14b6 14bc 8b5f 963d
00000390: 0e15 fe3c faff 60bd 6a6b 343c e94b c4bd
000003a0: 2ac7 2cbd f751 d2bc bd5b 333d d846 1e3b
000003b0: 9dd8 9b3d 1376 28bc 52ed 68bd 5daa 043d
000003c0: fd32 92bd 6e6b a5bc c13c af3d 4c5d 5d3d
000003d0: 29e3 93bc 8ca0 7abc 0d22 7fbc 9c37 8abc
000003e0: 88cb b8bd a759 b33c dcb3 9dbc ddb4 283d
000003f0: 1b99 30bc 823b 31bd f89e 17bd 1f3d 603d

encoder.encoder.8.bias f4 [16]
0.0007085029 0.003251097 0.004108869 -0.008725418 0.0023769888 0.009804907 0.0078825485 0.0022172388
0.026862334 0.002349936 0.0069607315 0.01563544 -0.002212967 0.028375467 0.003997634 0.008298909
00000000: d3ba 393a 5b10 553b b1a3 863b 0ef5 0ebc
00000010: 41c7 1b3b c3a4 203c ce25 013c 184f 113b
00000020: 660e dc3c 6201 1a3b d916 e43b e515 803c
00000030: 6d07 11bb ab73 e83c 96fe 823b 26f8 073c

encoder.encoder.9.weight f4 [16]
0.92822504 0.9378585 0.98403287 0.9970104 0.92504734 0.98759013 0.9733374 0.96662176
0.97656155 0.94432324 0.9063864 0.985717 1.0110459 0.96215326 0.9258687 0.9207484
00000000: 28a0 6d3f 7f17 703f 94e9 7b3f 133c 7f3f
00000010: e7cf 6c3f b5d2 7c3f a42c 793f 8674 773f
00000020: f0ff 793f 2bbf 713f f008 683f f357 7c3f
00000030: f469 813f ad4f 763f bb05 6d3f 2bb6 6b3f

encoder.encoder.9.bias f4 [16]
0.014638534 0.013173604 0.011132857 0.0020473942 0.018859223 0.032174524 0.014479609 0.031029798
0.04006089 0.01992583 0.011434357 0.02929408 0.021389876 0.028390093 0.019694064 0.0073454403
00000000: 76d6 6f3c 1ad6 573c 9666 363c 932d 063b
00000010: a87e 9a3c 6fc9 033d e23b 6d3c 3432 fe3c
00000020: e316 243d 7f3b a33c 2b57 3b3c 23fa ef3c
00000030: d239 af3c 5792 e83c 7255 a13c 05b2 f03b

encoder.encoder.9.running_mean f4 [16]
0.75236547 0.28741422 -0.7892873 0.9044075 0.5150233 -0.84211385 -0.21832538 0.23025022
-0.13398956 0.324285 -0.2953514 -0.317205 0.15306535 -0.30597124 -0.110553674 0.16358078
00000000: 069b 403f f527 933e bc0e 4abf 4087 673f
00000010: 91d8 033f c694 57bf b090 5fbe b7c6 6b3e
00000020: 8f34 09be af08 a63e 4c38 97be b268 a2be
00000030: 2abd 1c3e 43a8 9cbe f769 e2bd b881 273e

encoder.encoder.9.running_var f4 [16]
0.37591547 0.16835217 0.4338635 0.50725347 0.3628667 0.38652435 0.2897306 0.28918767
0.34005064 0.29433239 0.21253377 0.1996922 0.23621507 0.29132318 0.31321937 0.19060421
00000000: fe77 c03e 8364 2c3e 5b23 de3e 5ddb 013f
00000010: aac9 b93e 85e6 c53e 9257 943e 6810 943e
00000020: 1e1b ae3e bcb2 963e 74a2 593e 1d7c 4c3e
00000030: 5de2 713e 5028 953e 4a5e a03e c02d 433e

encoder.encoder.12.weight f4 [16, 16, 3, 3]
0.044306055 -0.03643559 0.012781682 -0.08417391 -0.030267652 -0.011811653 0.008007311 -0.019861372
-0.006482184 -0.06178179 -0.0064895116 0.002940332 -0.040484056 -0.12609519 -0.07685165 -0.07200077
0.01300644 0.0054906975 -0.014670067 0.0609387 0.048919648 0.08259172 -0.07393544 -0.016768182
-0.05445846 0.024311079 0.03206863 -0.0023042266 -0.1491132 0.06853441 -0.004729048 0.01932632
-0.056938045 -0.02516025 -0.05303234 0.04822703 -0.10728879 -0.048525732 0.04950167 -0.041387573
-0.004712538 0.049228117 -0.04615909 -0.023959963 0.011473543 -0.028035965 0.08970056 -0.008790376
-0.036432706 0.048660006 0.031701066 -0.081658766 0.047777846 0.04367305 -0.060628336 -0.055508688
-0.0006636227 0.0042324523 -0.063806415 -0.08093721 -0.08496552 0.020493994 -0.03657186 -0.0014580105
0.04038819 0.01819789 -0.077575296 0.008968354 -0.00328322 -0.028323973 0.032758348 -0.015534955
0.04587326 0.010006836 0.09649961 -0.14085342 -0.07087971 0.0016552348 -0.0044794506 0.016389076
-0.021607079 0.009060997 -0.008083421 0.036752354 0.017832141 0.062390856 0.061210547 -0.021592908
-0.050506003 0.03761882 -0.039085094 0.0031916876 -0.06091955 -0.020950908 0.023172317 -0.06823205
-0.044037372 -0.05407833 0.0072387927 0.06098698 -0.028503418 -0.033569038 0.025585217 -0.06136878
-0.029451627 -0.054418016 -0.056740545 0.090774275 0.08788297 0.026072444 0.07076398 0.037316784
-0.03300501 -0.051396925 -0.14560065 0.008414228 0.029878395 0.016900603 -0.025164988 0.05129939
-0.087623894 0.014009041 -0.118527874 -0.01954609 0.019244237 -0.034442168 -0.09650672 -0.03311438
-0.029694423 -0.058200628 0.051680595 -0.044442773 -0.03658538 0.040886715 -0.017442213 0.0124360705
-0.03697287 0.0052150562 0.017151402 -0.0056767277 -0.013950623 -0.019057628 -0.11182235 -0.030728804
-0.06306272 0.04092871 0.06663659 -0.025349159 -0.0029626468 -0.040790882 0.046523955 -0.013499071
0.046199847 0.031843018 -0.016015477 -0.03712976 0.0071084904 0.024298217 0.020452512 -0.0355765
-0.03658631 0.07288916 0.037142526 0.07112877 0.003102894 0.03968353 -0.004260056 0.018232068
-0.014312168 -0.02510853 0.030352093 -0.0029531876 -0.0015285364 -0.01872364 -0.08727439 0.074741974
0.07399338 0.07852954 -0.013207512 -0.03889746 -0.080299914 -0.0060962103 -0.022952864 -0.024018096
-0.043895025 0.009687155 -0.056842346 0.048891805 0.029918874 0.03230832 0.029341172 -0.017378123
0.08991969 0.023809003 -0.04713133 0.067523636 -0.050667528 -0.051358607 0.0985719 -0.03137423
0.043892633 0.04693542 -0.053369507 0.05902769 0.03259805 0.009699947 -0.01570963 -0.009124973
0.008834621 -0.03246764 0.07588524 -0.022565017 0.05515121 0.027207427 0.035913453 0.020294711
0.021568516 -0.030641323 -0.12086008 0.042935655 -0.012892844 -0.0578426 0.079895005 -0.025738014
-0.033306126 -0.030071538 0.05816221 0.012270148 0.008707479 0.021767866 -0.06803935 0.048652012
0.060321223 -0.02464161 0.015700549 -0.02494449 -0.020718126 0.081287876 -0.043499436 0.057292145
-0.10737001 0.068303324 0.040594693 0.064893104 0.015866484 -0.050103437 0.0115010245 -0.024729718
0.04582196 0.057917424 -0.016953675 0.02174295 0.07215694 0.07447608 -0.0152344145 -0.007934868
00000000: 447a 353d 7c3d 15bd 436a 513c 5f63 acbd
00000010: def3 f7bc aa85 41bc 1931 033c 51b4 a2bc
00000020: 8068 d4bb e70e 7dbd f8a5 d4bb 96b2 403b
00000030: 9cd2 25bd 191f 01be 6664 9dbd 2475 93bd
00000040: f718 553c 4feb b33b b85a 70bc dc9a 793d
00000050: f85f 483d d925 a93d 776b 97bd 6d5d 89bc
00000060: d60f 5fbd 0728 c73c 655a 033d 8202 17bb
00000070: 21b1 18be c55b 8c3d 21f6 9abb 3b52 9e3c
00000080: de37 69bd de1c cebc 7038 59bd b589 453d
00000090: 3aba dbbd ebc2 46bd 43c2 4a3d 0486 29bd
000000a0: a26b 9abb 6ca3 493d 5011 3dbd af47 c4bc
000000b0: 87fb 3b3c aeab e5bc edb4 b73d 8205 10bc
000000c0: 763a 15bd b74f 473d fad8 013d b63c a7bd
000000d0: b4b2 433d 83e2 323d 6b55 78bd 145d 63bd
000000e0: f7f6 2dba 62b0 8a3b f0ac 82bd 68c2 a5bd
000000f0: 6702 aebd 05e3 a73c 60cc 15bd b71a bfba
00000100: 166e 253d be13 953c ccdf 9ebd 01f0 123c
00000110: 4b2b 57bb ad07 e8bc 9e2d 063d 5386 7ebc
00000120: 99e5 3b3d b6f3 233c 96a1 c53d e13b 10be
00000130: 6229 91bd 77f4 d83a 5bc8 92bb 6242 863c
00000140: 5401 b1bc 9374 143c 5370 04bc a389 163d
00000150: b614 923c 8e8d 7f3d e9b7 7a3d 9ce3 b0bc
00000160: 62df 4ebd 3116 1a3d b117 20bd a22b 513b
00000170: c786 79bd 3da1 abbc dfd3 bd3c 3fbd 8bbd
00000180: 8860 34bd 3d81 5dbd 6533 ed3b 7ccd 793d
00000190: 0080 e9bc b07f 09bd 1798 d13c d45d 7bbd
000001a0: 8a44 f1bc 6de5 5ebd c668 68bd dde7 b93d
000001b0: fdfb b33d e195 d53c b5ec 903d 7cd9 183d
000001c0: 4330 07bd 9585 52bd 5618 15be d5db 093c
000001d0: 89c3 f43c 2273 8a3c ce26 cebc 4f1f 523d
000001e0: 2874 b3bd 2d86 653c bebe f2bd 1f1f a0bc
000001f0: 17a6 9d3c 3b13 0dbd 51a5 c5bd f2a2 07bd
00000200: b841 f3bc c863 6ebd 08af 533d a009 36bd
00000210: 8dda 15bd d478 273d f9e2 8ebc a9c0 4b3c
00000220: dd70 17bd 10e3 aa3b 1981 8c3c d803 babb
00000230: 2791 64bc be1e 9cbc 1e03 e5bd f9ba fbbc
00000240: 0727 81bd dda4 273d c478 883d 0aa9 cfbc
00000250: f728 42bb 5714 27bd e78f 3e3d 352b 5dbc
00000260: 0d3c 3d3d d36d 023d e432 83bc 6015 18bd
00000270: 57ee e83b 0e0d c73c 078c a73c aab8 11bd
00000280: 87db 15bd e946 953d c322 183d f6ab 913d
00000290: ec59 4b3b 328b 223d f197 8bbb 6b5b 953c
000002a0: 957d 6abc 67b0 cdbc f4a4 f83c 448a 41bb
000002b0: 2c59 c8ba 5262 99bc eabc b2bd 5212 993d
000002c0: d789 973d 18d4 a03d 5264 58bc f152 1fbd
000002d0: 4874 a4bd b8c2 c7bb a507 bcbc 99c1 c4bc
000002e0: 45cb 33bd dfb6 1e3c 85d3 68bd c642 483d
000002f0: 6d18 f53c bb55 043d e65c f03c 915c 8ebc
00000300: d027 b83d 190b c33c c80c 41bd d549 8a3d
00000310: c188 4fbd 675d 52bd 10e0 c93d 4482 00bd
00000320: c3c8 333d 5b3f 403d fc99 5abd 05c7 713d
00000330: 8885 053d 87ec 1e3c 7bb1 80bc e980 15bc
00000340: 16bf 103c cafc 04bd b969 9b3d 45da b8bc
00000350: 3ce6 613d 1ce2 de3c fc19 133d 1841 a63c
00000360: 75b0 b03c 8303 fbbc 7d85 f7bd 4cdd 2f3d
00000370: 823c 53bc 5dec 6cbd fe9f a33d 87d8 d2bc
00000380: 016c 08bd 9658 f6bc 7f3b 6e3d bb08 493c
00000390: d0a9 0e3c 8652 b23c 3758 8bbd 5547 473d
000003a0: 6313 773d 34dd c9bc 709e 803c 6358 ccbc
000003b0: 0fb9 a9bc 427a a63d 772c 32bd 2bab 6a3d
000003c0: cfe4 dbbd 9de2 8b3d 9f46 263d ade6 843d
000003d0: 6efa 813c 4339 4dbd cb6e 3c3c fa95 cabc
000003e0: cfaf 3b3d d23a 6d3d 6fe2 8abc 451e b23c
000003f0: 05c7 933d ea86 983d c499 79bc 4001 02bc

encoder.encoder.12.bias f4 [16]
-0.025493845 -0.013189894 -0.0087590385 0.00077197 0.0075623435 -0.0035446808 -0.0120608 0.012410255
-0.022976331 0.015023917 0.021499837 0.0060246848 -0.00982683 -0.009833044 0.0069952947 -0.022584412
00000000: 78d8 d0bc 6d1a 58bc 1282 0fbc 085e 4a3a
00000010: 89cd f73b e04d 68bb a99a 45bc 6254 4b3c
00000020: dc38 bcbc e026 763c 6d20 b03c b86a c53b
00000030: b600 21bc c71a 21bc c938 e53b f202 b9bc

encoder.encoder.13.weight f4 [16]
0.95409906 0.98203915 1.1066492 1.0135767 0.9767121 0.9287111 0.99904394 0.9752465
0.91548926 0.98565894 0.9815402 1.009582 0.96566 0.96218294 0.9956001 0.97781235
00000000: d63f 743f eb66 7b3f aea6 8d3f e2bc 813f
00000010: ce09 7a3f 03c0 6d3f 58c1 7f3f c1a9 793f
00000020: 815d 6a3f 2554 7c3f 3846 7b3f fc39 813f
00000030: 7e35 773f 9f51 763f a6df 7e3f e951 7a3f

encoder.encoder.13.bias f4 [16]
-0.012051229 0.0038344276 -0.005917202 0.00444218 0.017983496 0.0043100747 -0.024486078 0.02942054
-0.040599894 0.026982278 0.012373558 0.000506937 -0.0156134805 -0.01881148 0.021670697 -0.01568638
00000000: 8572 45bc 054b 7b3b 17e5 c1bb b58f 913b
00000010: 2052 933c 873b 8d3b 0797 c8bc 5803 f13c
00000020: 134c 26bd f009 dd3c 77ba 4a3c f7e3 043a
00000030: afcf 7fbc 881a 9abc bf86 b13c b980 80bc

encoder.encoder.13.running_mean f4 [16]
-0.8554446 0.34798786 0.09790544 -0.40647638 -0.7770683 0.48129493 -0.1786714 -0.8152068
0.36105663 -0.71738136 -0.7982451 0.34845534 -0.37188438 0.3883 -0.23003036 0.4781794
00000000: 6bfe 5abf 772b b23e a682 c83d ac1d d0be
00000010: f3ed 46bf 4a6c f63e a3f5 36be 65b1 50bf
00000020: 6adc b83e 4ea6 37bf ca59 4cbf bd68 b23e
00000030: a167 bebe 42cf c63e 148d 6bbe eed3 f43e

encoder.encoder.13.running_var f4 [16]
0.54018855 0.5095694 0.37735868 0.37595472 0.27266282 0.35997054 0.24195015 0.23828326
0.24556631 0.13521872 0.24167763 0.23925623 0.18156485 0.2664909 0.21134615 0.31575146
00000000: cc49 0a3f 2473 023f 2835 c13e 237d c03e
00000010: 769a 8b3e 0f4e b83e c8c1 773e 8700 743e
00000020: bc75 7b3e c776 0a3e 577a 773e 96ff 743e
00000030: 23ec 393e 7f71 883e 206b 583e 2daa a13e

encoder.encoder.16.weight f4 [1, 16, 2, 2]
0.0947946 -0.030783935 -0.07472917 -0.14427942 0.053812776 0.028560016 -0.099096306 -0.007121163
0.07666254 -0.47091392 -0.011789026 -0.0062975967 0.054158974 0.022533065 0.10530739 -0.08045493
0.06791448 -0.02862968 0.04305648 0.081583425 -0.028222993 0.026376652 -0.07359468 0.062140208
-0.09371406 -0.058159973 -0.0011897187 0.107110575 0.06515068 0.08770042 0.1112699 -0.05760932
0.049492847 -0.032967582 -0.0632751 0.05949285 0.032838713 0.017513262 0.041527815 0.082885474
-0.018865043 0.0047368263 0.0668627 0.05141949 -0.035793778 -0.04041315 0.073800266 0.02999321
-0.02199557 -0.027259612 -0.07069945 -0.056131084 -0.020524323 -0.02283691 -0.034821082 -0.033823315
0.011653641 0.045428433 -0.037104763 0.05493723 0.023508046 -0.18378338 -0.013359885 -0.078781165
00000000: ac23 c23d 972e fcbc 9b0b 99bd fcbd 13be
00000010: c96a 5c3d b2f6 e93c 01f3 cabd a558 e9bb
00000020: 4001 9d3d a11b f1be c226 41bc 125c cebb
00000030: cdd5 5d3d 4397 b83c 67ab d73d 8ec5 a4bd
00000040: bf16 8b3d ca88 eabc fe5b 303d 3615 a73d
00000050: e833 e7bc d913 d83c cfb8 96bd bb86 7e3d
00000060: 28ed bfbd 2739 6ebd 56f0 9bba ca5c db3d
00000070: b86d 853d 479c b33d 79e1 e33d c0f7 6bbd
00000080: 03b9 4a3d 0409 07bd 6096 81bd c6ae 733d
00000090: e381 063d f977 8f3c 1219 2a3d dcbf a93d
000000a0: dd8a 9abc 6137 9b3b 50ef 883d 3e9d 523d
000000b0: 7f9c 12bd 4288 25bd 9824 973d 52b4 f53c
000000c0: 0e30 b4bc 8d4f dfbc e0ca 90bd b5e9 65bd
000000d0: a022 a8bc 7914 bbbc 8da0 0ebd 518a 0abd
000000e0: eaee 3e3c 2a13 3a3d 2afb 17bd dc05 613d
000000f0: f293 c03c b631 3cbe 6be3 5abc 0558 a1bd

decoder.decoder.0.weight f4 [1, 16, 1, 1]
0.010667092 0.10153948 0.13750921 0.0031633365 0.093858056 -0.045359496 -0.1160695 -0.06732956
-0.08023852 -0.12913348 -0.09434148 0.057279497 0.08755888 -0.0890866 -0.0987549 0.122787684
00000000: 07c5 2e3c eef3 cf3d 37cf 0c3e fb4f 4f3b
00000010: a738 c03d e1ca 39bd d9b5 edbd 15e4 89bd
00000020: 1854 a4bd 913b 04be 1b36 c1bd e89d 6a3d
00000030: 1252 b33d 0973 b6bd 0240 cabd 1c78 fb3d

decoder.decoder.0.bias f4 [16]
0.00040316445 -0.0016362605 0.00071054214 0.027918536 0.008754703 0.017111495 0.0058562355 0.018874919
0.021275602 0.03835993 0.018472549 -0.0065909815 -0.035351153 0.054951005 0.08201015 -0.047895603
00000000: d15f d339 cb77 d6ba ad43 3a3a 6ab5 e43c
00000010: e36f 0f3c 682d 8c3c aae5 bf3b 939f 9a3c
00000020: 2c4a ae3c 4d1f 1d3d be53 973c 29f9 d7bb
00000030: 5fcc 10bd 4e14 613d f0f4 a73d 2e2e 44bd

decoder.decoder.1.weight f4 [16]
0.9563203 0.9972615 0.96783215 0.8842768 0.95100075 0.98605347 0.9968482 0.99786395
1.0172766 1.0019233 1.0102063 0.987622 0.99524045 1.0014083 1.0060834 1.005303
00000000: 68d1 743f 884c 7f3f d9c3 773f f75f 623f
00000010: c974 733f 006e 7c3f 7231 7f3f 0374 7f3f
00000020: 1f36 823f 063f 803f 714e 813f ccd4 7c3f
00000030: 14c8 7e3f 262e 803f 57c7 803f c5ad 803f

decoder.decoder.1.bias f4 [16]
0.040286172 -0.025539152 0.025923474 0.026540393 -0.00861708 0.032954477 0.005010946 0.036809433
0.024666604 0.0051016514 -0.0039736605 0.033739954 -0.030379174 0.032026876 0.02342604 -0.03576294
00000000: 1d03 253d 7c37 d1bc 775d d43c 3d6b d93c
00000010: a72e 0dbc 46fb 063d dd32 a43b 7dc5 163d
00000020: 9e11 ca3c c12b a73b 7b35 82bb e832 0a3d
00000030: bfdd f8bc 9d2e 033d f7e7 bf3c 297c 12bd

decoder.decoder.1.running_mean f4 [16]
0.018118877 0.18518019 0.1628403 0.03256897 0.143676 -0.10799332 -0.16197729 -0.10628958
-0.12964365 -0.15814087 -0.12496778 0.08222826 0.148164 -0.1502045 -0.09155472 0.18389808
00000000: 0a6e 943c e09f 3d3e 9cbf 263e 0a67 053d
00000010: cd1f 133e 9a2b ddbd 60dd 25be 5aae d9bd
00000020: 4ec1 04be aeef 21be 1cef ffbd 4a67 a83d
00000030: 4eb8 173e 35cf 19be 0b81 bbbd c74f 3c3e

decoder.decoder.1.running_var f4 [16]
0.00048180128 0.035050485 0.05156353 6.810576e-05 0.030097691 0.017052768 0.038203225 0.017326532
0.02410901 0.047239207 0.022761269 0.010053115 0.03276583 0.050235707 0.036684915 0.05425639
00000000: 469a fc39 1991 0f3d 4834 533d 00d4 8e38
00000010: 6f8f f63c 3fb2 8b3c fc7a 1c3d 5ff0 8d3c
00000020: 4280 c53c e67d 413d d775 ba3c d2b5 243c
00000030: 7735 063d f5c3 4d3d ec42 163d f33b 5e3d

decoder.decoder.4.weight f4 [16, 16, 3, 3]
-0.008304102 0.051424623 -0.0479439 0.06494252 0.03480359 -0.004135326 -0.028462665 -0.053496193
-0.050334148 -0.003183794 -0.019636966 -0.04286998 -0.011661801 -0.049544454 0.044899818 -0.045957968
0.06439108 0.07059168 -0.012923863 0.018259026 -0.008028156 0.03035685 0.008735475 -0.10811631
-0.020138305 -0.006565389 0.031127837 -0.012934337 -0.02711374 -0.21378985 -0.10012447 2.7323787e-05
-0.08479064 -0.018155495 0.011754859 -0.00078399107 0.056626648 0.026157279 0.012484161 0.019754434
-0.046440344 0.027812988 -0.030824699 -0.039158583 0.020373367 0.045127578 -0.061781995 0.034050316
-0.045143105 0.008831886 0.034810238 0.0039460813 -0.047477767 0.02240403 -0.0022353495 -0.061008126
0.075844266 0.080815844 0.08199225 -0.05914444 -0.029051922 -0.06169937 -0.038550746 -0.124202594
0.029857265 -0.07789469 -0.0010164969 0.05415052 -0.052288435 0.028919378 -0.062356927 0.03618703
0.019066727 0.025382943 -0.08280166 0.05505569 0.07940664 0.014625159 -0.030509192 -0.0022149633
0.01057743 0.028222624 0.054930832 0.05382224 -0.02618434 0.010414429 -0.04322224 -0.008181812
-0.008593973 -9.228531e-07 0.014079336 -0.01745605 0.038755227 -0.018486861 -0.106827974 -0.11367661
0.0015737369 -0.03094354 0.011300991 0.027253443 -0.0004796727 -0.0054651597 -0.0012634548 0.005154255
0.0039243363 -0.0031028339 0.044507295 0.0455215 0.033603985 -0.0049556224 -0.06806195 -0.051499914
0.01100966 0.063224465 -0.019969901 0.010911505 -0.017234495 -0.04606488 -0.004819671 0.10832375
0.09248541 0.02260022 -0.028296238 0.059168868 -0.016944546 -0.06765657 -0.0949886 0.048177246
0.028479764 0.07037541 0.026628442 0.0005163637 -0.03656172 0.02067104 0.05067235 -0.012420376
0.0822394 -0.07683826 0.009630317 -0.11885588 -0.13815911 0.046202082 -0.021022683 -0.029625012
-0.012381886 -0.04791009 0.010262446 0.061031055 0.083925985 -0.033360396 0.0018083792 -0.028963996
-0.053611893 0.03225224 0.06557904 0.057016965 0.022816807 -0.035550795 0.04425864 -0.023895375
0.060336716 0.03373344 0.02891367 0.072678246 0.012385712 -0.03576271 -0.08611618 -0.12382398
-0.028964693 0.007991931 0.034545776 -0.010965879 0.0043743276 -0.19687434 -0.06911588 -0.0626219
0.009181583 0.0056907875 -0.04214237 -0.046853654 -0.056350555 -0.05702103 -0.06680467 -0.08963804
0.03705875 -0.08728413 0.044375412 -0.056581244 0.029448202 0.05155819 0.08420909 0.024490984
-0.034077715 -0.077194214 0.01227774 -0.024961976 -0.033904094 -0.013075536 0.013816064 -0.008910202
0.04670822 0.034859553 -0.059462186 -0.040911485 -0.009231379 -0.036658436 -0.029369667 -0.16271576
-0.011452301 -0.041802347 0.017770292 0.068224676 -0.025774302 -0.03226996 0.024616098 -0.015117173
0.006650862 -0.034585617 -0.053293727 0.06129068 -0.030780714 0.03989977 -0.010198486 0.018580563
0.021798728 0.07937028 -0.066211715 0.034273103 -0.062044255 0.091446646 0.0016417865 -0.0095314495
-0.009388351 -2.3296745e-06 0.06492484 -0.010613898 -0.054752678 -0.014808677 0.030398065 -0.060760446
-0.071705766 -0.03179244 0.035412565 0.017659033 -0.038015064 -0.048035063 -0.07510616 0.011959641
0.08694699 0.0076751155 0.009262138 0.0075746546 0.028770655 0.0026562186 0.00049430685 0.045372274
00000000: ee0d 08bc a0a2 523d d360 44bd 9500 853d
00000010: 368e 0e3d a181 87bb 892a e9bc d31e 5bbd
00000020: 2e2b 4ebd 33a7 50bb b4dd a0bc 6f98 2fbd
00000030: 2311 3fbc 20ef 4abd dfe8 373d 6c3e 3cbd
00000040: 78df 833d 5f92 903d 9cbe 53bc f493 953c
00000050: 8788 03bc eeae f83c 3d1f 0f3c 156c ddbd
00000060: 16f9 a4bc 7a22 d7bb ceff fe3c 8bea 53bc
00000070: a21d debc baeb 5abe 0f0e cdbd 6335 e537
00000080: b7a6 adbd d5ba 94bc 7497 403c c084 4dba
00000090: 58f1 673d ca47 d63c 5e8a 4c3c 0dd4 a13c
000000a0: 3b38 3ebd 10d8 e33c 1484 fcbc c064 20bd
000000b0: 0ce6 a63c b2d7 383d 1e0f 7dbd 5878 0b3d
000000c0: fae7 38bd 9db3 103c 2e95 0e3d 214e 813b
000000d0: 0c78 42bd a888 b73c f17e 12bb a8e3 79bd
000000e0: 3d54 9b3d c782 a53d 8eeb a73d 7141 72bd
000000f0: 4cfe edbc 7bb8 7cbd 63e7 1dbd ee5d febd
00000100: 3997 f43c 4087 9fbd fa3b 85ba f0cc 5d3d
00000110: 662c 56bd 55e8 ec3c fa69 7fbd da38 143d
00000120: d331 9c3c e4ef cf3c eb93 a9bd 1382 613d
00000130: f39f a23d 5d9e 6f3c 6aee f9bc eb28 11bb
00000140: f54c 2d3c 2233 e73c 27ff 603d b674 5c3d
00000150: 8a80 d6bc 48a1 2a3c ce09 31bd 020d 06bc
00000160: bccd 0cbc fbb9 77b5 04ad 663c fdff 8ebc
00000170: cdbd 1e3d c271 97bc a0c8 dabd 48cf e8bd
00000180: d945 ce3a 4f7d fdbc cb27 393c 9d42 df3c
00000190: 947c fbb9 1515 b3bb 829a a5ba 06e5 a83b
000001a0: b897 803b ea58 4bbb 484d 363d c174 3a3d
000001b0: 55a4 093d c662 a2bb 1064 8bbd 93f1 52bd
000001c0: dc61 343c d47b 813d eb97 a3bc 2bc6 323c
000001d0: 5b2f 8dbc 87ae 3cbd 55ee 9dbb d8d8 dd3d
000001e0: fe68 bd3d 1924 b93c 83cd e7bc 0e5b 723d
000001f0: 4acf 8abc 878f 8abd 6289 c2bd 8155 453d
00000200: 654e e93c fc20 903d e423 da3c 955c 073a
00000210: bec1 15bd 5056 a93c cf8d 4f3d d57e 4bbc
00000220: 216d a83d 615d 9dbd 7ac8 1d3c b66a f3bd
00000230: 9579 0dbe 653e 3d3d c337 acbc 27b0 f2bc
00000240: 65dd 4abc 5f3d 44bd d123 283c b3fb 793d
00000250: 63e1 ab3d e9a4 08bd 2307 ed3a e745 edbc
00000260: 2598 5bbd ed1a 043d 4e4e 863d 9f8a 693d
00000270: 50ea ba3c b69d 11bd 8c48 353d 3cc0 c3bc
00000280: a223 773d 132c 0a3d 5cdc ec3c 55d8 943d
00000290: 71ed 4a3c eb7b 12bd ae5d b0bd 6d97 fdbd
000002a0: 5d47 edbc 97f0 023c df7f 0d3d 3baa 33bc
000002b0: 8556 8f3b 6d99 49be a08c 8dbd e93f 80bd
000002c0: 5a6e 163c c979 ba3b 7a9d 2cbd 9ee9 3fbd
000002d0: d7cf 66bd e28e 69bd e3d0 88bd 2694 b7bd
000002e0: eaca 173d 06c2 b2bd fec2 353d bcc1 67bd
000002f0: 5b3d f13c ae2e 533d d175 ac3d 51a1 c83c
00000300: 1395 0bbd 0018 9ebd 9328 493c 0f7d ccbc
00000310: 05df 0abd c63a 56bc c65c 623c 19fc 11bc
00000320: 1e51 3f3d e4c8 0e3d 9f8e 73bd cd92 27bd
00000330: 363f 17bc 2827 16bd a898 f0bc f69e 26be
00000340: 6fa2 3bbc f038 2bbd 0193 913c 61b9 8b3d
00000350: a124 d3bc 812d 04bd b3a7 c93c 05ae 77bc
00000360: 79ef d93b a6a9 0dbd 864a 5abd f00b 7b3d
00000370: d627 fcbc f16d 233d 8d17 27bc 4436 983c
00000380: 3f93 b23c e38c a23d 029a 87bd f461 0c3d
00000390: 1e22 7ebd 6148 bb3d 3731 d73a cc29 1cbc
000003a0: 99d1 19bc 8157 1cb6 51f7 843d eae5 2dbc
000003b0: 5844 60bd 18a0 72bc 5d05 f93c f2df 78bd
000003c0: 79da 92bd ca38 02bd c40c 113d ada9 903c
000003d0: afb5 1bbd 6ac0 44bd 42d1 99bd 5ff2 433c
000003e0: 4311 b23d 897f fb3b 39c0 173c cf34 f83b
000003f0: 70b0 eb3c f413 2e3b 5f94 013a 47d8 393d

decoder.decoder.4.bias f4 [16]
-0.02090864 -0.019710125 0.028685564 0.027576903 0.013169782 0.02632217 -0.009608445 0.011617636
-0.047061108 -0.017407736 -0.003586341 0.004183034 0.048778407 -0.021368757 0.0012023766 0.016655004
00000000: 9948 abbc 2177 a1bc fdfd ea3c f5e8 e13c
00000010: 12c6 573c 97a1 d73c bd6c 1dbc e657 3e3c
00000020: 26c3 40bd ab9a 8ebc d108 6bbb d511 893b
00000030: decb 473d 880d afbc 1099 9d3a 1370 883c

decoder.decoder.5.weight f4 [16]
0.99202734 0.9464077 0.99110824 1.0317086 0.9775478 0.97569376 0.9808205 0.99020004
1.0327907 0.9967345 0.98434556 0.95590174 1.0381932 1.0090659 1.0071617 1.0037656
00000000: 81f5 7d3f c647 723f 45b9 7d3f 070f 843f
00000010: 9340 7a3f 11c7 793f 0d17 7b3f c07d 7d3f
00000020: 7c32 843f fe29 7f3f 12fe 7b3f fab5 743f
00000030: 84e3 843f 1229 813f adea 803f 647b 803f

decoder.decoder.5.bias f4 [16]
-0.02178693 -0.027483895 0.03725023 0.033055432 0.03696798 0.030677523 -0.0064116544 0.01803356
-0.04540273 -0.014953057 0.0028349247 0.003649777 0.038991854 -0.012509231 0.022534406 0.008540359
00000000: 817a b2bc e825 e1bc b293 183d 2265 073d
00000010: bd6b 173d 6e4f fb3c db18 d2bb 1ebb 933c
00000020: 37f8 39bd abfd 74bc 25ca 393b 1931 6f3b
00000030: ecb5 1f3d 85f3 4cbc 139a b83c ddec 0b3c

decoder.decoder.5.running_mean f4 [16]
0.0725016 -0.18036146 -0.1001663 -0.116971955 -0.12834899 -0.084472194 -0.024130853 -0.12403774
0.058442865 0.21548499 -0.13630925 0.031301975 -0.21952394 0.11261798 0.11467649 -0.057663817
00000000: b87b 943d adb0 38be fd23 cdbd fe8e efbd
00000010: eb6d 03be c2ff acbd 11ae c5bc 8007 febd
00000020: c961 6f3d 19a8 5c3e a794 0bbe 8036 003d
00000030: e2ca 60be 41a4 e63d 82db ea3d e530 6cbd

decoder.decoder.5.running_var f4 [16]
0.037431773 0.05413445 0.10590717 0.03686302 0.10581409 0.026738012 0.226248 0.07653936
0.080526754 0.08286007 0.07601872 0.06026215 0.051824607 0.09169385 0.17265984 0.06023424
00000000: 0f52 193d 16bc 5d3d dce5 d83d aefd 163d
00000010: 0fb5 d83d ad09 db3c 8ead 673e abc0 9c3d
00000020: 36eb a43d 8ab2 a93d b4af 9b3d 72d5 763d
00000030: 0a46 543d fcc9 bb3d becd 303e 2eb8 763d

decoder.decoder.8.weight f4 [16, 16, 3, 3]
0.039124507 -0.065090075 0.038275976 0.044942904 0.007961295 -0.06569636 -0.082160234 -0.0559686
0.07441043 0.04633901 -0.040908694 -0.07860044 0.015007266 0.05343526 -0.0036485852 -0.028418029
-0.0067696455 -0.010491479 -0.035040926 -0.059584666 -0.035921723 -0.017949501 0.03296476 0.12866868
0.04944469 -0.0079815565 -0.15088123 0.069883496 0.008122713 -0.038928665 -0.013782126 -0.034011412
0.049700603 0.04221509 -0.013090371 0.006978873 -0.06615089 -0.0069207978 0.045125514 0.07457345
-0.028846394 -0.0077657844 0.010033032 -0.04785001 -0.07685881 -0.05685504 0.025547111 0.015073221
-0.016444284 -0.01978229 -0.06013894 0.05458803 -0.04672896 0.03566819 -0.038928557 0.0060235807
-0.033374887 0.0065598185 0.10794904 0.12460267 0.0120572755 -0.037475828 -0.025309615 -0.021951083
0.017968128 -0.030807693 0.005002705 -0.045328557 0.13243936 -0.011971707 -0.04238006 0.049557842
0.062562406 0.03224853 -0.029983472 -0.093408115 0.026687436 -0.041670606 -0.026380401 -0.029143872
0.010231643 -0.065418586 -0.014562428 -0.05211775 0.091865554 0.039402556 -0.03142702 0.056039385
0.020067591 0.06260589 0.039845303 -0.10438047 0.01965862 -0.030808128 -0.13096052 -0.17384817
0.013496062 -0.027020968 -0.035484485 -2.456213e-05 0.054817054 -0.07049924 -0.054821488 0.022862513
-0.028749151 0.037581544 0.05907484 -0.022072513 -0.02345547 0.030792462 -0.0038198442 -0.0052420925
0.06665617 0.05685775 -0.004061891 0.03001199 -0.20473649 0.032125942 -0.029210227 0.07396184
0.041154694 0.067433536 0.020043848 -0.016147286 0.03654155 -0.030045832 0.081544295 -0.010257907
-0.031409293 -0.034232613 -0.046974294 0.01471265 0.011560735 0.056202836 0.03358898 0.02426803
0.10307675 0.09952665 0.07496989 -0.0024976286 -0.011904114 -0.06573119 -0.10988512 -0.040672794
-0.07947047 0.059790917 -0.0206501 0.031850386 -0.012048988 -0.08381982 -0.008826533 -0.07874135
0.057475112 -0.031162 -0.04121317 -0.0076725665 -0.010538249 -0.0065677175 0.027278578 -0.04130752
-0.02912918 -0.06455913 0.13684338 -0.08051229 0.08444399 0.0036622747 -0.014254504 0.034401815
-0.06426796 0.05683665 0.035876606 -0.010576913 0.02274922 0.018458623 0.014056179 0.051376477
0.090652965 -0.0009342817 0.0072997063 0.0074437167 -0.04553632 0.07210242 0.0397589 -0.08929532
0.024459487 -0.007724281 -0.07573468 -0.09547544 -0.09336452 0.13413112 -0.042445175 0.075671256
0.07388705 -0.015510883 0.018754754 0.024919042 0.044585496 -0.06750475 -0.043949954 0.026316665
-0.013324856 -0.009867667 -0.058187224 0.036169913 0.012059438 -0.06480268 0.061551612 -0.007616594
0.049691122 -0.06646877 -0.014901146 -0.002289816 0.013713217 -0.0022188446 -0.055716977 0.02965483
-0.037993677 -0.06786181 -0.058294803 -0.045246687 0.044668935 0.09411326 0.022267887 0.053352427
0.034609605 -0.06846952 0.04122719 0.16597122 -0.065381385 -0.013868917 0.036764365 0.016501088
-0.0059327483 -0.058819506 -0.11022771 -0.121555775 -0.07869666 0.060474798 0.05066609 0.0945707
-0.031473283 -0.01283255 -0.01535121 -0.011132227 0.058641765 -0.06133939 0.06159508 -0.05170029
-0.04995507 -0.04290865 -0.031098757 -0.00402395 0.021576406 0.0206197 -0.05035982 -0.029578399
00000000: 0541 203d f24d 85bd 45c7 1c3d 0d16 383d
00000010: 1770 023c d08b 86bd a043 a8bd 553f 65bd
00000020: 7f64 983d f9cd 3d3d e08f 27bd 44f9 a0bd
00000030: 09e1 753c eede 5a3d 1a1d 6fbb edcc e8bc
00000040: e7d3 ddbb 74e4 2bbc 1387 0fbd 0d0f 74bd
00000050: a822 13bd d50a 93bc 0e06 073d b9c1 033e
00000060: 8486 4a3d 13c5 02bc 9c80 1abe 141f 8f3d
00000070: 2115 053c aa73 1fbd 6dce 61bc 8d4f 0bbd
00000080: dc92 4b3d bbe9 2c3d ff78 56bc 08af e43b
00000090: 1e7a 87bd dcc7 e2bb 88d5 383d f7b9 983d
000000a0: 464f ecbc 1f78 febb 9661 243c 5ffe 43bd
000000b0: 2768 9dbd d5e0 68bd 2d48 d13c acf5 763c
000000c0: 2ab6 86bc 780e a2bc 4054 76bd b397 5f3d
000000d0: de66 3fbd cf18 123d 8d73 1fbd 7561 c53b
000000e0: 1bb4 08bd bff3 d63b 6314 dd3d af2f ff3d
000000f0: e18b 453c 4180 19bd 1c56 cfbc c2d2 b3bc
00000100: e531 933c 6a60 fcbc bbed a33b 70aa 39bd
00000110: 2f9e 073e fb24 44bc b796 2dbd 2afd 4a3d
00000120: b820 803d 0917 043d e69f f5bc c14c bfbd
00000130: 9c9f da3c ccae 2abd b61b d8bc 21bf eebc
00000140: 9fa2 273c 2efa 85bd 4097 6ebc 6c79 55bd
00000150: 0224 bc3d 9364 213d 9eb9 00bd 8e89 653d
00000160: ca64 a43c 8437 803d d434 233d 6ec5 d5bd
00000170: 1d0b a13c 5461 fcbc 841a 06be 4105 32be
00000180: 961e 5d3c 145b ddbc 2e58 11bd c60a ceb7
00000190: d987 603d e861 90bd 7f8c 60bd 2a4a bb3c
000001a0: 5783 ebbc 1bef 193d 76f8 713d 6ad1 b4bc
000001b0: b025 c0bc 7940 fc3c 5a56 7abb dcc5 abbb
000001c0: 0883 883d ace3 683d 9d19 85bb b4db f53c
000001d0: 71a6 51be 7e96 033d 494a efbc 4e79 973d
000001e0: d391 283d 981a 8a3d ff32 a43c 5047 84bc
000001f0: 98ac 153d ad22 f6bc b200 a73d c810 28bc
00000200: 08a7 00bd 7f37 0cbd 1e68 40bd 540d 713c
00000210: 3d69 3d3c f234 663d 9994 093d bfcd c63c
00000220: e719 d33d a1d4 cb3d d089 993d 41af 23bb
00000230: 7909 43bc 139e 86bd 730b e1bd 8498 26bd
00000240: 6ac1 a2bd 52e7 743d 662a a9bc 8d75 023d
00000250: 1e69 45bc baa9 abbd 2a9d 10bc 2543 a1bd
00000260: 066b 6b3d 7347 ffbc 24cf 28bd 276a fbbb
00000270: 9fa8 2cbc 0236 d7bb 5377 df3c 1332 29bd
00000280: 51a0 eebc 9437 84bd ac20 0c3e a1e3 a4bd
00000290: f8f0 ac3d c602 703b b98b 69bc ebe8 0c3d
000002a0: ec9e 83bd 8ccd 683d 59f3 123d ca4a 2dbc
000002b0: 925c ba3c 8a36 973c e34b 663c 2470 523d
000002c0: 43a8 b93d 95ea 74ba 6032 ef3b 6cea f33b
000002d0: 4b84 3abd 6faa 933d 3ada 223d 77e0 b6bd
000002e0: 435f c83c f71b fdbb c91a 9bbd a188 c3bd
000002f0: e635 bfbd ab59 093e feda 2dbd 88f9 9a3d
00000300: 1852 973d 5c21 7ebc 92a3 993c 0523 cc3c
00000310: 489f 363d ee3f 8abd de04 34bd 0c96 d73c
00000320: 7f50 5abc ffab 21bc ba55 6ebd e726 143d
00000330: f394 453c 44b7 84bd 8b1d 7c3d 9f94 f9bb
00000340: eb88 4b3d c720 88bd f023 74bc bd10 16bb
00000350: 67ad 603c 096a 11bb 7c37 64bd b0ee f23c
00000360: 429f 1bbd 22fb 8abd 88c6 6ebd 9754 39bd
00000370: c6f6 363d 74be c03d 256b b63c 1388 5a3d
00000380: cdc2 0d3d bf39 8cbd d8dd 283d 5cf4 293e
00000390: ade6 85bd 743a 63bc 3b96 163d 4a2d 873c
000003a0: 8067 c2bb b9ec 70bd 11bf e1bd 3cf2 f8bd
000003b0: b72b a1bd 6cb4 773d 3f87 4f3d 48ae c13d
000003c0: 21ea 00bd 9e3f 52bc a483 7bbc f263 36bc
000003d0: 5932 703d 033f 7bbd 1f4b 7c3d afc3 53bd
000003e0: b09d 4cbd fbc0 2fbd d2c2 febc 57db 83bb
000003f0: 01c1 b03c a5ea a83c 1946 4ebd 664e f2bc

decoder.decoder.8.bias f4 [16]
-0.008433159 0.012482878 0.009271839 0.0020606236 0.0014103353 0.019775664 -0.0141845485 -0.00590043
-0.0035909992 -0.021181012 -0.00055857043 0.006160609 0.0010464578 -0.007331723 0.020355185 0.0077873906
00000000: 3c2b 0abc fc84 4c3c e9e8 173c 870b 073b
00000010: 00db b83a 9300 a23c 4f66 68bc 6558 c1bb
00000020: f856 6bbb cd83 adbc 076d 12ba efde c93b
00000030: 4c29 893a f33e f0bb ebbf a63c 5e2d ff3b

decoder.decoder.9.weight f4 [16]
1.0308373 0.97974735 0.9710851 0.9775432 1.0392036 0.9611579 1.0021104 0.9861463
0.9917142 1.075346 1.0061574 1.0085738 0.955932 0.91051006 1.0753753 1.0018417
00000000: 7af2 833f b9d0 7a3f 0899 783f 4540 7a3f
00000010: a004 853f 720e 763f 2745 803f 1574 7c3f
00000020: fbe0 7d3f f0a4 893f c4c9 803f f218 813f
00000030: f6b7 743f 3017 693f e6a5 893f 593c 803f

decoder.decoder.9.bias f4 [16]
-0.026843663 0.024002329 0.014870024 -0.010134985 0.03338967 0.017886616 -0.006193967 -0.0020420994
0.006857216 0.008331737 0.014913449 0.023791034 -0.005784086 -0.036276422 0.047258027 0.015941607
00000000: 3ee7 dbbc 88a0 c43c 67a1 733c 350d 26bc
00000010: 9bc3 083d f486 923c c3f6 cabb bed4 05bb
00000020: 7fb2 e03b d681 083c 8a57 743c 6ae5 c23c
00000030: 6e88 bdbb 9696 14bd a291 413d f997 823c
