AE_model_params.pth (torch, 92557 bytes, 56 tensors)

encoder.encoder.0.weight f4 [16, 1, 3, 3]
00000000: 4709 e43d f34b 96be 993b b03d a760 c33d
00000010: 6d9f 503e 9008 8fbe 1c7e 273e bd19 71bc
00000020: 4b6c 1dbd 028c 1b3e e5fe 4abe 510d 66be
00000030: ae52 47be 33e3 2ebe 0045 953e 4c6c 1bbe
00000040: 1e53 9ebd 63be 56be bfc2 88bd 0cde 143e
00000050: 8bf5 603e 6c12 7f3e 88d3 93bc 013c d93d
00000060: 722f 813c 9625 713e 4b69 e73b 373e 02bc
00000070: f9fe e13d 040d 553e a800 683e 6cb5 593c
00000080: f428 61be 332d a9bc 9edb bc3d 2c80 87be
00000090: 19fc 27be 1e62 9cbe a7d0 39bc 89c1 dbbd
000000a0: 6c45 01be 0630 873e 0bef 70be fdaf 1abd
000000b0: e035 6f3e 78c1 433e 0549 013e e134 02be
000000c0: e082 613d dbbf 21be 6ee6 55be 88c6 9bbe
000000d0: 842e a73d f9f0 92be deea 72be 6366 fdbd
000000e0: 3736 0ebe 4aaf 26bd ab1c 77bb e138 aa3d
000000f0: 482d 523e e7c4 f03d 407e 093e b56a 88be
00000100: 25bc 9d3e b8b3 4bbd a349 8b3e 928e debd
00000110: 7d51 ba3e 2083 8abe 0b94 83be 9e6d a1be
00000120: 63d1 113e ec95 bdbd f8f5 a1bc 6a6d 973e
00000130: 2e8f 6dbe 6aa5 843e 4ebb 23be 4404 3dbe
00000140: bd97 6a3e fe58 83be 81b8 eabd 88f3 ac3d
00000150: 96fc 93be 41bf 6e3e 90cc e83d 5c31 4e3e
00000160: 7e41 b0bb 512b 7d3d 35d6 7d3e e577 603e
00000170: 9091 863e fee4 1dbd 414d eabd 7f88 6dbe
00000180: 64f7 65be c027 2b3a 5425 a3bd 3853 6dbe
00000190: 357a a33c df1c 37be 5405 ae3d 18be 8bbe
000001a0: 33e7 523d 24e1 733d d6d6 b43e 6a22 94be
000001b0: 3de0 4d3e f750 a1be 7464 013e 7033 e4bd
000001c0: 47d4 67be a531 1ebe d2fb f5bd 8e8a 03be
000001d0: f64a aa3c bc4c 1a3e 355a 35be 9b4c 833e
000001e0: 6000 39be 6017 1b3e 6bc8 833e 3d44 ad3e
000001f0: 8d10 bdbd 8766 863e 8942 b5bc 1c5e 283e
00000200: f42f 4cbe b6e9 24be b57c 97be d301 9cbe
00000210: 10f8 1b3e a152 a93d 318d b93b ce90 a93d
00000220: 0667 69bd 0d5c 9e3e 5e42 6cbe 1f4d ac3c
00000230: cbd9 e8bd 751a 8bbd 5d6f ba3b c1b6 50be
0.11134582 -0.2935482 0.08605117 0.09539919 0.20373316 -0.2793622 0.163567 -0.014715609
-0.038433354 0.15190127 -0.19823797 -0.22466017 -0.19465134 -0.17078857 0.29154205 -0.1517803
-0.07730697 -0.20971064 -0.0667777 0.14537829 0.21968667 0.24909371 -0.018045202 0.10607148
0.015769694 0.23549494 0.0070621124 -0.0079494035 0.1103496 0.20805746 0.226565 0.013287883
-0.21988279 -0.020651435 0.09221576 -0.26464975 -0.16404761 -0.30543607 -0.0113412505 -0.10730273
-0.12624139 0.26403826 -0.23528688 -0.03776549 0.23360395 0.19116771 0.12625511 -0.12715484
0.055056453 -0.15795843 -0.20888683 -0.30424905 0.08163169 -0.28699473 -0.23722407 -0.12373044
-0.13887869 -0.040694512 -0.0037706296 0.0831163 0.20525086 0.11756306 0.13427067 -0.2664391
0.30807605 -0.04973194 0.27204618 -0.10867037 0.36390296 -0.27053165 -0.25698885 -0.31528944
0.14240031 -0.09257111 -0.019770607 0.29575664 -0.2319915 0.2590745 -0.1598942 -0.18458658
0.22909446 -0.25653833 -0.114609726 0.084448874 -0.28903645 0.23315145 0.11367142 0.20136017
-0.005378901 0.061808888 0.24788745 0.21920736 0.2628293 -0.038548462 -0.11440516 -0.231966
-0.22457653 0.00065290555 -0.07966104 -0.23176277 0.019955734 -0.17882107 0.0849711 -0.27293468
0.05149002 0.059540883 0.35320157 -0.28932506 0.20105071 -0.31507084 0.12635976 -0.111426234
-0.22639571 -0.15448625 -0.120109215 -0.12845823 0.020787697 0.15068334 -0.17710193 0.25644383
-0.1806655 0.15145636 0.25738844 0.33841124 -0.092316724 0.26250097 -0.022126453 0.1644215
-0.19940168 -0.16104779 -0.2958733 -0.30470142 0.15231347 0.08267713 0.0056625833 0.082795724
-0.056983016 0.30929604 -0.23072192 0.021032868 -0.11369666 -0.06792156 0.005689545 -0.20382215

encoder.encoder.0.bias f4 [16]
00000000: 5a7e 42bd fcca a43b 3c14 ad3d 824c b03b
00000010: c85e cfbc c15d d8bb 2e0d 5bbc 1148 b1bc
00000020: f306 2ebe 335d f5bd df4e 70bc 953e 7bbd
00000030: 17c9 ba3a ae83 f1bd d50c b53c 7b34 403d
-0.04748378 0.0050290804 0.08451125 0.005380214 -0.02531375 -0.006602973 -0.0133698415 -0.02164081
-0.16994838 -0.11980667 -0.014667242 -0.06133898 0.0014250603 -0.11792694 0.022100845 0.04692505

encoder.encoder.1.weight f4 [16]
00000000: af7d 543f a67e 653f 26cb 6d3f 610c 5c3f
00000010: e672 853f 08e8 643f fbd8 723f 8efe 753f
00000020: 864a 4c3f 0a44 643f 25c1 673f bb46 763f
00000030: 746c 653f 1059 5c3f bbfe 4b3f c944 6f3f
0.8300428 0.89646375 0.92888105 0.8595639 1.0425689 0.8941655 0.94862336 0.96091545
0.79801214 0.8916632 0.9052909 0.96201676 0.8961861 0.860734 0.7968556 0.9346433

encoder.encoder.1.bias f4 [16]
00000000: b64e 37bd 8cb2 47bc 8950 e3bb 23bf 80bd
00000010: 7372 9cbc fcf5 38bc 0a9b 91bb 79a9 a8bc
00000020: bdfe 15bd 93cf 27bc b359 86bc ebc5 16bd
00000030: f4f6 233c 32da 82bd 27ea 86bc d8a8 a8bd
-0.0447528 -0.012188565 -0.006937091 -0.062864564 -0.019097542 -0.011289116 -0.004443531 -0.020588623
-0.03661989 -0.010242361 -0.016400194 -0.036809843 0.010007609 -0.06389274 -0.016469074 -0.082353294

encoder.encoder.1.running_mean f4 [16]
00000000: 8a01 65bd 1f35 193f 9b59 14bf f796 e7bd
00000010: 79fd f93e 04de 003f e622 bb3d a1f7 d43e
00000020: ef34 b4be be55 8fbd d4f7 d63c 18cc 943e
00000030: a419 ed3e accc 6fbf 3212 253f 4ba1 9d3e
-0.05590967 0.5984668 -0.5794923 -0.11308091 0.48826197 0.5033877 0.09137516 0.41595176
-0.35196635 -0.06998776 0.02624122 0.2906196 0.46308625 -0.9367168 0.6448089 0.3078712

encoder.encoder.1.running_var f4 [16]
00000000: 5c51 b63c 99e0 433e c544 863e 301f 7c3d
00000010: b5f1 4b3e 21d0 463e 0dbe 743d a5ce f43d
00000020: f7a0 4a3d ce38 8d3d dee5 c03d cc31 8c3d
00000030: 1da9 093e b138 df3e 769f 5f3e 0fd1 0b3d
0.022255592 0.19128646 0.26224342 0.06155318 0.19916423 0.19415332 0.05975156 0.11953477
0.049469914 0.068956 0.09418844 0.068454355 0.13443418 0.4359794 0.21838173 0.03413492

encoder.encoder.4.weight f4 [16, 16, 3, 3]
00000000: 43cd a2bd d618 88bc 825e 85bc 0373 a7bd
00000010: 124d 02bd da29 04bd 933d 8e3d 6801 b53b
00000020: 30de edbb 69a4 08bd 0d27 58bc bf54 8fbd
00000030: 465b f33d faee 3c3c 656c a33d 7909 0abd
00000040: b698 c2bd 29e0 c73d 798f af3c 515f 153d
00000050: 3c47 5b3c cbad 5d3d a61c 873d 3276 7f3d
00000060: 3499 cf3d 8c60 6b3d 0c18 e13d 95a9 95bd
00000070: 10ff 1bbc 1357 25bd 5903 3abd ba43 523d
00000080: ddc7 7c3d edfe a23c ed56 993c 3d94 dc3d
00000090: 279d 9d3d c36b 943d 3c06 f33d 9615 343d
000000a0: 7cd4 f23d 0dc8 8e3d 256e c1bc 1958 d53c
000000b0: 81d6 203e 4755 363d 4de0 8bbd bf46 87bd
000000c0: 8dd2 803d 1213 1abd 1a8e 963d b4cd f3bd
000000d0: 6d68 cdbc 4462 313e 9956 b13d 5ce0 4abd
000000e0: a113 183d 4cf3 ca3b b366 4a3b 982c aebc
000000f0: 517a a93d 5ed8 c43d 6939 053e e2da aabc
00000100: 1321 7ebd 6204 4e3c 2756 50bd 43c8 53be
00000110: 1dea f6bd 69a2 88bd fe04 1d3d ba25 9d3d
00000120: 4a82 6fbd a4f5 49bc 8b66 213e 660a b0bd
00000130: 7ce5 21bd 87e7 a03d 438d d7ba 69e9 fb3b
00000140: 24a8 c73d 9c73 3d3c 8932 44bc f7c7 b33d
00000150: b46a 703d e043 bc3d d8a1 063e d0a1 853d
00000160: c617 da3d e691 b13d 29f9 1f3c 8970 aa3c
00000170: f7a7 1fbd 1f00 6c3d a862 373d eb2e 9e3d
00000180: f259 e5bd d79c a63c f88a e83b 35d5 1f3d
00000190: 06b0 82bc d055 5ebd 3459 603d 2e36 86bd
000001a0: b533 23be bf78 863c ff35 0abd 7c0e cebd
000001b0: 3c73 d03d 6089 d4bc 5da4 073d 8e0c 783d
000001c0: 1e78 833d 5023 ca3c 2298 34bc 4a87 afbd
000001d0: 0c34 283e 5e24 313d e8e4 8d3d 85f8 8fbc
000001e0: ba0d 4ebd 91c9 b8bc bffb 8b3d 4ad9 e63d
000001f0: d3ad d93d 64a8 dfbb eb2c 9ebc adff 4dbd
00000200: faf5 62bd 8d44 b33d 5f1a d9bd c4c6 9dbd
00000210: e40c 013e c0a2 12bc 8fda 4b3d 54ae 77bb
00000220: b9e3 4d3d a32f fb3b dd77 033d 30de 013d
00000230: dac1 c53d ad28 08be ff4a 0dbe 3a02 76bc
00000240: 0cc2 3ebd 878b 423d 6701 84bc 1c67 cbb9
00000250: ef88 9b3c 8cbc 6bbd 33bc adbd 7b25 70bd
00000260: bf64 0ab9 674c 19bd 9ceb 26be f617 903c
00000270: 8f2c 3abe c024 0cbd 6572 5d3c ac41 37bd
00000280: 7bbc 9fbd 55a5 14bd 0e81 74bd 43c7 453d
00000290: 51ff 353d 67e3 81bd 0b39 b73d b9e8 943d
000002a0: ab5c a33a 5a87 b13d 34d8 2c3d 6cc0 30bd
000002b0: 74d9 f8bc daf8 9ebd 7632 c0bc 1168 ec3c
000002c0: 8891 8cbd b6af 823d 7cec 143d 2b39 d53c
000002d0: ddff adbd f7cf efbd 5b58 853d 0976 e1bd
000002e0: 73af e8bc 2cb0 39be 61ff 833d cca5 d03c
000002f0: cef1 85be d61a 093c c25c 96bb a3f3 1ebc
00000300: f9cc 92bc 7773 2a3d fa91 82bd 5e8d 903d
00000310: 70bb 973d dcec 40bd af64 d43c c446 ddbd
00000320: 112c b23c e99c e13d e65f 38bc a3a7 3e3c
00000330: dc59 0f3e 3398 ddbd 7098 58bd 6514 58bd
00000340: 1626 56bc 4485 f43c 5c66 3e3d c87a 563d
00000350: 1b88 f93d aef5 aebc 1444 b93b 8801 2d3e
00000360: e5dd 923c 9e05 debc 0da7 5fbd 9017 8b3d
00000370: 4a7a d5bc 767d e53c 0938 23bd 5df9 75bc
00000380: f236 65bd dcb1 c53d 5fd3 203d e089 8e3b
00000390: dcec 0d3d 351b 603d 11eb f33c f490 883d
000003a0: a773 aa3d d6eb 4fbe 7b58 143e 3aed ef3c
000003b0: f88f 8fbd c49d a93b d166 183d b1e6 383d
000003c0: 5dd0 e43c 2654 0fbc 42ae 653d dca9 f5bd
000003d0: c3fd 23be d273 f7bc 2096 413b 890c 5dbe
000003e0: 5c42 ef39 3037 01be 8196 073b 536d ad3c
000003f0: 476d 15bd a346 25be 7c10 213d eaa4 bebd
-0.07949307 -0.016613405 -0.016280416 -0.081762336 -0.03181178 -0.032266475 0.06945338 0.0055238493
-0.007259153 -0.03335992 -0.013192904 -0.06998586 0.118826434 0.011531586 0.07979659 -0.03370044
-0.095017835 0.09759552 0.021430718 0.036467854 0.013383683 0.05412082 0.06597261 0.06236858
0.10136643 0.05746512 0.10990915 -0.07307736 -0.009521261 -0.040366244 -0.04541335 0.05133412
0.061714042 0.019896949 0.018718207 0.10770462 0.0769599 0.072471164 0.118664235 0.0439659
0.118569344 0.069717504 -0.023612091 0.026042985 0.15706827 0.04451492 -0.06829891 -0.066052906
0.062901594 -0.037615843 0.073513225 -0.11904469 -0.025074208 0.17322642 0.08659095 -0.049530372
0.037128095 0.006193554 0.0030883967 -0.021261498 0.08275283 0.09611581 0.13010181 -0.020856325
-0.06204326 0.012574287 -0.05086341 -0.20681863 -0.12056372 -0.06671602 0.03833484 0.076732114
-0.058473863 -0.012326632 0.15761773 -0.08595733 -0.039525494 0.0785666 -0.0016445298 0.007687737
0.09748867 0.011563208 -0.011974939 0.08778375 0.05869551 0.09192634 0.13147676 0.06525004
0.10649066 0.08670406 0.009763994 0.020805614 -0.038978543 0.057617303 0.04477182 0.07723793
-0.11198796 0.020338459 0.0070966445 0.03902169 -0.015953075 -0.054281056 0.05477257 -0.06553303
-0.15937693 0.016414998 -0.0337429 -0.100613564 0.10178229 -0.025944412 0.033115733 0.060558848
0.06419395 0.024675041 -0.011022599 -0.08570726 0.16426104 0.043247573 0.06928426 -0.017574558
-0.05030606 -0.022557052 0.06835126 0.11271913 0.106288575 -0.0068254936 -0.019308528 -0.05029266
-0.055410363 0.087533094 -0.10600733 -0.07703927 0.12602574 -0.008949935 0.04976898 -0.0037793117
0.050266 0.007665591 0.032096732 0.031706035 0.09656115 -0.13296767 -0.1379814 -0.015015179
-0.046571776 0.047496345 -0.01611395 -0.00038796 0.018986193 -0.05755286 -0.08483162 -0.058629494
-0.00013198236 -0.03742638 -0.16300815 0.01758955 -0.1818106 -0.034214735 0.013516043 -0.044740364
-0.07799622 -0.036290485 -0.05969339 0.048285734 0.04443294 -0.06342202 0.08946427 0.07270951
0.001246353 0.086683944 0.042198375 -0.043152258 -0.030377127 -0.077623084 -0.023461562 0.028858216
-0.068636954 0.063811705 0.03635834 0.026028236 -0.08496068 -0.11709588 0.06510993 -0.110088415
-0.028403973 -0.1813361 0.06445194 0.025469683 -0.26161045 0.008368215 -0.0045886943 -0.009701642
-0.017920004 0.041614022 -0.06375499 0.07058214 0.07408798 -0.047100887 0.025926916 -0.10804513
0.021749528 0.11016256 -0.011253333 0.011636647 0.13999122 -0.10820045 -0.05287975 -0.052753825
-0.013070604 0.029848702 0.046484336 0.052363187 0.12184163 -0.021357384 0.0056538675 0.16895115
0.017928073 -0.027102288 -0.05460267 0.067916036 -0.026059289 0.028013926 -0.03984836 -0.015013066
-0.055960603 0.096530646 0.03926408 0.004349932 0.034649715 0.054713447 0.029775174 0.066682726
0.0832284 -0.20304808 0.14486878 0.029287923 -0.07009882 0.005176278 0.03720743 0.04514188
0.027931387 -0.00874809 0.05607439 -0.11995289 -0.16014771 -0.030206595 0.0029538944 -0.21586813
0.00045635074 -0.12618709 0.0020689073 0.021170294 -0.036481168 -0.16140227 0.03932236 -0.093087986

encoder.encoder.4.bias f4 [16]
00000000: 33ad 893d 1277 05bd 174f f43c 51b5 8cbc
00000010: 7f99 48bd ef18 313c 5ad5 a63c cc4d 0c3c
00000020: 4e71 06bc d0ee 323c 978a 34bd 9a8a ff3b
00000030: 4c4b 2f3b e752 103c e19c b6bc 9fc6 5d3d
0.06722488 -0.032584257 0.02982287 -0.017176302 -0.04897451 0.010809167 0.020365406 0.00856347
-0.008205725 0.010921195 -0.044077482 0.007798505 0.0026747761 0.008808828 -0.022291603 0.054144498

encoder.encoder.5.weight f4 [16]
00000000: 5cdb 613f 3ed0 633f 9a1c 603f b487 723f
00000010: 4b59 7b3f 8d96 773f 8b69 763f d5ba 653f
00000020: b828 483f 94aa 673f 8599 5e3f fd20 773f
00000030: e3ad 6b3f 5928 603f bf1f 5f3f aff7 763f
0.8822534 0.8898963 0.8754364 0.94738317 0.98183125 0.967141 0.96254796 0.8973821
0.7818713 0.90494657 0.86953 0.9653471 0.92062205 0.87561566 0.87157816 0.96471685

encoder.encoder.5.bias f4 [16]
00000000: 12cc 903d 41a3 9abc a39c e13c 961a bdbb
00000010: 9bd1 47bd c752 e73c 7570 fe3c fb41 133c
00000020: ef3b e9bb ec74 a13c 916f e3bc 1a98 613c
00000030: f5ea 193c 7305 ae3c 598b a6bc 8b36 913d
0.07070173 -0.018876674 0.02754051 -0.0057709916 -0.04878388 0.028237714 0.031059483 0.008987899
-0.0071177403 0.019709073 -0.02776316 0.013769174 0.009394397 0.021242833 -0.020330118 0.07090481

encoder.encoder.5.running_mean f4 [16]
00000000: 4a37 fc3e d5cb c6bc 1c65 11be d0a7 1cbf
00000010: 3176 a4be 7a5f c5be e0b7 bd3c 4721 84be
00000020: f3a3 a3bd 727b 80be cb30 173e 610f 62bf
00000030: e5aa 22bb 18b0 48be e7a8 e03d c3a6 d1bd
0.49260932 -0.024267117 -0.14198726 -0.6119356 -0.32121423 -0.38549405 0.023158967 -0.2580664
-0.07990255 -0.2509418 0.14764707 -0.88304716 -0.00248211 -0.19598424 0.109697156 -0.102368854

encoder.encoder.5.running_var f4 [16]
00000000: 287b a03e 415a c83e 2d4c 033e 6eca 403e
00000010: 01cb 283e 351b 4c3e 8687 7d3e 6d53 fa3d
00000020: 0df3 d03d 3993 0e3e e0b3 1d3e bdc9 0f3e
00000030: d873 003e f097 153e e352 da3d e993 433e
0.3134396 0.39131358 0.12822028 0.18827221 0.1648369 0.19932254 0.2475873 0.122229435
0.10202608 0.13923348 0.15400648 0.14041801 0.12544191 0.14608741 0.10660341 0.19099392

encoder.encoder.8.weight f4 [16, 16, 3, 3]
00000000: 0a84 ae3d 5c60 c23d 063f 103d e989 403d
00000010: 186e 8e3d c355 22bd c6e7 893d 1ff2 d4bd
00000020: 8a89 d9bd 4a43 113e fccc 993c 9deb 59bd
00000030: d147 cd3d c478 413d 215b 0abe 6411 fa3d
00000040: 3818 1dbe c16b 41bd efff 413d 9d3a 3f3d
00000050: 623e ab3c 46ad 9e3d e01b 9e3b 7f0d 88bc
00000060: b09e 9a3d 58ed 023d 7018 1a3e 04aa 1b3d
00000070: eb1b 51bd da3a 083d ae07 a4bb 2004 543c
00000080: 1fbb e93c 7ef1 f33d d74f f63d 4487 68bd
00000090: 1f94 c73d 98ac 31bd 6f70 863c 3329 2bbe
000000a0: de78 413d 4c59 d1bb bede 32be dab8 dcbd
000000b0: 5120 8cbd e575 f93c 50ab 513d dc25 dfbc
000000c0: 1280 8e3c 8faf a43d 4858 aebc cdeb a4bc
000000d0: bb48 c63c e0a7 373d 2fcb c93c 2767 f3bc
000000e0: bf22 b1bd 0b07 44be 41d7 c9bd 0786 bdbd
000000f0: 7e77 63be cd8c 97bd b3d4 41bc 231f 783c
00000100: 8015 7e3d f766 4b3d cbcf 843d dd71 2c3d
00000110: a3ac 12bd 1c0b d13d 6fa4 ab3d fc8c dd3b
00000120: f99b c73b 28bc 4a3d 318d c8bd 9851 e2bd
00000130: 755f f8bc 2081 64bc 7bc1 2ebc ecd0 1abd
00000140: 5a2d f53d d6a3 86bd 8a4a d6bd 2798 51bc
00000150: 10d1 423c c54b 66bd 8ca3 593c 0273 d43c
00000160: 5132 983c 4658 9abd 7331 0ebd f282 9b3c
00000170: ea98 f23d 480b a23d d10e bb3c 55a1 81bc
00000180: ec9b 50bb 94e8 1e3d 4408 093d 799c adbd
00000190: 41c9 a9bd a6b8 eaba 4039 9dbd a04f bfbc
000001a0: 29a8 97bd 95b5 0ebe 1f29 8abd b49f 9b3d
000001b0: 7286 bcbd 73eb 3abe b9a1 3ebe ef61 63bc
000001c0: 037a 08be b52e 9b3d 5434 ae39 9fbd a2bc
000001d0: feed a63d b776 613c 493c 5c3d 8cf8 0ebd
000001e0: daae 9b3b 88c9 1cbd eaf2 aebc 7a2f 243c
000001f0: 4393 d1bd d3d0 9b3d 2f7d 163d 9470 103d
00000200: afbf d53d 3292 843d 8d35 853d 6c54 003e
00000210: 842d 9fbb f3ee 8b3d 981c 383c 5980 453d
00000220: de12 853c 563e c3bd 9c7b 0ebc ff3c da3d
00000230: 99f1 79bd 645d d5bc 0087 c23c df93 bc3d
00000240: 50eb cc3c 14d4 d2bc 5a20 4f3d ac04 59bd
00000250: ada4 853d 731f bdbc c135 ffbd fee7 d3bc
00000260: 3873 fbbd e985 603d 452f 5d3d 9cdc 563d
00000270: 9623 60bd 2a86 ddbd 5e73 f5bb 0c02 10bd
00000280: d7ee bb3c 5898 c13d 5710 1a3c 4599 8cbd
00000290: 9e4d 323d 2447 03bd e277 a1bd 4367 8bbd
000002a0: 09a5 e13d 4265 cc3d e230 123e 0dc4 fe3d
000002b0: f10d 3939 2696 bebd 41fd e83d 5ad7 c6bc
000002c0: ba34 873c 7adc fe3c 003b 263d 6705 823c
000002d0: 343f b63d 4284 953d f37d 4d3c d2fa 893d
000002e0: 94b0 063e b41e a0bd 3573 3dbc c59a 9dbd
000002f0: 881e a3bd 6142 9b3d 03ae a93d 2649 f73b
00000300: fc95 933d 93b0 e93b 1ef3 6d3c 20da 1e3d
00000310: 5df9 a2bc 0c3f b9bd 4fe3 5ebe f858 94bc
00000320: 32a0 113d 93c8 7ebd 42ce e5bc ef9c c5bd
00000330: bbdf 513d 7f0c 913d b29f 1e3c 1625 993d
00000340: b486 3c3b 3a0f c7bc a79a 613c dd11 353b
00000350: 44ff 4c3d 4e38 873d c6b7 433d c966 9d3d
00000360: d6a3 bfbb 9265 743b dbad c73d 1aab 6e3d
00000370: 7675 0c3d e040 893c e99d 72bd c43b d0bc
00000380: 3b98 87bd 7ca8 733d f176 b63d 6afb 8a3d
00000390: 3a23 0b3c 1853 5dbd cc24 f1bd afa6 9bbd
000003a0: a1f8 45be 060b 9cbd 6971 4c3d ff6f b2bb
000003b0: a616 213c b59d 7bbd e904 94bd 7c13 9b3d
000003c0: e9d4 a1bd 156f 003e 352b c63d f32e 0dbe
000003d0: d495 99bd 9c87 c1bd 3d10 3bbe c6da 5fbd
000003e0: c42f b1bd b086 023d 054c 1a3c f188 1dbd
000003f0: b8df 8abd f69b 31bd d20e 9dbd 697c fdbb
0.08521278 0.09491035 0.035216354 0.04700652 0.069545925 -0.03963257 0.067336604 -0.103977434
-0.106219366 0.14185825 0.018774502 -0.053203214 0.100234635 0.04723431 -0.13511325 0.12210348
-0.1534127 -0.047221903 0.047363218 0.046686757 0.02090377 0.07747893 0.0048251003 -0.016607998
0.075497985 0.03196463 0.15048385 0.038003936 -0.051052015 0.03325925 -0.0050057983 0.012940437
0.02853161 0.11911295 0.12026947 -0.056769624 0.09745049 -0.04337749 0.016411034 -0.16714935
0.04723441 -0.006388819 -0.17467782 -0.10777445 -0.06842101 0.030451724 0.051188767 -0.027239732
0.017395053 0.08041298 -0.02128233 -0.02013197 0.024204602 0.044837832 0.024633018 -0.029712273
-0.086492054 -0.19143312 -0.098555095 -0.09254079 -0.22213551 -0.073999025 -0.011830497 0.015144142
0.062032223 0.04965874 0.06484946 0.042100776 -0.03580917 0.10207197 0.083809726 0.0067611914
0.0060915914 0.049495846 -0.09792555 -0.11050719 -0.030318955 -0.013946801 -0.0106662465 -0.0377969
0.11971541 -0.06574218 -0.10463436 -0.012792624 0.011890665 -0.056224603 0.0132836215 0.025933746
0.01857868 -0.07536368 -0.034715127 0.018983338 0.11845572 0.07912308 0.022834213 -0.015824
-0.0031831218 0.038796023 0.03345515 -0.084771104 -0.08290339 -0.0017907813 -0.07676935 -0.023353398
-0.07405121 -0.13936456 -0.067461245 0.0759882 -0.09205331 -0.18253879 -0.1861638 -0.01387833
-0.13327794 0.07577268 0.00033226854 -0.019865809 0.08150862 0.013761214 0.05376843 -0.034905
0.0047510685 -0.038278133 -0.021356065 0.010021085 -0.10233166 0.076081894 0.036740478 0.035263613
0.10436951 0.06473197 0.065043546 0.12532204 -0.004857721 0.06832685 0.011237286 0.048218105
0.016244348 -0.09533374 -0.008696463 0.10656165 -0.06102142 -0.026045509 0.023746014 0.09207892
0.02501455 -0.025735892 0.050567962 -0.05298297 0.0652555 -0.023086285 -0.124614246 -0.025867458
-0.122778356 0.054815207 0.054000158 0.052456483 -0.054721437 -0.108166054 -0.0074905595 -0.035158202
0.022941036 0.094528854 0.00940331 -0.06865171 0.043531053 -0.032050267 -0.07884194 -0.06806805
0.11017806 0.09980251 0.1427646 0.124397375 0.00017648168 -0.09305982 0.11376429 -0.02427261
0.016504634 0.03111099 0.04058361 0.015871717 0.08898774 0.07300617 0.012542236 0.06737293
0.13153297 -0.07818356 -0.011563112 -0.076955356 -0.07964808 0.0758102 0.08285143 0.007546562
0.072063416 0.007131645 0.014523296 0.03878224 -0.019894296 -0.09045228 -0.21766399 -0.01810883
0.035553165 -0.062203 -0.028052453 -0.09649073 0.051238757 0.070824616 0.009681629 0.07477777
0.0028766813 -0.024299253 0.013769782 0.0027629056 0.050048128 0.06602536 0.047782682 0.0768562
-0.005848388 0.0037291986 0.09749957 0.058268644 0.034291707 0.016754568 -0.059232626 -0.025419123
-0.066208325 0.05948685 0.08909405 0.06786235 0.008492285 -0.054034323 -0.117745966 -0.07600152
-0.19333126 -0.0761929 0.049912844 -0.00544548 0.00983206 -0.061429698 -0.07227499 0.07572076
-0.079019375 0.12542374 0.0967621 -0.13787441 -0.074992806 -0.094496936 -0.18267913 -0.054651998
-0.08651689 0.03186673 0.0094175385 -0.038460676 -0.06780952 -0.043361627 -0.076688424 -0.007735778

encoder.encoder.8.bias f4 [16]
00000000: a97d 713c ca7b 36bd b3a0 e33c 0082 a63b
00000010: 0c52 f73c bad6 0a3d d0df 013c ee2f 193d
00000020: ff42 14bc 41b2 163d f07d 97bc 28d6 313d
00000030: a575 693c ffb6 f63c 17ef 8c3c a320 2b3d
0.014739432 -0.04455165 0.027786588 0.005081415 0.03019049 0.033896185 0.007926896 0.037399225
-0.009049176 0.03679109 -0.018492669 0.043417126 0.01424924 0.030116556 0.01720385 0.04177917

encoder.encoder.9.weight f4 [16]
00000000: ed90 6b3f 33e1 7c3f 7d5b 763f 30b6 6e3f
00000010: d2bf 4c3f e635 703f 6477 663f 4bc5 483f
00000020: 269b 733f 21c4 463f d32f 463f 9653 663f
00000030: d66a 863f 09ac 6b3f dcd6 653f 8351 433f
0.92018014 0.98781127 0.9623335 0.93246746 0.79980195 0.9383224 0.90025926 0.78426045
0.9515861 0.7764302 0.77416724 0.8997129 1.0501354 0.9205938 0.89780974 0.7629625

encoder.encoder.9.bias f4 [16]
00000000: e7e3 1f3d 8f90 c3bc 764f 0c3d 1090 8c3c
00000010: 0c93 dd3c 5898 7d3d 435f 5d3c b3b8 913d
00000020: b138 46bb 924e 973d f0d3 cfbb dc5e 943d
00000030: b23c 863c dad5 c23c 8a77 2c3d 448f 143d
0.039035704 -0.023872642 0.034255467 0.017158538 0.027047656 0.061912864 0.013511482 0.07115307
-0.0030246193 0.07388033 -0.0063424036 0.072446555 0.016386364 0.023783613 0.04210619 0.03626944

encoder.encoder.9.running_mean f4 [16]
00000000: 9888 273f 7082 823e 98af 46bf 01f3 573f
00000010: 8978 dd3e b6c4 41bf 0334 20be dd80 183e
00000020: 4e83 febd c39d fd3e 955c 95be e55f 8fbe
00000030: d11a 823e ad84 b6be 8e23 88be b66a 4dbc
0.654428 0.2549014 -0.77611685 0.8435517 0.43256024 -0.7569078 -0.15644841 0.14892907
-0.12427388 0.49534425 -0.29172197 -0.2800285 0.25411084 -0.356481 -0.26589626 -0.012537649

encoder.encoder.9.running_var f4 [16]
00000000: cf2e b03e 5a55 563e 267c ce3e d737 cd3e
00000010: 9e4c 943e eb01 a53e 18a2 b13e 71a3 a63e
00000020: 7f1b b13e 3425 a73e e9fb 5a3e be13 183e
00000030: 0d9f 853e a0cb aa3e e8f1 8f3e 7bb8 613e
0.34410712 0.20930997 0.40329093 0.40081665 0.28964704 0.32228026 0.3469398 0.3254657
0.3459129 0.3264557 0.21385159 0.14851281 0.2609791 0.3335848 0.28114247 0.2204303

encoder.encoder.12.weight f4 [16, 16, 3, 3]
00000000: c7e0 f23b 67c4 62be 460e 91bd 4440 72bd
00000010: 97ab a73c 77ab 9c3c c045 42bd 70cf e63b
00000020: 00ed 3e3c 322d 453e 6201 17bd 41fa fc3b
00000030: 8bd9 8a3d c9ec d9bd 367e 7bbd de7c 7cbe
00000040: e6ea c7bc d40e b23d abc6 fbbe 2714 543d
00000050: 5c15 fbbc b948 ca3d 10de 9abc f49c f93c
00000060: a699 c1bc 5f29 0c3d 335f 603d 54dc 7ebe
00000070: 1b2c 04be 1e6e 533c 6c7d 753c 6513 8ebd
00000080: 4d83 4ebd 0b8c 89be 5292 e8bd c688 983b
00000090: 9040 80be bed9 ad3c f410 233c 6bbb 5fbe
000000a0: 974e 52bd 11c3 82bc d97d 01be 5621 eabd
000000b0: 89bc d53c 648a 87be 5ecf cb3d 361b 92bc
000000c0: cde0 dcbd a346 a93d 5229 493d 73a0 51be
000000d0: bd16 2d3d 6074 873d b994 a33c cea0 fbbd
000000e0: 58ed 20be 7d60 133e 4623 43bd 85df 833d
000000f0: b0c0 b2bd 174b a03d e2ff 763d fbb2 edbc
00000100: 65c6 babd c2ff 313d ffcc 43ba 5116 2cbd
00000110: 10e0 d9bc 52c5 92bc 9eef 70bd 378a 43bc
00000120: 1f3b a4bd 111f 0c3d 3a41 4eba cf2b 07be
00000130: f74b 53bb fdea 9f39 5080 d0bd a0aa 643d
00000140: f752 e8bc c8ba 15be 9686 65bd 3c21 793d
00000150: f362 12bc cda5 49bd b03c a8bc e9cc 20be
00000160: 0484 5dbd 8998 b73d f0c1 04bd 2137 4abd
00000170: 2250 58bd 34d8 17be 2209 1bbd 0f41 babc
00000180: ca11 4dbe 133f 3cbd 8715 8bbc 2013 523c
00000190: d656 b7bd 9678 d2bd c6e3 083e 5dc3 013b
000001a0: f175 1c3d a447 4fbe 1b10 6ebc 0be4 a73d
000001b0: 9a14 fa3e 61d1 01bd 93b6 e7bd 3516 403b
000001c0: 7981 1dbb 33df e73c ed25 ecbd 750b 533d
000001d0: 10f1 0f3d 2e7d a13e 17d0 15bd 0ef7 a0bd
000001e0: 8da5 67bc 5ed3 2e3d 7e5d adbd 963d 17be
000001f0: 4656 96bc e290 c7bc ef9b c1be 963c 75be
00000200: 6b4a 7dbd 98c5 50be 9bff dd3c 9ce4 003d
00000210: b6bb 9fbd a824 7a3d 6b79 e7bd 7452 81bb
00000220: 40bc 56bd 10d9 15bd a7e7 9abc 4393 1abc
00000230: be26 e9b9 04d2 14be 3fd2 38bd 78a5 5c3d
00000240: ed45 013d 813d 51bb 6d5d 943d 474b 26be
00000250: 17f0 cfbc 2279 803c 8b8c b8bc b297 de3d
00000260: 8d6b 5e3c 1a15 d1bc 5fe8 8bbd fb60 a53d
00000270: d612 0e3c ba85 c33d ff1f b83c 091c 1f3c
00000280: 2ba4 13be 7eb9 3d3d c17b 4f3c 88cd 063d
00000290: 0f05 08be 6115 9f3d 2d03 46bd b834 a33c
000002a0: 7082 303d c26a a43b e4ed 133d bcf1 2b3d
000002b0: f63e c93c 5e69 323c 1e02 46bb 54d5 f23b
000002c0: 4fc2 843d 1c1b a83d 3365 a0bc e309 c4bc
000002d0: 5610 2d3b b28b 14bd 850d 8bbb 2c1e 743c
000002e0: fba5 103d 337d a43c bcff b1bd e133 083e
000002f0: 90f9 d93c e701 203a 7f65 e9bc 9ca0 46bd
00000300: 7e84 253d 30ae 773d 83a8 29be d987 843c
00000310: 5528 77bd 5ce4 143c c0cf a53d b6e4 5bbd
00000320: 0dd5 dabd 3e39 173d 41ce 04be f93d 283c
00000330: b98a 283d 467c 003d f504 f1bc 6eaf 133d
00000340: 8b3f 2a3d aeb1 393b 56b6 0c3e 827e 68bc
00000350: 51cc c13d 796f f53d 1ac2 ac3c 11ef e43c
00000360: 3e91 3bbd c4eb 76bc 22fe 43bd b3c4 9c3d
00000370: ac64 593d e95f 13be f99d 8b3d 57a5 78bd
00000380: 7155 293c 8d7f e9bd fb30 41bd 7f1f 113d
00000390: 264b 0e3d e2f1 d33c f935 05bd 1704 9b3d
000003a0: 0f1b ccbb f400 a1bd 3bd1 083d 6be0 3b3d
000003b0: 94b9 30bc 5f17 863d 98ec 22bd dae4 223d
000003c0: 000f 37bd 7ee8 f13a 4141 c33d d59b a83d
000003d0: 8655 733d d3ec ab3d a033 39bc ab8c bfbd
000003e0: a4f9 33bd 793d 873d a4de e3bc 6d45 423c
000003f0: 764d d13c 4e56 94bd d849 87bd 6721 803c
0.0074120495 -0.22145234 -0.070828006 -0.05914332 0.020467563 0.01912473 -0.0474298 0.0070437714
0.011653185 0.19255522 -0.036866553 0.0077202623 0.06779774 -0.10640866 -0.06139966 -0.24657008
-0.024404 0.086942345 -0.4917501 0.05177703 -0.030649833 0.09877152 -0.018904716 0.030470349
-0.023632836 0.034219142 0.05477829 -0.24888736 -0.1290745 0.012904672 0.014983516 -0.06937293
-0.050418187 -0.26864657 -0.113560334 0.0046549765 -0.25049257 0.021221992 0.009952772 -0.21848838
-0.05134448 -0.015962156 -0.12645663 -0.114321396 0.026090877 -0.2647277 0.099516615 -0.01783524
-0.10785065 0.08265426 0.04911167 -0.20471363 0.042258013 0.06613994 0.019968377 -0.122865304
-0.1571554 0.14392276 -0.04764106 0.06439117 -0.087281585 0.07826822 0.060302623 -0.029016009
-0.09119872 0.0434568 -0.00074692065 -0.04201347 -0.0265961 -0.017916355 -0.058822267 -0.011934808
-0.08019089 0.034209315 -0.0007867996 -0.13200305 -0.0032241323 0.00030501923 -0.10180724 0.055826783
-0.028359873 -0.14622033 -0.056036554 0.06082271 -0.008934724 -0.049230386 -0.02053675 -0.15703167
-0.054080978 0.08964641 -0.032411516 -0.04936898 -0.052810796 -0.14828569 -0.037850507 -0.0227361
-0.20026317 -0.04595859 -0.016978038 0.012821943 -0.089521095 -0.10276906 0.13368139 0.0019800283
0.038198415 -0.20242172 -0.014530207 0.081977926 0.48843843 -0.03169382 -0.1131412 0.0029310111
-0.002403347 0.028304672 -0.11530671 0.0515246 0.035142004 0.31540817 -0.036575403 -0.07859622
-0.0141385915 0.042682044 -0.08465098 -0.14769587 -0.018351685 -0.024361078 -0.3781428 -0.23948893
-0.06183855 -0.20387876 0.027099421 0.03146802 -0.07799475 0.061070114 -0.113024555 -0.0039465968
-0.052425623 -0.03658396 -0.018909289 -0.009434524 -0.00044470088 -0.1453324 -0.04512238 0.05386874
0.031560827 -0.0031927528 0.07244382 -0.16239654 -0.025383038 0.01568276 -0.022527954 0.10868777
0.013575447 -0.025522757 -0.06831431 0.08075138 0.008671483 0.09546991 0.022476194 0.009711274
-0.14418094 0.046319477 0.012663783 0.032910854 -0.1328318 0.077677496 -0.048342872 0.0199226
0.043093145 0.0050176093 0.036115542 0.041978583 0.024566155 0.010889379 -0.0030213664 0.0074106846
0.06482374 0.08208296 -0.019579506 -0.023930496 0.0026407442 -0.036266036 -0.004243555 0.014899772
0.03531454 0.02007923 -0.086913556 0.1330104 0.026608258 0.0006103799 -0.02849078 -0.048493013
0.040409558 0.060468853 -0.16568188 0.016178058 -0.060341198 0.009087648 0.08096266 -0.053684913
-0.106851675 0.036919825 -0.12969305 0.010268682 0.04114792 0.031368516 -0.029421309 0.036055975
0.041564506 0.0028334665 0.1374143 -0.014190318 0.094627984 0.11984152 0.021088649 0.027946027
-0.04579281 -0.015070859 -0.04784978 0.07654705 0.053074524 -0.14392056 0.0681724 -0.060704555
0.010335312 -0.114012815 -0.047165852 0.035430428 0.034739636 0.025872175 -0.032522175 0.075691395
-0.0062288116 -0.0786151 0.033402663 0.04586832 -0.010786433 0.065474264 -0.039776415 0.03976903
-0.04469204 0.0018456129 0.095339306 0.082328476 0.059407733 0.0839478 -0.011303812 -0.09353002
-0.043939248 0.06603522 -0.027816124 0.011857373 0.025549632 -0.07243024 -0.066058815 0.015640927

encoder.encoder.12.bias f4 [16]
00000000: 2148 6f3c 92ef 013d 33a0 1a3d 929c 063d
00000010: e1fc 3f3d 336b ec3d 2039 04bd fbed fe3c
00000020: 74a4 04bd a9bf 243d 799b 013d b396 45bd
00000030: f395 90bc 3f76 8dbd 0e07 813d b632 893c
0.014604599 0.031722613 0.037750434 0.03286416 0.046872023 0.11543884 -0.03228104 0.031119337
-0.032383397 0.040221844 0.03164241 -0.04823942 -0.017649626 -0.06907319 0.06300174 0.016747814

encoder.encoder.13.weight f4 [16]
00000000: 05e7 ad3f f83f 693f a428 6a3f 03e3 713f
00000010: 9e1e 773f 534e 403f a488 743f 6c81 763f
00000020: b3a4 4d3f 664b 723f 87f2 763f a1df 6c3f
00000030: 0068 953f 3f5c 853f 1a9a 793f f474 583f
1.3586127 0.91113234 0.9146826 0.9448702 0.96531093 0.75119513 0.95521 0.9629123
0.80329436 0.946463 0.9646382 0.9252873 1.1672363 1.0418776 0.97500765 0.84553456

encoder.encoder.13.bias f4 [16]
00000000: cae3 613c c91c 2d3d 369e 213d f8dd 073d
00000010: 99e1 753d e2d8 e03d 849c 2abd da0a 2f3d
00000020: 0200 45bd a96f 633d 71bf 143d d6c0 31bd
00000030: f243 09bd 902e a6bd 2ddf a43d 5428 263c
0.013787219 0.04226378 0.039457522 0.03317067 0.0600296 0.10978867 -0.04165317 0.04273496
-0.04809571 0.05552641 0.036315385 -0.043396793 -0.033512063 -0.0811435 0.0805038 0.010141451

encoder.encoder.13.running_mean f4 [16]
00000000: cc11 25bf 6f41 f73e d6dc e33d b662 d7be
00000010: 50ba 3dbf ee23 423e 5e82 1fbe edfe 6abf
00000020: b137 973e a8bf 44bf 2914 73bf 03d6 da3a
00000030: f05d 90be b80e f23e 48dd 86be 6a20 993e
-0.6448028 0.4829211 0.111261055 -0.42067498 -0.74112415 0.18959019 -0.15577075 -0.91795236
0.29534677 -0.76854944 -0.94952637 0.001669586 -0.2819667 0.47276855 -0.263407 0.29907542

encoder.encoder.13.running_var f4 [16]
00000000: 305d e93e 2d02 1f3f aff4 e03e 61ae a53e
00000010: 7150 993e 7e41 883e 53c3 833e 9941 873e
00000020: 83eb 903e 3335 e93d 32a8 4a3e 94c0 3a3e
00000030: a063 643e 7e3d ab3e b79f 663e 0f2b 873e
0.4557891 0.62112695 0.4393668 0.32359603 0.29944184 0.26612467 0.25734958 0.26417235
0.2830468 0.113871 0.19790724 0.18237525 0.22303629 0.33445352 0.22521864 0.2640004

encoder.encoder.16.weight f4 [1, 16, 2, 2]
00000000: c011 163d dc53 d13a 8a9d 07bd da06 e7bf
00000010: 495e f93c dffc 0c3d efc8 aabd 53ff 33bb
00000020: 5205 573d 1037 8abe 46bd 833c ec2b 96ba
00000030: c2d8 803b 90c4 f03b 129c a43d 5029 22bd
00000040: 3726 6d3d 548e 82bc 6593 913b 864c df3d
00000050: 5366 47bd efe0 5d3b ee3e 42bd ed34 163d
00000060: 1597 22bd 5888 09bc efa5 98bc d456 f63d
00000070: 7dc5 503b 4a60 963d beaf 253e c738 9bbc
00000080: c41e b13b 675f 2abc b75c 44bd 9d67 963d
00000090: 131d 973c 3b12 f33b 9359 d73c e218 833d
000000a0: 8298 4ebc 0ed2 ac3c 9f60 5f3d 3f60 3c3d
000000b0: 39d3 e0bd 63ea 0fbc c9b2 e9bb 4587 9f3c
000000c0: ee48 82bb b0b7 44bb d0ee 26be 42f1 56bf
000000d0: 851f 583a 8b26 98bc be5c 10bd 4ed0 29bf
000000e0: 4be0 e03c d454 393d dbfe abbc 3420 363d
000000f0: 9781 193c c507 ce3b e69a f4bc 5b39 b3bd
0.03663802 0.0015970427 -0.033109225 -1.8048966 0.030440466 0.034420844 -0.08339106 -0.0027465418
0.05249531 -0.26995134 0.016081464 -0.0011457182 0.0039320895 0.007347651 0.080375805 -0.03959018
0.057897773 -0.015937008 0.0044426196 0.109032676 -0.04868157 0.0033855995 -0.047423296 0.036671568
-0.039694864 -0.008394323 -0.01863381 0.1202828 0.0031855993 0.073425844 0.16180322 -0.018947972
0.005405279 -0.010398722 -0.047939982 0.073439814 0.01844648 0.0074179447 0.02628783 0.064012304
-0.012609603 0.021096256 0.054535504 0.045990225 -0.109777875 -0.0087839095 -0.0071319086 0.019473681
-0.003975979 -0.0030016713 -0.16302037 -0.8396188 0.0008244443 -0.018573066 -0.035244696 -0.6633347
0.027450701 0.045246914 -0.020995548 0.044464305 0.0093692755 0.0062875473 -0.029859018 -0.08751174

decoder.decoder.0.weight f4 [1, 16, 1, 1]
00000000: 976e 4c3c 764c c93d 73b2 cd3d bfdd 8f3c
00000010: 86e9 bd3d 97cf 86bd 9961 1ebe 0a21 a2bd
00000020: 92ed a5bd 3ce6 d6bd 44f7 cdbd 3692 523d
00000030: 047a cc3d 2ff3 e3bd fb6f fdbd 91fc 043e
0.012477539 0.09829037 0.10043802 0.017561791 0.09273057 -0.06582563 -0.15466918 -0.07916458
-0.081019536 -0.104931325 -0.10056928 0.05140897 0.0998421 -0.11130368 -0.12374874 0.12986971

decoder.decoder.0.bias f4 [16]
00000000: 0371 4dbc 10bf 753d f18c 103d 311c 35bc
00000010: 0995 373d 7dbd 773c 1e2c cd39 39c1 11ba
00000020: 0018 6d3c eda4 bb3c 63d7 0abc 45bd 98bc
00000030: aedb 98bc 9dfc 213d e8fb 7e3d 3b8e e8bc
-0.012539151 0.059996665 0.035290662 -0.011054085 0.044819865 0.015120861 0.00039133517 -0.00055601035
0.014471054 0.022905791 -0.008474204 -0.018644938 -0.018659439 0.03954755 0.062251955 -0.028388133

decoder.decoder.1.weight f4 [16]
00000000: 0e26 443f 748f 663f f6f2 463f 73e0 423f
00000010: 5b80 623f df73 6e3f 5a66 7a3f 5203 5b3f
00000020: cf0a 753f 792b 6f3f d6f3 663f 26b3 703f
00000030: e984 753f 31c6 723f ae2c 703f 37e9 773f
0.76620567 0.9006264 0.7771448 0.7612373 0.88477105 0.93145555 0.97812426 0.8555194
0.9571962 0.9342571 0.90215814 0.9402336 0.9590593 0.94833666 0.93818176 0.9684023

decoder.decoder.1.bias f4 [16]
00000000: 63b0 373c fe34 263d ea0b 5c3d aa20 dbbc
00000010: 82e1 083d 0c06 d23c 5d02 f5bb b121 ed3b
00000020: f9b4 fb3b 52b9 02bc 5214 86bc a9e1 cb3c
00000030: 5f0d ccbc 80de 9d3c 7cab 66bb 32b9 dcbc
0.011211487 0.04057788 0.0537223 -0.026748974 0.033418186 0.025637649 -0.0074770884 0.0072366823
0.0076814857 -0.007978754 -0.016367111 0.024887877 -0.02490872 0.019271135 -0.0035197427 -0.026943777

decoder.decoder.1.running_mean f4 [16]
00000000: 4a67 9f3c 2bf0 453e bfcc 2c3e 21e8 143d
00000010: 60bb 143e 7589 e0bd 87a2 2cbe 8711 e5bd
00000020: 1a7a 04be b1ae 29be 7087 05be 9858 b33d
00000030: 9306 1e3e 2400 20be 9800 cebd 77ee 443e
0.019458432 0.19329898 0.1687498 0.036354188 0.14524603 -0.10963718 -0.16858874 -0.11184984
-0.12937203 -0.16570546 -0.13039947 0.08757132 0.15432195 -0.15625054 -0.10058707 0.19231592

decoder.decoder.1.running_var f4 [16]
00000000: 4db0 043a d2bb 113d 64fd 4d3d bc2e 8638
00000010: 83dd e63c d2f3 833c 4086 1b3d 14bc 8f3c
00000020: 4f57 b43c 68a1 403d d71f ba3c a816 2b3c
00000030: 865f 053d bf14 493d 6fe3 193d 28ee 5d3d
0.0005061671 0.03557951 0.05029048 6.398323e-05 0.028181797 0.016107474 0.037969828 0.017545737
0.022014288 0.04702893 0.02272026 0.010442413 0.0325618 0.04909205 0.037570413 0.0541822

decoder.decoder.4.weight f4 [16, 16, 3, 3]
00000000: 78aa d2bc 956b a13d f037 91bc f6d2 433d
00000010: 190c b13b 1bb3 8ebd dfbd a4ba b7c0 a4ba
00000020: ac47 0680 c2d5 4fba e7dd 62bc 0eed 06bd
00000030: 4079 003e d72f e5bc be4a b03d 2657 c73c
00000040: ec03 1e3d 7132 2c3c e7ce 3fbd 5d9b b03c
00000050: e44e e83c 82c7 f4bd 271e 02be 1e3d b13b
00000060: a373 af3c a873 af3c 7795 0980 0036 ecbb
00000070: 571b 4dbc bbfa 0080 ecd6 af3d fdf0 0cbd
00000080: f2e0 fcbd d7ce 0a00 2daf 353d 9ba4 343d
00000090: 408a 8e3d 56f8 c03a 75bd 88bd 832a 2f3d
000000a0: 32b2 c8bc 27f7 a2bc da0f a03d 5b2d d43d
000000b0: 63fc 0f3d 6876 873d 58aa 83bd 2b65 d33c
000000c0: f965 1ebe dba2 47bd a5fc e4ba 3173 0300
000000d0: a4da 1dbd 3540 1cbd 2952 723c b240 18bd
000000e0: ba8f c03d ccbb a93c d6eb b03c 2d9a 353a
000000f0: 2dd3 0a80 3408 0b00 4c1c 0a80 4563 0700
00000100: 9938 e83c 5a26 9fbd 1653 a8bb 3754 4b3d
00000110: 5484 63bd 9758 5b3d ff28 453d 611c 0eba
00000120: 4565 193c 2ceb 083d 31c4 fc3c 8132 fe3c
00000130: f494 6b3d b3c6 993b 9dc5 fc3c b033 2dbb
00000140: c24a 92bc 7746 9d3c 81e7 373d b4b4 0a00
00000150: aaf1 e7bb af61 dd3c 1568 0600 999c 563a
00000160: d4a4 553a a38c 0480 dad3 173a 1b5f c1bc
00000170: 67e1 363d f745 fcbc 7ff8 b2bd bd2d e53b
00000180: 3c5d 393c f85a a7bb ecab 4dbc bbcd bfb4
00000190: 0d80 103d d02c e13c f616 0480 7f1f b93b
000001a0: 5f68 8e3b f1a2 91bc a3e0 b5bb 6d77 8b3c
000001b0: 5758 fa3c 91e3 5f3c 39cd 3ebc 05d2 1dbd
000001c0: 4c90 0739 7a4e 4c3d 7883 f8bc 6351 9d3c
000001d0: d6bd 423d 5ea1 603b 397b 593c 8ad8 ad3d
000001e0: f4e9 f43c 4575 96bc 9e96 8cbc 1b1d 003d
000001f0: 52c9 693d a25d b03c ef84 cdbc 3882 cbbc
00000200: 7f21 7729 87da 573d 0866 4f3c b94c b23a
00000210: 97a3 e83c b0ef 173a dc95 e7bc eae5 bcbd
00000220: 4bab c53c 8e73 c1bd 044d 0dbd 028b 1fbd
00000230: b121 073d 3144 9db8 4de9 0bb9 43cd 0080
00000240: d5c2 5d3c 8139 28bd 60f6 883c 1bf3 6e3d
00000250: ef81 9d3d 5caa e3bc 3d17 d9bd 44dc c5bd
00000260: c257 073d 75fc 1b3d 9991 3b3d 7f25 de3c
00000270: d3f9 bfbd 9c95 86bd ae1c 873d fb1f febd
00000280: 5d01 db3d 543d f73d 2371 fa3c ebbd 823d
00000290: d83e 003c ecd2 fb3c 9af4 1dbd b401 7bbe
000002a0: 4cb4 00bd b2c7 fbbc f901 0000 c811 5dbc
000002b0: 7761 97bb 55c6 21be 3967 d5bd c881 12bd
000002c0: a277 793d 8b4a ccbd cc2f bcbc 12d6 62ba
000002d0: 0875 b5bc 8f86 cabc a56c 40bd dd9e d3bd
000002e0: 3832 bd3c 4adc 4fbd 8620 b6bc eb20 5dbd
000002f0: 2f07 3e3d b47c b03c 6177 913d 7191 df3c
00000300: 87e0 abbd 30e6 a4bd 6b75 cf3c a746 83bd
00000310: 90d6 753d a4c9 a33d 72c7 003d 1511 b7bb
00000320: 20ed 183d 69a5 b53d c1ca 86bd e818 0cbe
00000330: 2b31 18bd d717 adbc 0646 b03b 7f92 b3bd
00000340: 1160 923b 65ee c3bc 8237 383d 766d b93d
00000350: f1e7 07bc e4b0 41bd 0c55 23bd df08 8fbd
00000360: ba36 253b f1c6 09bd 0af7 043c b87a 703d
00000370: 4358 06bd 89e8 1f3d ebe8 34ba a862 513d
00000380: fb70 813d 2c50 cd3d 229f 36bd d71a 0a00
00000390: 143b 5fbd af65 c23d 9e3e 0080 8947 71bb
000003a0: 9993 a2bb aba4 0a80 0a7f 4f3d 12f8 b9bb
000003b0: be0b cabc 8bd6 4e3d 16de 403d face 18be
000003c0: f54b 46bd 4fb6 15bc ed55 c83d f40d e83c
000003d0: 8540 0bbd 1faa 3fbd bb27 a2be 1dc0 e4bc
000003e0: c871 a23d c162 c43c f182 37bc 773d 3dbc
000003f0: 29e6 153d 00f1 d83b 293f 99bb a089 183d
-0.025716051 0.07881848 -0.017726868 0.04780861 0.0054030535 -0.069677554 -0.0012568793 -0.001256964
-5.76724e-40 -0.0007928276 -0.013846851 -0.032940917 0.12546253 -0.027976913 0.08608006 0.024333548
0.03857796 0.010510073 -0.046828177 0.021558458 0.02835793 -0.119521156 -0.12706815 0.005408897
0.021417445 0.021417454 -8.80137e-40 -0.0072085857 -0.012518725 -8.9945e-41 0.08585915 -0.03440951
-0.123475924 9.92555e-40 0.044356514 0.044102293 0.06959963 0.0014722447 -0.06676761 0.04276515
-0.024499033 -0.019893242 0.078155234 0.10360213 0.035152804 0.06614381 -0.06428975 0.025805077
-0.15468587 -0.048739295 -0.0017470313 3.1683e-40 -0.03853859 -0.03814717 0.014790096 -0.037171073
0.09402414 0.020719431 0.02159683 0.0006927576 -9.9411e-40 1.013133e-39 -9.28506e-40 6.7846e-40
0.0283473 -0.07770987 -0.0051368577 0.04964086 -0.05554612 0.053551283 0.0481348 -0.0005421099
0.009362523 0.033427402 0.03085527 0.031029942 0.0575151 0.0046928762 0.030855948 -0.0026428513
-0.017857913 0.01919864 0.044898514 9.83179e-40 -0.007078369 0.027024118 5.8835e-40 0.0008186787
0.00081498665 -4.17793e-40 0.0005791761 -0.02360492 0.044648554 -0.03079508 -0.08738803 0.006993978
0.011313733 -0.00510728 -0.012553196 -3.572621e-07 0.03527837 0.027487189 -3.75579e-40 0.0056495066
0.004345938 -0.017777892 -0.0055504604 0.01702472 0.030559702 0.013665096 -0.011645609 -0.03853037
0.00012928358 0.04987953 -0.030336127 0.019203847 0.047544323 0.003427587 0.0132740075 0.08488567
0.029896714 -0.018366465 -0.017161664 0.031277757 0.05707676 0.021529023 -0.025087802 -0.024842367
5.487407e-14 0.05269864 0.0126586035 0.0013603187 0.028398318 0.0005795909 -0.0282697 -0.0922354
0.02412953 -0.094458684 -0.034497276 -0.038950928 0.032991115 -7.499045e-05 -0.00013342984 -7.3634e-41
0.013535221 -0.041070465 0.016719043 0.058337312 0.076907985 -0.027791195 -0.106001355 -0.09661153
0.033042677 0.03808256 0.04579315 0.027117489 -0.09373822 -0.065715045 0.06597267 -0.124084435
0.106936194 0.12072244 0.030571526 0.0638388 0.007827483 0.030740224 -0.03856335 -0.24512368
-0.031421944 -0.03073487 7.08e-43 -0.013493009 -0.004619773 -0.15798314 -0.10420079 -0.0357683
0.060905106 -0.099751554 -0.02297201 -0.0008653115 -0.022150531 -0.024722366 -0.04697861 -0.10333035
0.023095235 -0.050747193 -0.022232305 -0.05398647 0.04639357 0.021543838 0.07102848 0.027291032
-0.083924346 -0.08051717 0.025324544 -0.0640996 0.060019076 0.07997444 0.031440206 -0.005586753
0.037335515 0.0886944 -0.06581641 -0.13681376 -0.037156265 -0.021129532 0.005379441 -0.08768176
0.0044670184 -0.023917386 0.04497481 0.09054081 -0.008295045 -0.047287837 -0.03987603 -0.06984114
0.0025209622 -0.03363699 0.008115539 0.058710784 -0.032799017 0.039040122 -0.00069011626 0.051119477
0.063203774 0.10025057 -0.044585355 9.27983e-40 -0.0544997 0.09492051 -2.2463e-41 -0.003681632
-0.0049614427 -9.77427e-40 0.050658263 -0.0056753242 -0.024663802 0.050497573 0.047086798 -0.14922705
-0.048412282 -0.009137704 0.09782014 0.028326966 -0.033997077 -0.0467931 -0.31670937 -0.027923638
0.07931858 0.02397287 -0.011200652 -0.011550299 0.03659645 0.0066205263 -0.0046767187 0.037240624

decoder.decoder.4.bias f4 [16]
00000000: bd19 13bd 78e5 8bbb c1ff edba 2585 893d
00000010: 4d47 643d 1722 903d 3a0f 623c fda4 a73c
00000020: fcaf d7bd b9f8 98bd f75e ed3c ac9f 47bc
00000030: e51f 8b3d 7638 e3bb 74ee b63d 7fc4 593d
-0.035913218 -0.004269298 -0.0018157886 0.067148484 0.05573206 0.07037752 0.013797576 0.020464415
-0.10531613 -0.07469315 0.028975947 -0.012184065 0.06793193 -0.006934221 0.089322 0.05316591

decoder.decoder.5.weight f4 [16]
00000000: 7296 6a3f f5d4 5c3f 461e 683f 30ee 6b3f
00000010: aa33 623f 29dd 613f 7dbd 673f f12d 6f3f
00000020: 3f21 693f 7e85 713f 6507 653f fb86 663f
00000030: bbc5 7f3f 593f 723f a931 713f 1b79 6a3f
0.9163581 0.86262447 0.90671194 0.9216032 0.88360083 0.8822809 0.9052351 0.93429476
0.91066355 0.9434432 0.8946441 0.90049714 0.9991109 0.9462791 0.942164 0.9159104

decoder.decoder.5.bias f4 [16]
00000000: 76de 12bd ab8d 02bc 17ef 64bb d075 843d
00000010: 09dd a03d e9e1 963d daa9 643c 8f43 c13c
00000020: 81b8 bbbd 78f0 96bd a94a 143d 8261 84bc
00000030: 4e29 7b3d 1b9c 1cbc 4d34 e83d 38c1 383d
-0.035856687 -0.007968347 -0.0034932548 0.064677835 0.07854659 0.07367308 0.013956511 0.023591785
-0.09166051 -0.073700845 0.036204014 -0.016159777 0.061318688 -0.009558703 0.113381006 0.045106143

decoder.decoder.5.running_mean f4 [16]
00000000: d7f3 943d 5000 43be e0a5 29bd d182 03be
00000010: 0f0d 17be 7d90 99bd abf7 e53c 62ce d3bd
00000020: d199 7d3d 550f 3a3e 041a 10be cff9 36bc
00000030: c27f 7dbe 35de 1c3e 82ae c73d d51a 3cbc
0.07273071 -0.19043088 -0.041417956 -0.12842871 -0.14751075 -0.07498262 0.028072199 -0.10342099
0.06191427 0.18169911 -0.14072424 -0.011167957 -0.24755767 0.1531914 0.097500816 -0.011481007

decoder.decoder.5.running_var f4 [16]
00000000: ca33 0b3d a950 403d 6a2d a23d c23d 183d
00000010: 48dd e23d ee15 bb3c 66b6 0d3e d7ff 8b3d
00000020: edf1 803d baed cc3d f82d 883d 4a84 873d
00000030: a7ab 3e3d e7d9 613d c421 483e a6d1 603d
0.033984937 0.046951924 0.07918818 0.03716827 0.11077362 0.022837605 0.1383911 0.06835907
0.06296144 0.1000628 0.06649393 0.06617029 0.04655042 0.05513945 0.1954413 0.054887436

decoder.decoder.8.weight f4 [16, 16, 3, 3]
00000000: 823c c73c 099b c93c 8dde 853d caf1 8cbd
00000010: cd9e d0bc 8d7b a33d c85d d2bd bd65 efbd
00000020: 09f0 4d3e 0b66 833d 5b89 27bd abfc 0ebe
00000030: 59b6 6d3d 716e 8b3d 119e b63d 5cbd b6bd
00000040: 8b1b cfbd dd10 d0bd 5459 82bc d702 efbc
00000050: eaf1 b5bd a4e8 c2bb 65b9 1c3c 35ee 193e
00000060: 2e29 663d b5c8 14bc fdc7 97bd d112 893c
00000070: e0ba 603c 6644 29be 4592 133d 410a b43b
00000080: 3dc9 18bc ee7f a83d ba05 053c f4ee c63b
00000090: cd32 54bd c265 a93c 084e 843d ddd4 7e3d
000000a0: 029b b8bc 1b79 453d 9d18 c73c 4d46 88bc
000000b0: 0c20 2ebe 8582 1cbd 3885 0b3e 6c00 2ebc
000000c0: 3696 a13b b13b 773d 00e4 a6bd e657 c33c
000000d0: 374c 2bbb c0df be3d 1c06 1abd 82ac ce3c
000000e0: 467d 7cbd da6f 843d ae04 f83d 0e8a 653d
000000f0: 910e 383c e556 153a 1a43 4ebc 06ad 8ebb
00000100: 63cc 1e3c 6dc6 863c 7523 0d3d b2dd 42bd
00000110: cd45 323e 0a3b 60bd 37bf 22be 59da 9a3d
00000120: b0f3 443b ddc7 e03c 696c b33c 4faa adbd
00000130: fd95 303d 6ffb e7bc 52dc 7d3d 211b 79bc
00000140: 137c 0c3d 9c4f babd cfde dcbc cea1 77bd
00000150: c136 813d 581c 903c b03c 593d 001c d73d
00000160: bf0e 8d3b 429e 953d b2a5 05be 135e 0dbd
00000170: 0947 2e3d 0b5e 35bd a72c f0bd 20f6 b2be
00000180: 589f 9b3d b7cf 39bc 7021 6abd 4206 e2bb
00000190: cdeb 6f3d fc6d 45bd 359b 0cbd babf 633d
000001a0: 9c99 cbbc 1ce9 353c 1c4b 333d 8e60 c9bb
000001b0: f88f 7c3c 06cb 183c f661 80bd 8ded 723d
000001c0: a60e b73c 2550 d83c 23df 2e3d 50bb 3839
000001d0: 5e1c 59be 6929 9f39 832c e9bc c758 ca3d
000001e0: 016a 18bc e367 d33d 37ed 303d 9acd d7bc
000001f0: ae92 2cbd cd8a 223d df22 d43d 98ff 12bd
00000200: 79fe 013e 84ba 26bd 6dfa cebd fd5c 173d
00000210: e1fa c53c 972d 9d3c f63e d13d 6d44 fe3c
00000220: 4eee 073e 49e9 d43c 86df 053d 3e35 9bbc
00000230: 6f68 743c 8e34 d6bd 1db7 99bd 2800 11be
00000240: c4a7 e9bd 3536 da3b 6617 ec3d 532a a8bc
00000250: f7f7 5f3d c831 ac3c a13f 9dbd 4ceb a7bd
00000260: 51b8 273d 01b8 08bd 67c7 283d 8e9a 3dbd
00000270: 7743 6dbc 42fe 003e 6c98 8f3d bcc9 0abd
00000280: 1f90 e3bc c45c eebd 0804 723d c9ac 0abe
00000290: a2e2 1c3e 5d66 8abc 0fe6 2ebd dedb fb3c
000002a0: 9b42 8abd d82c 693d f531 253d 6ee9 d7bc
000002b0: cbc9 763c a4c2 bb3b fd39 1abb 8b4e 483d
000002c0: f18c 943d 422f 28bb f73a 2a3d e624 423d
000002d0: 7114 8dbc 1532 3b3d f647 8b3d 93e4 21bd
000002e0: c5df 423d ec62 f53d 448c 0cbe 5563 cdbd
000002f0: cccf 02bc adee 8e3d f9cd aabd ef2e 763d
00000300: 29cb 523d 4e9e edbc 8f54 5dbd fd37 2b3d
00000310: 4467 903d fa3b 5fbd 2d57 8d3d 73e9 2b3d
00000320: 0460 06bc 6ec8 1a3d fa6e 88bd 425e baba
00000330: 1378 a1bc ce34 28bd 316c 883d abcb c23d
00000340: a1de f33b 0263 dabd 7008 d03d 12d6 a8bd
00000350: a187 b7bd a327 24bb 438b 80bd 7abf 9a3c
00000360: b717 0abe a36a 91bd 6207 82bd bb7e 28bc
00000370: cadf c23d c343 d43d 1281 663d 5c9b 263d
00000380: d48d fdbc 2d2d 31bd 4b26 54bb deee 973d
00000390: a362 80bd 0648 d23c 7575 103d 7de6 ab3c
000003a0: 9807 84bd ab1c 19be db70 43bd 96ec b1bd
000003b0: 92e7 83bd fedc 363b 9890 6f3d bcbd 423d
000003c0: 15e0 d1bd 1510 d03b 449a e7bc 37be 2bbd
000003d0: cf86 65bd 9b0d 94bd 5684 c83d 6fcc 81bd
000003e0: 9f2c 89bd 87da 02bd 078c c2bb 9104 b93c
000003f0: 3c77 e93b 6381 1d3d a5ef 1e3d 207c 0fbd
0.024320845 0.02461006 0.06536589 -0.06882055 -0.025466347 0.0798255 -0.102717936 -0.11689327
0.20111097 0.064159475 -0.040902477 -0.13963573 0.05803523 0.068081744 0.089168675 -0.08922836
-0.10112675 -0.101594664 -0.015911736 -0.029176159 -0.08884032 -0.005948143 0.009565686 0.15032275
0.056191616 -0.009081055 -0.074111916 0.016732605 0.0137164295 -0.16529998 0.036028165 0.0054943864
-0.009325323 0.08227526 0.008119041 0.006070966 -0.05180626 0.020678405 0.06460196 0.06221472
-0.022534851 0.0482112 0.024303729 -0.016635085 -0.17004412 -0.03821041 0.13625038 -0.010620218
0.0049312366 0.06035966 -0.08148956 0.023845624 -0.0026137957 0.09320021 -0.037603483 0.025228743
-0.061642908 0.064666465 0.121102676 0.056039862 0.011233942 0.0005696847 -0.01258924 -0.004354122
0.009692284 0.016452039 0.034457643 -0.047574706 0.1740944 -0.054743804 -0.15893255 0.07561178
0.0030052476 0.027439052 0.02190228 -0.084797494 0.04311179 -0.028318135 0.061977692 -0.015204222
0.034298014 -0.090972155 -0.026961712 -0.060457043 0.063092716 0.01759164 0.05303639 0.105033875
0.0043047364 0.07305576 -0.13051489 -0.034513544 0.042548213 -0.04427914 -0.11727267 -0.34953403
0.07598752 -0.011341027 -0.057160795 -0.0068977186 0.058574487 -0.048200592 -0.034327704 0.055602767
-0.02485352 0.011102941 0.0437728 -0.0061455434 0.015415184 0.009325748 -0.062686846 0.059308577
0.022345852 0.026405403 0.04269327 0.00017617387 -0.21202227 0.00030357696 -0.028463608 0.09880214
-0.009302617 0.10322549 0.043194976 -0.026343156 -0.042132072 0.039683152 0.10358214 -0.035888284
0.1269473 -0.04070522 -0.10106359 0.036953915 0.02416748 0.019186778 0.10217087 0.031038487
0.132745 0.025990145 0.03268387 -0.018946286 0.014917477 -0.10459243 -0.07505629 -0.14160216
-0.11408952 0.006659294 0.115279004 -0.020527994 0.054679837 0.021019831 -0.07678152 -0.08199176
0.040947262 -0.033378605 0.04120579 -0.046289973 -0.014481417 0.12596992 0.07011494 -0.033883795
-0.027778683 -0.116387874 0.059085876 -0.13542475 0.15320829 -0.016894514 -0.04269987 0.03074449
-0.06750985 0.056927532 0.040330846 -0.026356425 0.01506276 0.00572999 -0.00235331 0.04890303
0.07253445 -0.0025662933 0.04156014 0.04739847 -0.017221661 0.04570206 0.06800835 -0.039524626
0.047576685 0.119817585 -0.13725382 -0.10028712 -0.007984113 0.069791175 -0.083400674 0.060103353
0.05146328 -0.02900615 -0.05403572 0.04180144 0.07050946 -0.054500557 0.06901393 0.04197068
-0.008201603 0.0377888 -0.06661792 -0.0014218765 -0.019710576 -0.041065983 0.06661261 0.09511503
0.007442311 -0.106634155 0.10157859 -0.08243956 -0.08961416 -0.002504804 -0.06276562 0.018890131
-0.13485609 -0.071004175 -0.063490644 -0.010284121 0.095153406 0.10364487 0.056275435 0.040675506
-0.030951418 -0.043255974 -0.0032371457 0.07418607 -0.062688135 0.02566911 0.035268266 0.020983929
-0.06446761 -0.14952342 -0.04771505 -0.08687703 -0.06440653 0.0027902718 0.058487505 0.047544226
-0.102478184 0.0063495734 -0.028271802 -0.04192945 -0.056036767 -0.072291575 0.09790866 -0.06337821
-0.06697964 -0.031946685 -0.0059371027 0.022585185 0.0071248095 0.03845347 0.03880276 -0.035030484

decoder.decoder.8.bias f4 [16]
00000000: 933d 31bd f622 8cba bdaf 75bd fc20 97bc
00000010: 1f3f bd3b 81cf 683d 8cc4 a2bb ab7f a43c
00000020: 09bb 2eb9 f689 3b3c aaad 753d b768 08bd
00000030: 825a 283d 6887 033d 15f3 5d3d 13e8 66bc
-0.043271612 -0.0010691572 -0.05998205 -0.018448345 0.005775347 0.056838516 -0.004967278 0.020080408
-0.00016663609 0.011446467 0.059980072 -0.03330299 0.04110194 0.032111555 0.0541869 -0.014093417

decoder.decoder.9.weight f4 [16]
00000000: 2166 7c3f 1a0f 813f de53 613f a2ce 693f
00000010: 9594 6b3f ea4f 5b3f a079 6e3f 97eb 7e3f
00000020: 6be8 5e3f a520 6f3f da0d 763f 8e72 713f
00000030: 3e00 5c3f 371e 4e3f f28f 843f f445 6a3f
0.98593336 1.0082734 0.88018596 0.9133092 0.92023593 0.85668814 0.93154335 0.9957823
0.8707339 0.93409187 0.96114886 0.9431542 0.8593787 0.80514854 1.0356429 0.9151299

decoder.decoder.9.bias f4 [16]
00000000: 14f4 8ebd 8f41 0e3c d25a 5ebd 83a1 0bbd
00000010: d1e5 1b3d 5add 6f3d 8164 b7bb a0a1 ad3c
00000020: 80c7 bf3b 3b8e 0b3d 563a 8f3d afa6 c0bc
00000030: a097 203d fe14 523c 79bf a53d e996 35bb
-0.06980148 0.008682623 -0.05428583 -0.034089576 0.038060967 0.058560707 -0.005596698 0.021195233
0.0058526397 0.03407119 0.069935486 -0.02351698 0.0392071 0.012822388 0.08093161 -0.0027708358

decoder.decoder.9.running_mean f4 [16]
00000000: 2456 023e ae34 9dbe 8beb 583e 5d96 233e
00000010: fd04 373d 4ad6 523d 6138 9d3e cade ecbd
00000020: 14e7 46be 5252 153d fd38 6ebe ecfd 6a3e
00000030: febd 323d 5f51 0bbe bf2a 9bbe 42fd 503e
0.12728173 -0.30704254 0.21183603 0.15975328 0.04468249 0.051473893 0.30707076 -0.11565931
-0.19424087 0.03645546 -0.23263927 0.22948426 0.043638222 -0.1360526 -0.3030605 0.2040911
