AE_model_params.pth (torch, 74083 bytes, 20 tensors)

encoder.encoder.0.weight f4 [16, 1, 3, 3]
0.41208643 -0.100534804 -0.37432098 0.46018034 -0.004414115 -0.17479856 -0.164395 0.067237064
0.12772433 -0.24267197 -0.07606706 0.118639976 -0.32642004 -0.01426719 0.10968214 0.23012055
0.21543717 0.27398345 0.5858818 0.17182226 -0.04973536 0.08435819 -0.08227437 -0.09259414
-0.12919049 0.06261348 -0.07241098 0.17652309 -0.045032803 0.17122737 -0.39638352 -0.28194922
0.2830384 -0.15953206 -0.10079098 0.4295151 -0.39806655 -0.33755872 -0.37294006 -0.08682545
-0.14559552 0.00021902368 0.4756567 0.38975412 0.49386668 -0.22458494 -0.28548777 -0.059530683
-0.06488974 0.24709933 0.07872752 -0.00198892 -0.09868313 0.19337213 0.0056513445 -0.07834332
0.2464398 0.39404166 -0.1589557 -0.31647718 0.32732725 0.10751575 -0.26473776 0.09052139
0.2740266 0.13101056 -0.28262755 0.3147621 0.6425536 -0.6739375 -0.41899547 -0.043597426
0.50109786 0.30227304 0.62809974 0.48316547 0.05314768 0.41378644 0.18522833 -0.38151854
-0.3179852 -0.30032393 -0.018809665 -0.025204293 -0.057170525 0.2597312 0.031500865 0.16845548
0.3439414 -0.034845095 -0.101581976 0.12807962 -0.1335146 -0.27589586 -0.28585142 -0.21358919
0.16389859 -0.019169217 -0.2793743 -0.035018694 0.19726865 -0.032611024 0.053372793 -0.13780046
-0.32619587 0.045879353 -0.25161383 -0.33326006 -0.2728266 0.024591843 -0.2459174 -0.096415624
0.1918265 -0.19246925 -0.020731935 -0.30608475 0.05245133 -0.08891464 0.14620404 -0.12527753
-0.093442395 0.49668637 0.05609918 -0.026080089 0.23269275 -0.1769515 0.0005790767 0.21079685
-0.07589977 -0.045383837 -0.18529502 -0.06894853 -0.08494605 -0.028810572 -0.0382785 0.027912471
0.19965112 -0.08787719 0.22291343 0.1769283 -0.02708176 0.0017022188 -0.016304627 0.050554216
00000000: fefc d23e 31e5 cdbd 00a7 bfbe c29c eb3e
00000010: 48a4 90bb 65fe 32be 2a57 28be 96b3 893d
00000020: 2bca 023e 007f 78be 0cc9 9bbd 84f9 f23d
00000030: 8720 a7be efc0 69bc 08a1 e03d b9a4 6b3e
00000040: 909b 5c3e 8f47 8c3e 5afc 153f 2df2 2f3e
00000050: 4eb7 4bbd fdc3 ac3d 777f a8bd ffa1 bdbd
00000060: 834a 04be 7f3b 803d 354c 94bd 78c2 343e
00000070: 5174 38bd 3a56 2f3e c8f2 cabe a65b 90be
00000080: 69ea 903e 5f5c 23be 806b cebd 67e9 db3e
00000090: 61cf cbbe 7fd4 acbe 00f2 bebe 8bd1 b1bd
000000a0: fe16 15be b9a9 6539 4689 f33e da8d c73e
000000b0: 18dc fc3e 98f9 65be 742b 92be 72d6 73bd
000000c0: e9e4 84bd 9b07 7d3e e53b a13d 8a58 02bb
000000d0: 621a cabd 5803 463e ea2e b93b 7672 a0bd
000000e0: b75a 7c3e d4bf c93e 48c5 22be 4c09 a2be
000000f0: 7097 a73e 3831 dc3d b58b 87be 4763 b93d
00000100: 374d 8c3e a227 063e 8fb4 90be 7f28 a13e
00000110: 657e 243f 2b87 2cbf 9386 d6be 3793 32bd
00000120: f347 003f 88c3 9a3e 25cb 203f 7761 f73e
00000130: 62b1 593d d1db d33e 7fac 3d3e 6656 c3be
00000140: f5ce a2be 0fc4 99be ba16 9abc 3c79 cebc
00000150: a42b 6abd 7dfb 843e 0d07 013d 987f 2c3e
00000160: 1619 b03e bbb9 0ebd 360a d0bd 4e27 033e
00000170: 0db8 08be 3942 8dbe 1e5b 92be 20b7 5abe
00000180: 08d5 273e c308 9dbc 260a 8fbe c36f 0fbd
00000190: cb00 4a3e 2393 05bd 6e9d 5a3d 901b 0dbe
000001a0: 2503 a7be fdeb 3b3d 87d3 80be 10a1 aabe
000001b0: eeaf 8bbe d574 c93c c5d1 7bbe 8e75 c5bd
000001c0: 2b6e 443e a916 45be 05d6 a9bc 24b7 9cbe
000001d0: 35d7 563d e118 b6bd 83b6 153e c148 00be
000001e0: ba5e bfbd ad4d fe3e 41c8 653d e9a5 d5bc
000001f0: 0247 6e3e c632 35be 2ecd 173a 21db 573e
00000200: 5771 9bbd 67e4 39bd fabd 3dbe e334 8dbd
00000210: 32f8 adbd 2604 ecbc ebc9 1cbd b2a8 e43c
00000220: 5871 4c3e f5f8 b3bd 6b43 643e b12c 353e
00000230: 91da ddbc fc1c df3a 4891 85bc f011 4f3d

encoder.encoder.0.bias f4 [16]
0.23900433 0.27410322 0.47714734 0.050498687 0.008897073 0.234863 0.24680045 0.023141045
0.012959673 0.35498852 -0.06397119 0.23859921 0.074624866 0.4158189 -0.04197124 0.4718218
00000000: 8dbd 743e 4257 8c3e a84c f43e b6d7 4e3d
00000010: 07c5 113c ed7f 703e 42b9 7c3e 4a92 bd3c
00000020: cf54 543c 0ec1 b53e 5403 83bd 5a53 743e
00000030: ecd4 983d 37e6 d43e 09ea 2bbd a192 f13e

encoder.encoder.3.weight f4 [16, 16, 3, 3]
-0.0044042394 0.09335345 -0.089560494 0.07883254 0.07539744 -0.027747372 0.030075101 0.16026339
0.0703182 0.117259786 -0.013059346 -0.047519583 -0.034360923 -0.17122953 -0.13989714 0.11259606
0.15889603 0.044563103 -0.0171317 0.017867554 -0.06549841 0.14194459 0.016239794 0.007025694
0.10636366 0.05300807 0.02275853 -0.09822761 -0.0029552758 -0.14321132 -0.014914738 0.007452068
-0.27473766 0.023830552 0.20509355 -0.06925637 0.25241685 0.15536778 0.28584534 0.019768102
-0.08771886 -0.032522276 0.00046037303 0.11354847 0.20958158 0.099147156 0.043554988 0.07636273
0.055027165 -0.04151972 0.020508079 0.09719584 0.019571807 0.03386778 -0.04097689 -0.0061871335
-0.056511685 0.00085420976 -0.0016298166 -0.07109368 0.05729782 -0.020862361 0.10295839 0.061742634
0.13703097 0.0962807 -0.02109229 0.1255473 0.005014121 -0.13884148 0.08300655 -0.037811287
0.10479468 0.1256052 0.19517125 0.02398373 -0.04821476 -0.016183535 -0.020920413 -0.114237614
0.13125093 0.17205569 0.010382892 0.028323462 0.12377922 -0.052550986 0.03808708 0.054322645
0.14002235 0.1822293 0.027770152 -0.0031681068 0.020732587 -0.043970767 -0.015532182 0.01754005
0.022990065 -0.0284562 -0.073071316 -0.08566784 0.08893816 -0.037091326 -0.0034962473 0.04061436
-0.059697215 -0.013449601 -0.016525382 -0.09648735 0.015801096 0.0010025366 -0.0031304942 -0.03274783
-0.017803833 0.0206659 0.029412124 -0.0034133848 -0.057062946 -0.00029110612 0.06339236 0.09650089
0.08520523 0.116934076 0.004374703 -0.040675983 0.13087665 0.19976473 0.0057992935 0.004767059
0.031006422 0.013668649 -0.002726229 0.014455546 0.030233184 -0.048051726 -0.06942851 0.08332488
0.13238576 0.1509921 0.18880315 0.18372172 0.03483156 0.076521404 0.115026966 0.18681738
-0.16772152 0.069992006 -0.0018525752 -0.010807228 -0.063892685 0.06352531 -0.065758124 -0.05888957
0.062546045 0.20099145 0.12553278 0.23606588 0.06827083 0.083899364 0.15466608 0.1673701
0.06188574 0.011564512 -0.17947169 0.12613866 0.17462106 -0.0516967 0.04948833 0.13391817
0.16969834 0.19607897 0.19279602 -0.022022268 0.118406534 0.21822247 -0.026870156 0.019001814
0.031795856 0.0769418 0.020102344 0.14970751 0.102323495 -0.030805698 -0.15207292 -0.04192931
-0.090267956 -0.025627032 0.08293729 -0.17603673 -0.08445193 0.15508108 0.03409903 -0.012948197
0.061713766 0.054067485 -0.0074026114 0.028834162 -0.08346976 0.011997231 -0.16062284 -0.007896292
0.017253706 -0.041070994 -0.032470066 0.058615383 0.24432267 0.09434385 0.06654937 -0.13186872
-0.081071556 -0.014449935 -0.27541003 -0.12496394 -0.057134025 -0.19377665 -0.12262647 0.024994869
-0.15249257 -0.009122909 -0.05445005 0.12096575 -0.052399468 0.07611775 0.042655338 0.0035646027
-0.02748607 0.15737349 -0.04774664 0.07393024 0.069165826 0.147334 0.18804668 0.10858017
0.121017076 0.050966408 0.010921031 -0.03690732 -0.08090297 -0.0012600608 -0.13805799 -0.076899014
0.051786285 -0.03573097 -0.0044205477 -0.03720882 -0.002392328 -0.088286854 0.005488218 -0.0011362402
0.0065095266 0.116994694 0.0764494 0.0654244 -0.0036348915 -0.014667039 -0.06506368 0.017663838
00000000: 7051 90bb 1830 bf3d 7e6b b7bd f472 a13d
00000010: f969 9a3d 754e e3bc 0f60 f63c 161c 243e
00000020: fd02 903d e625 f03d def6 55bc e5a3 42bd
00000030: 0abe 0cbd cb56 2fbe 3241 0fbe c398 e63d
00000040: a4b5 223e cd87 363d c757 8cbc fa5e 923c
00000050: 0824 86bd ec59 113e 5109 853c cb37 e63b
00000060: 31d5 d93d fd1e 593d 1970 ba3c 8f2b c9bd
00000070: 4dad 41bb fda5 12be f25c 74bc 7a30 f43b
00000080: 6aaa 8cbe 4a38 c33c 0b04 523e 49d6 8dbd
00000090: c83c 813e bb18 1f3e 525a 923e b7f0 a13c
000000a0: f2a5 b3bd 1436 05bd 395e f139 1a8c e83d
000000b0: 8e9c 563e aa0d cb3d b766 323d 1064 9c3d
000000c0: 2a64 613d 9510 2abd 8f00 a83c 9d0e c73d
000000d0: 0e55 a03c f1b8 0a3d 62d7 27bd 70bd cabb
000000e0: cc78 67bd 0ced 5f3a 929f d5ba 9099 91bd
000000f0: 1eb1 6a3d 8be7 aabc d9db d23d d8e5 7c3d
00000100: d951 0c3e d12e c53d bdc9 acbc 798f 003e
00000110: 7f4d a43b 762c 0ebe 57ff a93d 02e0 1abd
00000120: 989e d63d a69e 003e f9da 473e 8779 c43c
00000130: d77c 45bd 5593 84bc 4961 abbc 69f5 e9bd
00000140: a566 063e 5e2f 303e 011d 2a3c 9b06 e83c
00000150: f67f fd3d b43f 57bd 3301 1c3d 6c81 5e3d
00000160: 0562 0f3e 519a 3a3e 3b7e e33c 03a0 4fbb
00000170: 63d7 a93c b11a 34bd b17a 7ebc 27b0 8f3c
00000180: a955 bc3c fa1c e9bc 6aa6 95bd 9f72 afbd
00000190: 3625 b63d 13ed 17bd 4c21 65bb 3e5b 263d
000001a0: 1185 74bd b75b 5cbc 3d60 87bc 299b c5bd
000001b0: 4d71 813c 8c67 833a fa28 4dbb 9722 06bd
000001c0: 58d9 91bc 894b a93c b2f1 f03c 18b3 5fbb
000001d0: d6ba 69bd 9a9f 98b9 dbd3 813d 42a2 c53d
000001e0: 1480 ae3d 227b ef3d ab59 8f3b dc9b 26bd
000001f0: 8704 063e 208f 4c3e 0008 be3b fd34 9c3b
00000200: 2e01 fe3c 78f2 5f3c 88aa 32bb f4d6 6c3c
00000210: 95ab f73c e3d1 44bd 8930 8ebd 3ca6 aa3d
00000220: 2290 073e ac9d 1a3e 9d55 413e 8c21 3c3e
00000230: 8aab 0e3d 41b7 9c3d 4293 eb3d 0e4d 3f3e
00000240: 31bf 2bbe f857 8f3d 1cd2 f2ba cd10 31bc
00000250: 2bda 82bd 8f19 823d 32ac 86bd 3136 71bd
00000260: 2418 803d b4d0 4d3e aa8b 003e 41bb 713e
00000270: 94d1 8b3d 6ed3 ab3d c960 1e3e 1163 2b3e
00000280: e77b 7d3d 1479 3d3c 6dc7 37be 7e2a 013e
00000290: ddcf 323e ebbf 53bd 46b4 4a3d d821 093e
000002a0: 67c5 2d3e edc8 483e 526c 453e 0b68 b4bc
000002b0: 207f f23d b675 5f3e cd1e dcbc b1a9 9b3c
000002c0: 5f3c 023d aa93 9d3d acad a43c ed4c 193e
000002d0: fb8e d13d 3b5c fcbc 01b9 1bbe 11be 2bbd
000002e0: 68de b8bd c8ef d1bc 07db a93d f942 34be
000002f0: 22f5 acbd 93cd 1e3e 6dab 0b3d ad24 54bc
00000300: 93c7 7c3d de75 5d3d 9b91 f2bb 9f35 ec3c
00000310: 32f2 aabd 0990 443c 507a 24be 735f 01bc
00000320: a557 8d3c 0f3a 28bd 55ff 04bd af16 703d
00000330: b92f 7a3e 5937 c13d 094b 883d 9808 07be
00000340: d808 a6bd 6cbf 6cbc 8b02 8dbe 18ed ffbd
00000350: 5e05 6abd 636d 46be 9623 fbbd 0ac2 cc3c
00000360: 0327 1cbe 4178 15bc 0407 5fbd e4bc f73d
00000370: d3a0 56bd 9fe3 9b3d 5db7 2e3d 1c9c 693b
00000380: 772a e1bc 8426 213e fb91 43bd bd68 973d
00000390: d0a6 8d3d b9de 163e 4f8f 403e 485f de3d
000003a0: cdd7 f73d 27c2 503d 20ee 323c 212c 17bd
000003b0: 75b0 a5bd a028 a5ba 135f 0dbe 3b7d 9dbd
000003c0: db1d 543d a35a 12bd 3eda 90bb 4768 18bd
000003d0: 9bc8 1cbb bdcf b4bd 82d6 b33b e5ed 94ba
000003e0: de4d d53b ea9a ef3d 8191 9c3d 3afd 853d
000003f0: 5c37 6ebb 054e 70bc 1b40 85bd c1b3 903c

encoder.encoder.3.bias f4 [16]
0.04282647 0.052150376 0.069026336 0.06710354 0.090432405 0.06516678 -0.06254014 -0.09930175
-0.023251679 0.06533573 0.0010547248 0.07663903 0.0060630045 0.018593682 0.09733977 0.06592427
00000000: cf6a 2f3d a29b 553d ae5d 8d3d 956d 893d
00000010: a034 b93d 2976 853d 0b15 80bd b75e cbbd
00000020: 4e7a bebc bdce 853d b13e 8a3a ecf4 9c3d
00000030: 2bac c63b c751 983c 135a c73d 4e03 873d

encoder.encoder.6.weight f4 [16, 16, 3, 3]
0.13599631 0.11372886 -0.006381213 0.10935895 0.0072628763 0.035714082 0.038095903 0.061271112
0.034023132 0.0558989 -0.0049469094 0.0039736545 0.08009777 0.02464599 0.05482697 0.13417988
0.15563574 -0.14194141 0.17816249 0.08086274 0.13432658 -0.06431198 -0.015818803 -0.019488133
-0.018110693 -0.0016478656 0.023429375 -0.014843242 0.029339887 0.087717846 -0.13224925 -0.14738408
0.024228245 0.03598914 0.029041454 -0.03948714 0.2797848 0.1573515 0.058280293 0.061660778
0.1376268 0.07632937 -0.017937724 -0.07878452 0.031477816 0.1764156 0.12655674 0.02209978
-0.011570005 -0.086697534 -0.08551098 -0.09199061 -0.274783 -0.074634954 -0.120822676 0.05643984
0.07215491 -0.014669179 -0.08510087 0.09187112 -0.028904943 0.09672643 0.08047132 -0.09867683
-0.027168874 0.046665292 -0.008817098 0.0011838677 0.018671406 -0.123275936 0.061158553 0.0033998927
-0.016086195 0.05803247 -0.100909844 -0.0067681978 -0.050348703 0.05074762 -0.027820906 -0.044800963
-0.12103724 0.12848209 0.01695844 -0.042813428 -0.06057436 -0.04523154 -0.16458498 -0.026490469
-0.08059739 0.0076240287 0.17947973 0.10650568 0.1175096 -0.045745745 -0.13844141 -0.0206535
-0.05963342 -0.035088446 0.020442948 0.09132165 0.032053992 -0.016352603 -0.0027172854 -0.043541867
-0.0064941105 0.16257477 0.06930605 0.05754884 0.010815764 0.028904842 0.0683431 -0.07320966
-0.029370677 0.029097913 -0.053169116 0.049897958 0.05122969 -0.00786712 0.061537337 0.06554709
0.06182696 0.028298402 0.085908666 0.11515593 0.02600374 -0.06992234 0.0781078 -0.017127384
0.056038212 0.07703518 0.0385419 -0.076632924 0.08026686 -0.014665361 0.013181874 -0.033235382
0.048083413 0.080305494 -0.051260214 -0.003363355 -0.02573765 -0.019142969 0.08145715 -0.0007123329
0.0017625286 0.012745149 -0.0020800948 -0.03119355 0.01728034 0.041751895 0.037010618 0.02821823
0.0211609 -0.0001854555 -0.058504067 -0.041015293 -0.0028343573 0.03080642 0.006794854 0.09026338
-0.041351058 0.01162788 0.03371967 0.03985165 -0.09544616 0.011323298 0.018102752 0.08906313
0.13701087 0.029288359 0.008674847 -0.02167136 -0.020072361 -0.018487735 -0.047018502 -0.08302787
-0.025234163 0.041721046 -0.119039744 -0.047413006 0.004785797 0.027088437 0.00032740738 0.05718898
0.06312534 0.057531755 0.09921353 0.047862396 0.035112254 0.06684869 0.0729789 0.110819146
0.086155355 0.056192257 0.03057848 0.08426586 0.06299916 0.025062943 -0.098891586 -0.1429184
0.040010683 -0.007129764 -0.031140547 0.16164458 -0.020476969 -0.06454011 0.04425139 -0.06601104
-0.01933253 -0.039219912 0.046196576 -0.046470515 0.05823981 0.008208728 -0.012344671 -0.009740512
-0.07305861 -0.08253426 -0.08731201 -0.1324956 -0.043126535 0.0063282056 0.0810734 0.12095936
-0.110820465 -0.0042506163 -0.013538058 -0.04357458 0.012738487 0.028239788 0.047674716 0.10136073
-0.041124057 0.11270808 0.07892851 0.06088328 0.049847137 0.054969504 -0.01855907 0.014898906
0.10683574 0.010318782 0.026556797 -0.026405953 0.011321201 -0.024001751 -0.041577525 -0.081569605
-0.019791577 0.015969846 -0.03728079 -0.053356607 -0.033039264 0.03279477 -0.15237112 -0.13729404
00000000: 9e42 0b3e adea e83d 7f19 d1bb 96f7 df3d
00000010: 6cfd ed3b ee48 123d 730a 1c3d 6bf7 7a3d
00000020: d75b 0b3d 3ff6 643d af19 a2bb 6e35 823b
00000030: 4d0a a43d 63e6 c93c 3f92 603d 7366 093e
00000040: fa5e 1f3e 1759 11be 3a70 363e 5d9b a53d
00000050: e88c 093e 00b6 83bd 6f96 81bc 94a5 9fbc
00000060: e05c 94bc 32fd d7ba f6ee bf3c 1231 73bc
00000070: 345a f03c 6aa5 b33d 596c 07be daeb 16be
00000080: 507a c63c 5969 133d 58e8 ed3c 44bd 21bd
00000090: f43f 8f3e c020 213e 51b7 6e3d 0390 7c3d
000000a0: 0aee 0c3e 9352 9c3d 22f2 92bc c759 a1bd
000000b0: e2ee 003d 4ba6 343e 1798 013e 990a b53c
000000c0: 1e90 3dbc 7a8e b1bd 6120 afbd 9365 bcbd
000000d0: 5bb0 8cbe 36da 98bd e171 f7bd 762d 673d
000000e0: f4c5 933d ff56 70bc 5d49 aebd ed26 bc3d
000000f0: 0fca ecbc 8218 c63d 26ce a43d 1417 cabd
00000100: 4291 debc 1b24 3f3d 9775 10bc 022c 9b3a
00000110: c7f4 983c 1878 fcbd 6481 7a3d bcd0 5e3b
00000120: 32c7 83bc 75b3 6d3d d2a9 cebd c2c7 ddbb
00000130: 713a 4ebd bddc 4f3d abe8 e3bc 3781 37bd
00000140: 5fe2 f7bd cf90 033e 6dec 8a3c 225d 2fbd
00000150: d21c 78bd b544 39bd f788 28be 8a02 d9bc
00000160: 3f10 a5bd fdd2 f93b 89c9 373e a61f da3d
00000170: e0a8 f03d e45f 3bbd 96c3 0dbe 8731 a9bc
00000180: 2c42 74bd e7b8 0fbd f877 a73c d806 bb3d
00000190: 0c4b 033d e5f5 85bc 7c14 32bb f558 32bd
000001a0: 8ccc d4bb 007a 263e 55f0 8d3d 55b8 6b3d
000001b0: 9a34 313c d9c9 ec3c 78f7 8b3d f2ee 95bd
000001c0: c69a f0bc bf5e ee3c dcc7 59bd cd61 4c3d
000001d0: 39d6 513d 18e5 00bc 930e 7c3d 8d3d 863d
000001e0: 443e 7d3d 0dd2 e73c e2f0 af3d dfd6 eb3d
000001f0: cc05 d53c 7233 8fbd fbf6 9f3d ba4e 8cbc
00000200: 5388 653d 9fc4 9d3d 1dde 1d3d b9f1 9cbd
00000210: f462 a43d fb46 70bc c9f8 573c d321 08bd
00000220: 1df3 443d 3577 a43d 3bf6 51bd bc6b 5cbb
00000230: c4d7 d2bc b7d1 9cbc 02d3 a63d dabb 3aba
00000240: a504 e73a 08d1 503c 3352 08bb 9e89 ffbc
00000250: 808f 8d3c 0904 2b3d 7298 173d eb29 e73c
00000260: a059 ad3c d576 42b9 f6a1 6fbd a7ff 27bd
00000270: a0c0 39bb bf5d fc3c 5ea7 de3b 02dc b83d
00000280: ba5f 29bd dd82 3e3c a31d 0a3d 7c3b 233d
00000290: 4779 c3bd 5b85 393c 394c 943c bb66 b63d
000002a0: 944c 0c3e 24ee ef3c f220 0e3c 2388 b1bc
000002b0: cb6e a4bc 9773 97bc 7996 40bd 840a aabd
000002c0: e0b7 cebc b0e3 2a3d 1ccb f3bd 2434 42bd
000002d0: 2dd2 9c3b 92e8 dd3c e0a7 ab39 fe3e 6a3d
000002e0: dc47 813d 6ba6 6b3d 7730 cb3d 5c0b 443d
000002f0: ded1 0f3d f7e7 883d f675 953d 26f5 e23d
00000300: 3872 b03d da29 663d b87f fa3c 9493 ac3d
00000310: b405 813d cd50 cd3c ac87 cabd 3359 12be
00000320: 3ee2 233d cca0 e9bb 761a ffbc 2886 253e
00000330: 51bf a7bc 9b2d 84bd f240 353d cc30 87bd
00000340: 415f 9ebc 0fa5 20bd 9f38 3d3d de57 3ebd
00000350: de8c 6e3d e77d 063c 4e41 4abc ab96 1fbc
00000360: c19f 95bd b907 a9bd a4d0 b2bd edac 07be
00000370: 73a5 30bd d65c cf3b d009 a63d 8ab9 f73d
00000380: d7f5 e2bd c148 8bbb bbce 5dbc 427b 32bd
00000390: 16b5 503c 2157 e73c 9046 433d 3796 cf3d
000003a0: b371 28bd 7ed3 e63d 45a5 a13d bf60 793d
000003b0: 832c 4c3d b427 613d 3109 98bc 8b1a 743c
000003c0: b2cc da3d 1c10 293c a48d d93c 4c51 d8bc
000003d0: 8f7c 393c 529f c4bc 324d 2abd f70d a7bd
000003e0: f221 a2bc 32d3 823c beb3 18bd 758c 5abd
000003f0: 2e54 07bd cf53 063d 2d07 1cbe cf96 0cbe

encoder.encoder.6.bias f4 [16]
-0.09650686 0.13358007 -0.11843149 0.06526022 -0.006931334 -0.064468876 0.05581604 -0.041819658
-0.08950185 -0.013000269 0.0045043966 -3.8282194e-10 0.075316444 -0.13045663 -0.08927595 0.054672647
00000000: 63a5 c5bd 37c9 083e 368c f2bd 26a7 853d
00000010: 3e20 e3bb 4208 84bd 5c9f 643d 174b 2bbd
00000020: bf4c b7bd 15ff 54bc 9e99 933b 6675 d2af
00000030: 823f 9a3d 6c96 05be 4fd6 b6bd 6df0 5f3d

encoder.encoder.9.weight f4 [16, 16, 3, 3]
-0.21842578 0.048338518 -0.032250337 -0.041467987 0.038279533 0.07813121 0.032945674 0.032501455
-0.14354292 0.024980495 0.08612235 -0.032810587 0.06190656 0.062056985 0.11165848 -0.051390756
-0.0036276774 -0.10989857 0.020252977 -0.28453118 -0.15100949 0.022984687 -0.08375108 -0.1296129
-0.029029217 -0.14402415 -0.122558646 -0.17479232 -0.015172 -0.11640932 -0.103548914 -0.049420696
0.030928534 -0.051572815 0.10834637 0.0099493135 0.104473464 0.13725856 0.070689276 0.07051868
0.048291385 -0.078369714 0.0126337875 0.07445363 0.037730765 -0.06935496 -0.004805176 -0.064718656
0.040170915 0.017212551 -0.068982385 -0.07589182 0.021553144 -0.053737216 0.015736701 -0.003996363
-0.057530534 -0.058917996 0.045942508 0.10350608 -0.0712755 0.03853578 0.035050303 -0.029869815
0.011833221 -0.059120588 0.016167942 0.082507744 -0.106530644 -0.02191574 -0.08336836 -0.15876739
-0.048151232 0.072879076 0.022971194 0.010387319 0.014945887 0.08913524 -0.03700621 -0.012205088
0.0037159778 0.0032315727 -0.004871383 0.16165352 0.010509541 0.11157084 -0.027082555 0.32050875
0.06345755 0.015133173 -0.06648277 -0.029484795 0.12352704 -0.028189339 0.050493836 0.059967887
-0.06120156 -0.095218234 -0.034499835 2.0811831e-13 1.25522474e-11 1.109452e-11 2.891285e-06 2.214168e-06
3.2941006e-08 7.1440794e-05 1.6878712e-05 1.1342256e-07 -0.0021262178 -0.001377639 -0.025057152 -0.029772975
0.026717266 -0.055628244 -0.044957448 -0.0012659387 -0.007395739 -0.16800776 0.059881542 -0.04245251
-0.02873576 0.0068372195 -0.085938506 0.0036693034 0.009946719 -0.09998181 -0.16274787 -0.045399427
-0.134587 -0.05137209 0.07292335 -0.06536789 -0.015738046 -0.078442045 -0.022605682 -0.093303435
-0.0045825397 0.2265101 -0.04071257 -0.03793748 0.015803674 0.23928902 0.11073486 0.13032478
5.2753735e-10 -2.165652e-08 -1.6356703e-08 -2.3794557e-08 -5.64166e-06 -2.9443478e-07 -9.1407736e-07 -2.5335625e-05
-2.5292984e-06 -3.4439132e-10 -4.6713067e-10 1.228677e-10 3.5027453e-10 -3.0426806e-10 -6.981718e-11 1.2066628e-10
2.2777609e-10 -5.64062e-11 -7.249189e-12 -6.054033e-11 6.312317e-11 6.1754914e-11 -2.6038607e-10 3.0297942e-10
1.2336296e-10 3.3727254e-10 1.6339459e-10 -6.217126e-11 -1.659841e-11 -1.2744087e-11 3.74089e-12 2.1806137e-10
-2.5962446e-10 -3.4054715e-10 -1.0078508e-07 -1.2936867e-07 5.5098925e-10 6.0914107e-10 -4.858309e-10 -3.8973516e-10
-4.1947074e-10 -1.8868573e-10 6.053702e-10 2.311781e-10 -1.187507e-10 -2.2900698e-10 -3.4299305e-10 2.8983813e-10
5.369056e-10 7.327467e-10 5.465155e-10 2.657439e-10 5.77306e-10 5.8355715e-10 -5.0378982e-11 9.684606e-11
5.765332e-11 -9.458038e-11 9.190011e-13 2.9461347e-11 -2.9984762e-10 -3.1125497e-10 -2.946071e-10 -4.1598208e-11
-1.14754026e-10 -1.6979121e-10 3.7527345e-10 -6.646887e-10 -4.0473405e-10 4.116084e-10 -6.800184e-10 -4.959484e-12
1.426682e-10 -2.9334332e-10 -4.3130048e-11 2.2938614e-10 -2.4813476e-10 -5.657371e-10 4.9257054e-10 -1.7540222e-08
5.4872296e-10 1.906183e-10 2.6707398e-11 -3.9867273e-11 -6.931491e-11 3.813028e-12 8.3911655e-11 1.4350023e-10
-2.0062224e-11 -1.807654e-11 -2.821798e-11 -3.58859e-10 -3.0257838e-10 -8.5597807e-10 1.8392793e-09 3.1304281e-10
4.427453e-10 3.7754844e-10 1.1258048e-10 -6.66551e-40 4.70933e-40 -7.16128e-40 -4.5129e-40 -6.70713e-40
-8.9298e-41 8.88502e-40 9.6827e-41 -6.53702e-40 -3.9123428e-08 -1.5730029e-06 -1.2542627e-06 -1.0704656e-06
00000000: 02ab 5fbe 9cfe 453d ee18 04bd 56da 29bd
00000010: 00cb 1c3d 4103 a03d 0bf2 063d 3f20 053d
00000020: eafc 12be e5a3 cc3c ea60 b03d 6564 06bd
00000030: bc91 7d3d 772f 7e3d 33ad e43d 1d7f 52bd
00000040: 54be 6dbb 8012 e1bd 92e9 a53c 12ae 91be
00000050: 3ba2 1abe 624a bc3c b085 abbd 3eb9 04be
00000060: aece edbc 117b 13be 0700 fbbd c2fc 32be
00000070: fb93 78bc 0268 eebd 7411 d4bd 5b6d 4abd
00000080: d65d fd3c 043e 53bd b4e4 dd3d 7202 233c
00000090: 2ff6 d53d 828d 0c3e 8ac5 903d 196c 903d
000000a0: 30cd 453d 4d80 a0bd f2fd 4e3c 257b 983d
000000b0: 938b 1a3d f909 8ebd bd74 9dbb 378b 84bd
000000c0: 428a 243d 5601 8d3c a346 8dbd 2c6d 9bbd
000000d0: 3890 b03c 8e1b 5cbd 41ea 803c ecf3 82bb
000000e0: 23a5 6bbd ff53 71bd 362e 3c3d fffa d33d
000000f0: e4f8 91bd b2d7 1d3d e890 0f3d 8bb1 f4bc
00000100: 20e0 413c 6e28 72bd a272 843c d2f9 a83d
00000110: bd2c dabd a388 b3bc 08bd aabd eb93 22be
00000120: 3a3a 45bd a041 953d 162e bc3c 932f 2a3c
00000130: 98df 743c 898c b63d d393 17bd d9f7 47bc
00000140: c387 733b cbc8 533b 1fa0 9fbb 8088 253e
00000150: 3630 2c3c 417f e43d 3cdc ddbc b919 a43e
00000160: 08f6 813d 21f1 773c 1e28 88bd 198a f1bc
00000170: bffb fc3d 54ed e6bc a0d2 4e3d e3a0 753d
00000180: 7dae 7abd c701 c3bd b34f 0dbd 0552 6a2a
00000190: 4cd2 5c2d 472d 432d e607 4236 1e97 1436
000001a0: 057b 0d33 7cd2 9538 c296 8d37 b692 f333
000001b0: 0458 0bbb e591 b4ba a844 cdbc 74e6 f3bc
000001c0: 2bde da3c 71da 63bd 4d25 38bd dbed a5ba
000001d0: f557 f2bb 3a0a 2cbe 5946 753d afe2 2dbd
000001e0: 4267 ebbc c10a e03b 8700 b0bd b278 703b
000001f0: 90f7 223c 43c3 ccbd 61a7 26be c0f4 39bd
00000200: 2dd1 09be 8a6b 52bd d658 953d 9adf 85bd
00000210: 13ed 80bc 39a6 a0bd 8d2f b9bc df15 bfbd
00000220: 2129 96bb 43f2 673e 39c2 26bd 5564 1bbd
00000230: b576 813c 2e08 753e f5c8 e23d dc73 053e
00000240: 2402 1130 3107 bab2 c580 8cb2 c964 ccb2
00000250: 7e4d bdb6 cf12 9eb4 eb5e 75b5 d787 d4b7
00000260: 04bd 29b6 c554 bdaf 6667 00b0 2f18 072f
00000270: c290 c02f ec45 a7af 9487 99ae 8aac 042f
00000280: 4571 7a2f bc13 78ae e40e ffac 2d21 85ae
00000290: 30cf 8a2e edcc 872e 1526 8faf 9090 a62f
000002a0: 96a3 072f e46a b92f 7da7 332f 4fb7 88ae
000002b0: 4c00 92ad 4432 60ad f19e 832c d2c2 6f2f
000002c0: e5ba 8eaf c037 bbaf 2f6f d8b3 97e8 0ab4
000002d0: 6c74 1730 7e70 2730 4f8b 05b0 5942 d6af
000002e0: 429b e6af 5076 4faf 2467 2630 da2e 7e2f
000002f0: 5a91 02af bccb 7baf fb8f bcaf 1757 9f2f
00000300: 5f95 1330 776a 4930 9c39 1630 2118 922f
00000310: 4cb0 1e30 2f68 2030 b191 5dae 7cf7 d42e
00000320: de8f 7d2e 05fc cfae 8156 812b 8792 012e
00000330: cdd7 a4af 3e1d abaf 43f6 a1af 6bf3 36ae
00000340: c658 fcae faaf 3aaf 0b4f ce2f 4fb5 36b0
00000350: 4181 deaf bb48 e22f 0aec 3ab0 107f aeac
00000360: 87dd 1c2f 6744 a1af 1eb0 3dae 7536 7c2f
00000370: dd69 88af 3682 1bb0 9265 0730 5bab 96b2
00000380: f2d4 1630 4896 512f b7eb ea2d 8f56 2fae
00000390: d36c 98ae b428 862c 1086 b82e b9c7 1d2f
000003a0: 1d78 b0ad c000 9fad 3e35 f8ad ea48 c5af
000003b0: 1f58 a6af 1a4a 6bb0 e3c9 fc30 dc18 ac2f
000003c0: dd66 f32f 388f cf2f 2d91 f72e 1342 0780
000003d0: c520 0500 46cc 0780 03ea 0480 ad4d 0780
000003e0: edf8 0080 c8ac 0900 ea0d 0100 411e 0780
000003f0: aa08 28b3 f81f d3b5 2358 a8b5 ebac 8fb5

encoder.encoder.9.bias f4 [16]
0.13709682 -1.1775364e-10 0.025209565 0.09750082 -0.113405295 0.002050002 0.03980497 -0.008054412
-0.06273113 0.123749465 0.058038976 -0.07353306 0.06267211 0.012386002 -0.016539805 0.13337795
00000000: 1c63 0c3e b478 01af 4a84 ce3c 83ae c73d
00000010: 0941 e8bd 5459 063b 890a 233d a7f6 03bc
00000020: 2e79 80bd 5c70 fd3d 47ba 6d3d 8098 96bd
00000030: 3c5a 803d a8ee 4a3c 7c7e 87bc 3b94 083e

encoder.encoder.12.weight f4 [1, 16, 2, 2]
-0.043554664 0.111402765 0.11021165 0.24331646 0.00014511863 -0.0003192331 -0.006603078 -0.0063302736
0.1957682 0.26180193 0.18411197 0.21380234 -0.031925905 -0.0027989324 0.16194612 -0.14363891
0.13905849 -0.031491995 0.01938633 -0.13963482 -0.07466268 0.072515 -0.14518826 0.07214694
-0.34858748 0.06513546 0.020806363 0.098026864 -0.07178956 0.013817179 -0.1994991 0.060753718
0.034743562 0.075805545 -0.13219446 -0.14357844 0.08739058 0.068091914 0.14382312 0.08358494
-0.010270847 -0.016544558 0.19549969 -0.018999064 -0.053524878 -0.047811333 -0.1972682 0.10664897
0.1186534 -0.020236438 0.03850816 0.11763567 0.6997513 0.4022831 0.086107574 0.53988236
0.037566487 -0.034643218 -0.008786071 -0.17889386 -0.019326033 0.003612703 0.0068611414 0.21501745
00000000: 6066 32bd 2227 e43d a5b6 e13d f327 793e
00000010: fc2a 1839 be5e a7b9 a25e d8bb 2f6e cfbb
00000020: 7677 483e e70a 863e d987 3c3e 00ef 5a3e
00000030: bdc4 02bd 4b6e 37bb 34d5 253e 1416 13be
00000040: 5965 0e3e c0fd 00bd 15d0 9e3c 6efc 0ebe
00000050: bfe8 98bd bf82 943d 3bac 14be c6c1 933d
00000060: 0f7a b2be bd65 853d 1b72 aa3c 4fc2 c83d
00000070: 6806 93bd 7361 623c 7e49 4cbe e4d8 783d
00000080: 444f 0e3d f03f 9b3d fc5d 07be 3a06 13be
00000090: d5f9 b23d c673 8b3d 5e46 133e 952e ab3d
000000a0: 0e47 28bc 7488 87bc 1231 483e eda3 9bbc
000000b0: e73c 5bbd d1d5 43bd ad00 4abe c66a da3d
000000c0: 8e00 f33d e3c6 a5bc bbba 1d3d f8ea f03d
000000d0: e722 333f 0df8 cd3e 2b59 b03d bb35 0a3f
000000e0: 51df 193d 0ce6 0dbd 74f3 0fbc f42f 37be
000000f0: a151 9ebc 19c3 6c3b 6dd3 e03b 892d 5c3e

decoder.decoder.0.weight f4 [1, 16, 1, 1]
-0.06436744 -0.059575006 -0.1333481 3.78763e-40 -1.88169e-40 -5.2323e-41 0.24908827 0.25431097
0.18557301 -0.28318977 0.20525841 9.17158e-40 -0.10300191 -5.43038e-40 0.3520616 0.34207773
00000000: 14d3 83bd ec04 74bd 688c 08be d61f 0400
00000010: 8a0c 0280 db91 0080 ff10 7f3e 0c35 823e
00000020: da06 3e3e 40fe 90be 432f 523e aafc 0900
00000030: aaf2 d2bd c5e9 0580 6b41 b43e d024 af3e

decoder.decoder.0.bias f4 [16]
0.47683194 0.43514085 0.52017164 -9.11235e-40 -2.089e-41 4.87728e-40 -0.03686144 -0.05820535
0.2805376 0.6849452 0.36447066 8.03811e-40 0.54046863 -5.51363e-40 0.2402765 -0.2854316
00000000: 5123 f43e c8ca de3e f829 053f 27ec 0980
00000010: 3c3a 0080 964f 0500 05fc 16bd bc68 6ebd
00000020: a0a2 8f3e 9258 2f3f e69b ba3e b3c0 0800
00000030: 275c 0a3f fa00 0680 0b0b 763e 1724 92be

decoder.decoder.3.weight f4 [16, 16, 3, 3]
0.070380695 -0.05432862 0.08241227 0.07273062 0.1718397 0.05662058 0.19015758 0.18981823
0.022256108 3.75799e-40 -2.18071e-40 2.44824e-40 8.3808e-40 2.0413e-41 -2.26415e-40 4.6415e-40
8.68013e-40 2.33522e-40 0.39690205 0.14370573 -0.15014823 0.17719638 0.14719957 -0.010640585
-0.050430026 0.11692388 0.11685739 -7.72312e-40 8.11725e-40 5.82737e-40 3.86635e-40 8.7892e-40
1.8487e-41 -2.16446e-40 1.33935e-40 1.6104e-40 0.06808261 0.09058947 -0.022790695 0.037204746
0.0638671 0.10760813 0.08597963 0.19634789 0.1089098 -0.0755735 0.004732481 0.30447888
0.052035566 0.097757086 0.17763083 0.12526779 0.09450254 0.0052831466 -0.036016006 -0.0736755
0.105099194 -0.017037477 0.006108037 0.017697478 -0.02312323 -0.0013011235 0.02285941 -0.01885082
0.04692924 0.07352971 0.018328646 0.021480827 0.017750008 0.09805461 0.05982731 0.117468126
0.2410489 0.21090789 0.010549752 0.1078413 -0.016340334 0.053867485 -0.070058286 0.016669286
0.12614332 0.04784439 0.052903827 0.0141256945 0.13829225 0.043191835 0.03028582 -0.024841592
-0.012805155 0.022446724 9.68146e-40 5.6945e-41 -4.57936e-40 -0.0060659735 -0.03344561 -0.08017887
-0.009939445 -0.05834448 -0.15911776 0.16110066 0.049280886 -0.20712186 0.01761901 0.06897856
-0.007815231 -0.023354305 0.069750555 0.20167984 3.65401e-40 -7.9071e-40 -4.3884e-41 6.5581e-40
-3.85185e-40 -5.11091e-40 9.16194e-40 5.0145e-40 8.33157e-40 -4.9736e-40 8.718e-41 -9.44548e-40
-6.70666e-40 7.7784e-40 1.07541e-40 4.80189e-40 9.6164e-41 -3.13623e-40 5.16625e-40 8.13489e-40
-5.91972e-40 7.5459e-40 2.89522e-40 -3.59682e-40 -4.52483e-40 7.92402e-40 -4.08201e-40 -0.079915285
0.03465689 0.07360653 -0.070720725 0.004552838 0.09008188 0.025254304 0.041116096 0.009351027
0.06822052 0.069248 0.0753428 0.047651518 0.09722275 0.13571212 0.18783869 0.25653252
0.059845828 -8.7115e-40 3.31274e-40 -5.35253e-40 -3.37979e-40 -6.50393e-40 -9.2874e-40 -3.0265e-40
4.5608e-41 -6.14219e-40 0.32386324 0.1761919 -0.120398276 0.09001792 0.1876661 0.11524696
-0.061771594 0.09962801 0.15449847 -8.29988e-40 -4.8247e-40 8.60072e-40 -1.84887e-40 1.25828e-40
7.1718e-40 -8.40642e-40 -9.24486e-40 -2.75145e-40 0.11771544 0.11826094 0.028757155 0.078329034
0.15544705 0.1505882 0.08919869 0.08293695 0.15391825 -0.13827477 0.008174025 0.3259807
0.062054396 0.21585125 0.14105748 0.10276662 0.20829517 0.07319634 -0.09012838 -0.062436182
0.06450445 -0.030394824 0.026149848 0.089660004 -0.0784662 -0.016958602 0.05055465 0.04164309
-0.0013541514 -0.048662785 -0.046270132 0.048931528 -0.058685914 0.103424154 0.13131161 0.02740919
0.25479215 0.1566996 0.13738796 0.0015711879 0.13462925 0.12232407 0.022411974 -0.03207489
0.066233195 0.0866936 0.069144316 -0.042200193 0.19401784 -0.020250252 -0.04681775 0.008354456
0.03582713 0.05837164 -2.80047e-40 -9.42869e-40 4.98474e-40 0.043018993 -0.043231167 -0.07615862
-0.09970113 -0.1324308 -0.16475512 0.2132792 0.05631531 -0.27715904 0.060037255 0.11317156
0.024691932 0.007176636 0.16664976 0.31947964 9.07976e-40 -6.09625e-40 -4.02009e-40 5.7179e-41
00000000: c123 903d b087 5ebd c4c7 a83d cbf3 943d
00000010: bff6 2f3e fbea 673d abb8 423e b65f 423e
00000020: 7152 b63c 9317 0400 e55f 0280 78aa 0200
00000030: 3a20 0900 e738 0000 2777 0280 dd0d 0500
00000040: ab73 0900 f78a 0200 bf36 cb3e 9827 133e
00000050: 75c0 19be f872 353e 7cbb 163e d955 2ebc
00000060: b78f 4ebd ca75 ef3d ed52 ef3d e468 0880
00000070: c2d6 0800 6f58 0600 c835 0400 1292 0900
00000080: 8933 0000 5d5b 0280 5b75 0100 eac0 0100
00000090: e56e 8b3d f986 b93d 8db3 babc 0164 183d
000000a0: c1cc 823d a761 dc3d 1716 b03d 6c0f 493e
000000b0: 1a0c df3d 47c6 9abd ee12 9b3b a8e4 9b3e
000000c0: 3f23 553d de34 c83d dbe4 353e 3346 003e
000000d0: 8c8a c13d 3f1e ad3b 8585 13bd 2ee3 96bd
000000e0: 3f3e d73d 2e92 8bbc ee25 c83b 4dfa 903c
000000f0: ee6c bdbc 768a aaba a843 bb3c 096d 9abc
00000100: e038 403d bf96 963d f525 963c 8ff8 af3c
00000110: 7768 913c dbd0 c83d 7b0d 753d 2193 f03d
00000120: 86d5 763e 3df8 573e ded8 2c3c e6db dc3d
00000130: 2adc 85bc 27a4 5c3d b87a 8fbd 078e 883c
00000140: b72b 013e 7bf8 433d afb1 583d 756f 673c
00000150: 7c9c 0d3e ece9 303d f819 f83c 9880 cbbc
00000160: b6cc 51bc 31e2 b73c cc8a 0a00 bd9e 0000
00000170: 8afc 0480 13c5 c6bb 44fe 08bd d234 a4bd
00000180: 0ed9 22bc 9ffa 6ebd c4ef 22be 92f7 243e
00000190: c1da 493d c117 54be be55 903c a244 8d3d
000001a0: 740b 00bc 8751 bfbc 61d9 8e3d 2985 4e3e
000001b0: 97fa 0300 2e9c 0880 557a 0080 2224 0700
000001c0: bd31 0480 b790 0580 faf9 0900 d775 0500
000001d0: 8112 0900 706a 0580 06f3 0000 0449 0a80
000001e0: 8b4d 0780 4d78 0800 c82b 0100 923a 0500
000001f0: 110c 0100 416a 0380 24a0 0500 addb 0800
00000200: 2d72 0680 7d37 0800 1227 0300 a6ea 0380
00000210: 57ed 0480 e5a0 0800 e671 0480 a0aa a3bd
00000220: 62f4 0d3d 05bf 963d 07d6 90bd f92f 953b
00000230: d97c b83d 1de2 ce3c 5a69 283d 0d35 193c
00000240: 33b7 8b3d e5d1 8d3d 534d 9a3d 3d2e 433d
00000250: b91c c73d 1ef8 0a3e c958 403e 3b58 833e
00000260: e620 753d 697c 0980 759b 0300 11d4 0580
00000270: 26ae 0380 0815 0780 f31c 0a80 aa4b 0380
00000280: 237f 0000 31b0 0680 67d1 a53e a66b 343e
00000290: 5f93 f6bd 515b b83d 8b2b 403e 9906 ec3d
000002a0: 3604 7dbd c509 cc3d d934 1e3e ab09 0980
000002b0: ee40 0580 885d 0900 6403 0280 c25e 0100
000002c0: 35cf 0700 5e27 0980 1711 0a80 fefe 0280
000002d0: cb14 f13d cb32 f23d 2094 eb3c f96a a03d
000002e0: 832d 1f3e cb33 1a3e cead b63d d9da a93d
000002f0: bf9c 1d3e e797 0dbe 59ec 053c f1e6 a63e
00000300: c02c 7e3d 1c08 5d3e 5f71 103e 4e77 d23d
00000310: 544b 553e f6e7 953d 3a95 b8bd 15bd 7fbd
00000320: e91a 843d 91fe f8bc 3538 d63c aa9f b73d
00000330: e3b2 a0bd c4ec 8abc 6512 4f3d f291 2a3d
00000340: c87d b1ba a152 47bd c085 3dbd 6d6c 483d
00000350: a460 70bd 0bd0 d33d 8d76 063e 3d89 e03c
00000360: 1e74 823e dc75 203e 6eaf 0c3e 51f0 cd3a
00000370: 40dc 093e 0b85 fa3d 5199 b73c f660 03bd
00000380: 45a5 873d 6a8c b13d 899b 8d3d 1cda 2cbd
00000390: 9dac 463e dbe3 a5bc f8c3 3fbd 21e1 083c
000003a0: 78bf 123d 1a17 6f3d a80c 0380 5644 0a80
000003b0: 8b6d 0500 af34 303d 2a13 31bd 0df9 9bbd
000003c0: 1b30 ccbd f19b 07be 91b5 28be dd65 5a3e
000003d0: e2aa 663d cae7 8dbe a0e9 753d 7ec6 e73d
000003e0: bc46 ca3c fc29 eb3b 3ca6 2a3e d692 a33e
000003f0: 11e3 0900 63a3 0680 a360 0480 649f 0000

decoder.decoder.3.bias f4 [16]
0.18477215 5.5931e-41 0.11997226 3.28131e-40 0.15140238 0.18657118 0.02111419 -0.010024554
0.019092856 0.06073966 -0.051969077 0.104716115 5.66877e-40 -5.11077e-40 1.52412e-40 -0.056086358
00000000: e934 3d3e ea9b 0000 04b4 f53d b292 0300
00000010: 3a09 1b3e 840c 3f3e aaf7 ac3c 073e 24bc
00000020: 9f68 9c3c 26ca 783d 87dd 54bd 6775 d63d
00000030: 392c 0600 ad90 0580 dda8 0100 cfba 65bd

decoder.decoder.6.weight f4 [16, 16, 3, 3]
-0.04857184 0.040182274 0.029816547 -0.031707097 6.0443235e-05 0.07725721 0.023490526 0.056421142
0.07442226 0.029910449 0.09122394 0.13703755 -0.083707415 0.100377545 0.12969306 -0.1460825
-0.03960831 0.0031932732 -0.0001383296 -0.00026652776 -0.00022446175 -0.00018193095 -0.00033637165 -0.00025283216
-5.255998e-05 -8.995079e-05 -3.954588e-05 -4.869972e-18 -2.9708184e-11 -9.151683e-10 -1.6330843e-14 -1.7304433e-09
-1.6353413e-08 -6.635929e-17 -1.7262818e-11 -3.6683594e-11 0.0060119648 -0.14983582 -0.027492521 0.081644885
0.12856297 -0.017636916 -0.004234835 0.08433961 -0.056841776 -0.050082553 0.014397837 0.16144103
-0.1552594 -0.118800774 0.12470812 -0.012578205 -0.11245368 -0.06809916 0.06027898 0.10141105
0.020996584 0.10131741 0.03489432 -0.016147558 0.043531213 0.09865723 0.015919453 -0.11810556
-0.08621483 -0.09045313 -0.0005647801 0.106092304 0.066107914 0.030692289 0.12350356 -0.0026939383
-0.124040835 -0.042265713 0.09153988 -0.045756478 0.011296673 0.1060928 -0.07184544 0.1431886
0.019331768 0.069316655 0.12673159 0.1007257 0.15246287 0.15856384 0.12894261 0.046440154
0.041413933 0.012416497 -0.060801394 0.06917042 -0.10675452 -0.012023167 -0.0018743437 0.015006574
0.010235577 0.1163659 0.11824826 -3.4312053e-15 -1.1370885e-12 -7.856287e-18 -4.7290245e-20 -6.002547e-18
-7.36835e-22 -6.506178e-31 -4.9577263e-36 -4.38814e-40 0.08197603 0.054861445 0.0958412 0.022202266
0.033606015 -0.00095090084 0.01920906 0.110571325 0.041330215 -0.007477565 0.05349613 0.036574777
-0.004841041 0.022041233 0.028381068 -0.036689475 -0.002426924 0.16110197 -0.046590608 -0.057772547
-0.028984431 0.027473541 0.0005762362 0.0565139 0.05540749 0.107135884 0.11378057 -0.07252302
0.002587018 0.0062903543 0.06277598 0.1474826 0.074396096 0.03237616 0.096161194 -0.020571763
8.64615e-40 -6.75838e-40 -7.92017e-40 -9.67976e-40 8.5309e-40 7.90646e-40 -5.58937e-40 2.39014e-40
6.06918e-40 7.18716e-40 3.99537e-40 3.63029e-40 -9.40477e-40 -6.13096e-40 -4.01663e-40 -9.16511e-40
-8.58821e-40 8.13934e-40 3.6817e-40 5.97472e-40 9.79708e-40 2.96212e-40 -4.33719e-40 5.30553e-40
3.7228e-41 -2.60936e-40 1.002273e-39 8.51981e-40 9.86597e-40 4.77285e-40 -8.1505e-40 9.01297e-40
-8.74189e-40 -3.80148e-40 7.81632e-40 -9.06515e-40 -3.55776e-40 -2.37348e-40 6.67705e-40 1.73779e-40
-6.71442e-40 5.7213e-40 2.1862e-40 7.33619e-40 -6.5434e-40 7.34004e-40 -6.33084e-40 -6.75692e-40
4.35714e-40 -7.94332e-40 3.27038e-40 -5.57078e-40 -1.6737e-40 4.52371e-40 -5.05712e-40 6.88197e-40
-8.82804e-40 -3.3211e-41 -2.6975e-41 -7.5692e-40 -4.99588e-40 -7.0145e-40 8.58759e-40 8.38481e-40
-8.97988e-40 -2.18893e-40 -1.9015e-40 -6.47246e-40 4.6043e-40 -8.56043e-40 -8.69476e-40 -8.35024e-40
-7.49719e-40 7.46725e-40 8.53291e-40 1.8865e-40 2.45171e-40 -5.42552e-40 -8.8034e-41 -6.46207e-40
-6.45707e-40 4.3788e-40 -7.776e-41 4.47935e-40 -1.009e-41 7.70292e-40 2.242e-41 -8.93996e-40
-8.03998e-40 -7.67722e-40 -8.11719e-40 9.20357e-40 7.2428e-41 4.51376e-40 -2.69886e-40 9.1991e-40
5.622e-42 1.7562e-40 -8.59726e-40 8.59708e-40 8.54435e-40 -7.533e-40 1.038076e-39 2.69913e-40
7.29353e-40 -9.16972e-40 -6.34088e-40 8.35286e-40 9.30098e-40 4.29073e-40 -3.62089e-40 2.76039e-40
00000000: 44f3 46bd 2b96 243d d541 f43c 4ddf 01bd
00000010: 6e84 7d38 0739 9e3d 346f c03c db19 673d
00000020: b36a 983d c206 f53c 9ed3 ba3d 9253 0c3e
00000030: cb6e abbd be92 cd3d 42ce 043e a796 15be
00000040: 533c 22bd 3c46 513b 920c 11b9 c0bc 8bb9
00000050: 7e5d 6bb9 b8c4 3eb9 0a5b b0b9 8f8e 84b9
00000060: d973 5cb8 f6a3 bcb8 11de 25b8 96ab b3a2
00000070: 71a8 02ae 3e8f 7bb0 5c18 93a8 90d4 edb0
00000080: 8979 8cb2 9c03 99a4 69d8 97ad 0e56 21ae
00000090: 0400 c53b 906e 19be ff37 e1bc 6f35 a73d
000000a0: 03a6 033e 4b7b 90bc 5fc4 8abb 3fba ac3d
000000b0: ecd2 68bd 5d23 4dbd e8e4 6b3c cc50 253e
000000c0: 52fc 1ebe d24d f3bd f966 ff3d d114 4ebc
000000d0: 1d4e e6bd 9377 8bbd 17e7 763d 99b0 cf3d
000000e0: 0701 ac3c 817f cf3d 59ed 0e3d e247 84bc
000000f0: c94d 323d cd0c ca3d 8369 823c 54e1 f1bd
00000100: 6791 b0bd 7e3f b9bd c00d 14ba ec46 d93d
00000110: 9663 873d 656e fb3c 6fef fc3d c98c 30bb
00000120: 1f09 febd d01e 2dbd 4379 bb3d 256b 3bbd
00000130: ae15 393c 2f47 d93d b423 93bd 08a0 123e
00000140: a85d 9e3c e4f5 8d3d edc5 013e 4749 ce3d
00000150: 3a1f 1c3e 8f5e 223e 8809 043e 0838 3e3d
00000160: a8a1 293d 906e 4b3c e20a 79bd 39a9 8d3d
00000170: 1da2 dabd d1fc 44bc 8aac f5ba 22de 753c
00000180: 1fb3 273c 3f51 ee3d 252c f23d 913e 77a7
00000190: ee07 a0ab 44ec 10a3 6652 5f9f 7474 dda2
000001a0: d9b1 5e9c 3623 538d dce0 d284 3cc7 0480
000001b0: 0ce3 a73d 65b6 603d 6448 c43d 87e1 b53c
000001c0: 76a6 093d e045 79ba 525c 9d3c 3873 e23d
000001d0: df49 293d 5d06 f5bb c21e 5b3d 6fcf 153d
000001e0: 98a1 9ebb d18f b43c 6a7f e83c b447 16bd
000001f0: 070d 1fbb eaf7 243e cbd5 3ebd e8a2 6cbd
00000200: c270 edbc 3110 e13c 8f0e 173a 1f7b 673d
00000210: f7f2 623d 0f6a db3d ca05 e93d f386 94bd
00000220: f68a 293b 511f ce3b b190 803d ae05 173e
00000230: fb5c 983d dd9c 043d 29f0 c43d 1d86 a8bc
00000240: 326a 0900 f65b 0780 d29f 0880 538a 0a80
00000250: 114a 0900 009c 0800 1716 0680 469a 0200
00000260: d79b 0600 7dd3 0700 bf59 0400 faf3 0300
00000270: ab3d 0a80 10ad 0680 ac5f 0480 dcfa 0980
00000280: 0b5a 0980 ebdc 0800 4f02 0400 8281 0600
00000290: 07ab 0a00 b839 0300 08b9 0480 f7c6 0500
000002a0: c767 0000 62d7 0280 eee9 0a00 fa46 0900
000002b0: 3bbe 0a00 7a32 0500 07e0 0880 73d0 0900
000002c0: e284 0980 b323 0480 df82 0800 ffde 0980
000002d0: c2df 0380 a195 0280 4a45 0700 6de4 0100
000002e0: b54f 0780 de3a 0600 6c61 0200 08fd 0700
000002f0: 0920 0780 1bfe 0700 c8e4 0680 8e5b 0780
00000300: 98be 0400 46a6 0880 a68f 0300 e810 0680
00000310: 8fd2 0180 07ed 0400 b881 0580 6a7e 0700
00000320: e69c 0980 945c 0080 324b 0080 fc3d 0880
00000330: a670 0580 5ba3 0780 df59 0900 5821 0900
00000340: 3ac7 0980 2f62 0280 1012 0280 420c 0780
00000350: 7e03 0500 4d52 0980 bf77 0980 b517 0980
00000360: e929 0880 9121 0800 a14a 0900 e10d 0200
00000370: 70ab 0200 6ae8 0580 67f5 0080 5d09 0780
00000380: f807 0780 a2c4 0400 c3d8 0080 a9e0 0400
00000390: 201c 0080 4363 0800 7f3e 0000 19bc 0980
000003a0: 38c1 0880 195c 0880 bed6 0880 9505 0a00
000003b0: e6c9 0000 41ea 0400 55f0 0280 5604 0a00
000003c0: ac0f 0000 8fe9 0100 915c 0980 845c 0900
000003d0: d14d 0900 e533 0880 bc4d 0b00 68f0 0200
000003e0: 24f1 0700 25fc 0980 94e7 0680 7018 0900
000003f0: bc20 0a00 15ac 0400 5bf1 0380 7c01 0300

decoder.decoder.6.bias f4 [16]
0.05076403 0.031721387 -0.0003592532 -4.2175423e-09 0.0031567714 0.052268226 0.09059495 0.10607521
0.10406146 0.0924819 0.11760645 -2.4565603e-13 -0.018166808 0.0151706515 0.025133591 0.105632536
00000000: f2ed 4f3d 49ee 013d 265a bcb9 e5e9 90b1
00000010: d6e1 4e3b 3517 563d d889 b93d f63d d93d
00000020: 2d1e d53d 2667 bd3d a7db f03d c44a 8aaa
00000030: 8fd2 94bc 538e 783c f6e4 cd3c df55 d83d

decoder.decoder.9.weight f4 [16, 16, 3, 3]
0.038746003 -0.032108545 0.1066138 -0.024944097 -0.056387443 0.11242466 -0.09364831 0.032381505
0.094456926 -9.2443e-40 -7.4975e-41 2.55269e-40 -7.97828e-40 -3.5813e-41 -5.05848e-40 7.42566e-40
7.96006e-40 7.96537e-40 0.07200705 -0.09251938 -0.078039564 -0.053880747 -0.1588051 -0.0035531872
0.0026878542 -0.15822692 -0.0037647705 0.045752276 -0.06285304 0.028904056 -0.08037969 0.0338642
-0.04132467 -0.1375613 -0.0720291 -0.16984579 9.18107e-40 9.05293e-40 2.64602e-40 -7.35769e-40
8.66213e-40 -7.90328e-40 -9.27105e-40 1.0211e-41 -3.285e-40 0.015410207 0.063283406 0.055427108
-0.014572463 -0.10267022 -0.061847918 -0.019992819 -0.11921138 -0.09051264 -0.079053715 0.03552204
0.16049336 -0.04140304 0.04384895 0.05899045 -0.04157972 0.004910446 -0.08423233 -0.066241264
0.08553129 0.06225876 -0.020048477 -0.01799293 0.009779186 -0.013564465 0.014333807 0.034144584
0.06871329 -0.113085754 -0.058702048 -0.00858103 -0.021882603 0.05208504 0.0075069875 0.061577797
0.046943214 -3.05053e-40 -9.07276e-40 -5.76968e-40 5.40395e-40 -1.8249e-40 -4.11529e-40 5.8663e-40
1.81789e-40 3.16562e-40 0.04951011 -0.09648181 -0.09326938 -0.001871048 0.009749214 -0.16387326
-0.06770489 -0.07122671 -0.110676564 -0.0625265 -0.0514441 -0.1236525 0.040103596 0.0118494565
0.003614311 0.008403324 -0.037412688 -0.06270337 -0.032973148 -0.019395204 -0.009847916 -0.06404457
-0.025677955 -0.014405435 -0.1147733 -0.0618921 -0.061224088 -0.06222576 -0.07966305 0.037712306
0.06726376 0.042760488 0.1111686 0.061979905 -0.057857517 0.042938113 -0.008130031 -0.13035998
-0.052822907 0.07195438 -0.023288133 -0.0679745 -0.016476415 0.09247092 0.05242979 0.032023568
-0.020691585 -0.1300398 0.04305621 -0.009231068 -0.1228074 -0.00903911 -0.044664185 -0.07046124
-0.019197255 0.08963927 -0.035365634 0.037738796 0.052852325 -0.017134024 0.07269588 0.18055934
0.09831606 -8.54408e-40 -7.97678e-40 -9.46103e-40 6.22667e-40 7.63621e-40 8.10473e-40 -2.034e-40
3.9818e-41 -8.44987e-40 0.159284 0.10887504 -0.027293118 0.1128566 0.055077173 0.19896409
0.06714871 0.10552048 0.14365071 0.13650432 0.2485883 0.20091057 0.052898046 0.05750338
0.14891267 -0.11657228 -0.062298167 -0.1602484 9.57177e-40 -1.6775e-41 6.99978e-40 1.90542e-40
9.0611e-41 -2.67045e-40 -4.6782e-40 -7.57218e-40 -8.235e-41 0.12679726 0.08628166 0.23211819
0.07960363 0.07332158 0.16946483 -0.053615145 0.1000391 0.082689635 -0.10908852 -0.15978831
-0.06711844 0.15429057 0.07512278 0.09908688 0.0827948 0.027634142 0.044218767 0.04408808
0.0107339285 -0.12557346 -0.04658849 -0.094516136 -0.11563728 0.0874184 -0.013661795 0.0141755175
-0.05969555 -0.029011985 0.061224274 0.00393396 0.043286033 0.17645566 -0.05746316 -0.06372093
0.015362921 9.25164e-40 1.53937e-40 8.91252e-40 1.64592e-40 -4.97238e-40 6.87406e-40 2.3287e-41
-6.70696e-40 2.5659e-40 0.13325728 0.05580572 0.06997728 0.03363616 0.035493094 0.07820582
0.022693262 0.100170024 0.012763702 -0.049972035 -0.0076441113 0.07832097 0.04761067 0.011291692
0.07758423 0.1055627 0.03564202 0.0400484 0.11412681 0.058431238 0.040796343 0.08230886
00000000: 21b4 1e3d 4084 03bd 5658 da3d 9057 ccbc
00000010: 85f6 66bd e63e e63d afca bfbd 78a2 043d
00000020: a272 c13d ef10 0a80 00d1 0080 96c7 0200
00000030: 05b0 0880 d563 0080 1982 0580 f915 0800
00000040: f1aa 0800 6cac 0800 6f78 933d cd7a bdbd
00000050: 35d3 9fbd 0fb2 5cbd ce9d 22be 97dc 68bb
00000060: b626 303b 3d06 22be 5eba 76bb bd66 3b3d
00000070: 18b9 80bd 33c8 ec3c 1b9e a4bd 30b5 0a3d
00000080: 0f44 29bd dfdc 0cbe fe83 93bd 0eec 2dbe
00000090: 4fff 0900 97db 0900 9ae1 0200 0603 0880
000000a0: a66e 0900 1d9b 0880 6418 0a80 771c 0000
000000b0: b993 0380 187b 7c3c bb9a 813d 8907 633d
000000c0: 57c1 6ebc c444 d2bd 3e54 7dbd fbc7 a3bc
000000d0: 1925 f4bd b15e b9bd eae6 a1bd 8f7f 113d
000000e0: 5f58 243e 3c96 29bd f59a 333d f89f 713d
000000f0: 7f4f 2abd cee7 a03b 0082 acbd 80a9 87bd
00000100: 072b af3d 0b03 7f3d b43c a4bc e965 93bc
00000110: e138 203c 7d3d 5ebc 58d8 6a3c 31db 0b3d
00000120: 8eb9 8c3d 8199 e7bd 8f71 70bd 7397 0cbc
00000130: 2543 b3bc 1f57 553d 2dfd f53b 0039 7c3d
00000140: 8747 403d 5d52 0380 1ee1 0980 5a48 0680
00000150: 67e2 0500 b5fc 0180 2d7b 0480 4963 0600
00000160: c1fa 0100 7272 0300 1dcb 4a3d 4198 c5bd
00000170: 0404 bfbd f43d f5ba 2bbb 1f3c 64ce 27be
00000180: dda8 8abd 4fdf 91bd 65aa e2bd e50d 80bd
00000190: 0cb7 52bd 863d fdbd ab43 243d 3924 423c
000001a0: 14de 6c3b 18ae 093c 0c3e 19bd a06a 80bd
000001b0: da0e 07bd b1e2 9ebc 2759 21bc cd29 83bd
000001c0: 935a d2bc c604 6cbc 440e ebbd 9282 7dbd
000001d0: 1cc6 7abd 70e0 7ebd 6226 a3bd 3878 1a3d
000001e0: 95c1 893d 9f25 2f3d 5dac e33d a4de 7d3d
000001f0: 01fc 6cbd e0df 2f3d d233 05bc 167d 05be
00000200: d55c 58bd d15c 933d c1c6 bebc 3736 8bbd
00000210: 8cf9 86bc 6561 bd3d 9fc0 563d 252b 033d
00000220: 6681 a9bc 2729 05be b55b 303d e83d 17bc
00000230: 7282 fbbd c618 14bc cbf1 36bd fc4d 90bd
00000240: 9043 9dbc cb94 b73d 8edb 10bd ff93 1a3d
00000250: ae7b 583d a75c 8cbc 94e1 943d 8ce4 383e
00000260: ee59 c93d be4d 0980 9aaf 0880 5a4d 0a80
00000270: bec7 0600 aa50 0800 45d3 0800 ff36 0280
00000280: ff6e 0000 7b33 0980 581b 233e e1f9 de3d
00000290: d195 dfbc 5c21 e73d 9a98 613d 3ebd 4b3e
000002a0: 4385 893d 1f1b d83d 2c19 133e cac7 0b3e
000002b0: ee8d 7e3e 80bb 4d3e 9fab 583d aa88 6b3d
000002c0: 907c 183e 73bd eebd 5d2c 7fbd 2818 24be
000002d0: 386c 0a00 c32e 0080 419f 0700 2713 0200
000002e0: 96fc 0000 6ae8 0280 1818 0580 d13e 0880
000002f0: 8fe5 0080 24d7 013e 70b4 b03d 64b0 6d3e
00000300: 3a07 a33d a029 963d 3088 2d3e 8e9b 5bbd
00000310: 4de1 cc3d 2f59 a93d cd69 dfbd 8c9f 23be
00000320: 6575 89bd 59fe 1d3e f9d9 993d 10ee ca3d
00000330: 5290 a93d ff60 e23c bd1e 353d b495 343d
00000340: 5cdd 2f3c 5496 00be 93d3 3ebd ad91 c1bd
00000350: 3dd3 ecbd 6b08 b33d b9d5 5fbc 6e40 683c
00000360: 5283 74bd 8baa edbc 4ec6 7a3d 73e8 803b
00000370: b24c 313d cbb0 343e 7e5e 6bbd 1e80 82bd
00000380: c3b4 7b3c fb12 0a00 1dad 0100 73b4 0900
00000390: d1ca 0100 196a 0580 357c 0700 ea40 0000
000003a0: a14d 0780 45cb 0200 9974 083e 8a94 643d
000003b0: 4050 8f3d 12c6 093d 3561 113d 5f2a a03d
000003c0: 38e7 b93c f125 cd3d d91e 513c 7aaf 4cbd
000003d0: 747b fabb bf66 a03d 6803 433d ca00 393c
000003e0: 7be4 9e3d 4231 d83d 5efd 113d cb09 243d
000003f0: 51bb e93d 9855 6f3d 111a 273d 8c91 a83d

decoder.decoder.9.bias f4 [16]
-0.008045979 -8.45501e-40 0.020841312 0.08492167 5.26335e-40 0.06077706 -0.012653613 0.06276682
-0.0912234 3.73532e-40 -0.03289716 -0.083763964 -0.015165029 0.05474153 -0.045675807 -0.027578555
00000000: 48d3 03bc ea34 0980 66bb aa3c 6aeb ad3d
00000010: 35bb 0500 5ef1 783d 1a51 4fbc e48b 803d
00000020: 55d3 babd 4111 0400 2cbf 06bd 718c abbd
00000030: be76 78bc a838 603d 8e16 3bbd 6cec e1bc
